resnet32/checkpoints/resnet32_pruned50_int8_qat_fx.pt (torch, 564595 bytes, 68 tensors)

cpu f8 [16]
0	0x3f52cbafe0000000	0.0011471955804154277
1	0x3f4321fd00000000	0.0005838857032358646
2	0x3f3e46bee0000000	0.0004619804385583848
3	0x3f5d2b8380000000	0.0017803939990699291
4	0x3f569c2320000000	0.0013799994485452771
5	0x3f559a7aa0000000	0.0013185689458623528
6	0x3f4b00bc60000000	0.0008240623283199966
7	0x3f6bc8f620000000	0.0033917243126779795
8	0x3f4b12e0a0000000	0.0008262249757535756
9	0x3f64023f20000000	0.0024424775037914515
10	0x3f5d1e8d40000000	0.0017773036379367113
11	0x3f45899920000000	0.000657272117678076
12	0x3f596428c0000000	0.0015497587155550718
13	0x3f624228c0000000	0.0022288127802312374
14	0x3f505edf00000000	0.0009991815313696861
15	0x3f5af93c20000000	0.0016463362844660878

conv1.bias f4 [16]
0	0x3d86f1e4	0.06589106
1	0x3edc9a36	0.43086404
2	0x3daa995c	0.08330032
3	0x3ea39da8	0.3195622
4	0x3ecdf549	0.402262
5	0x3e5ac098	0.21362531
6	0x3e4c247f	0.19935797
7	0x3f355687	0.70835155
8	0x3ebcd65c	0.36882293
9	0x3e3b5480	0.18293953
10	0x3cbac646	0.022799622
11	0xbea6023a	-0.32423574
12	0xbf4981f7	-0.78713936
13	0x3f4326bb	0.76230973
14	0x3efa029b	0.48830113
15	0xbe312c68	-0.17302096

cpu f8 [16]
0	0x3f54133da0000000	0.0012252904707565904
1	0x3f6cc590c0000000	0.003512175288051367
2	0x3f622330e0000000	0.002214045962318778
3	0x3f60c71d80000000	0.002048070542514324
4	0x3f57ab5a20000000	0.0014446621062234044
5	0x3f5c284be0000000	0.0017185917822644114
6	0x3f53de3e00000000	0.001212654635310173
7	0x3f529db160000000	0.0011362297227606177
8	0x3f70086ca0000000	0.00391428405418992
9	0x3f54fd2980000000	0.0012810616753995419
10	0x3f632bfd20000000	0.0023403114173561335
11	0x3f56e359a0000000	0.0013969779247418046
12	0x3f6cd6d220000000	0.003520403290167451
13	0x3f4ef78740000000	0.0009450350189581513
14	0x3f6902d560000000	0.0030531089287251234
15	0x3f5570cf40000000	0.001308634178712964

layer1.0.conv1.bias f4 [16]
0	0xbebd002c	-0.36914194
1	0xbf26b00e	-0.6511239
2	0x3eab1829	0.3341687
3	0x3f055070	0.5207586
4	0x3f03694b	0.5133254
5	0xbd034da8	-0.03205648
6	0x3e064e62	0.13115838
7	0x3effa86c	0.49933183
8	0x3f171bbc	0.59026694
9	0x3ea8b23b	0.3294848
10	0x3eb235fb	0.3480681
11	0x3f5333f8	0.82501173
12	0xbfaa7b88	-1.3318949
13	0xbefdd0c8	-0.4957335
14	0x3ee6b4b2	0.45059735
15	0xbdbfb1f2	-0.09360112

cpu f8 [16]
0	0x3f5b5e98a0000000	0.0016705027082934976
1	0x3f55121840000000	0.0012860524002462626
2	0x3f61d449e0000000	0.002176422392949462
3	0x3f6a6aa8a0000000	0.0032246869523078203
4	0x3f621fbc00000000	0.0022123977541923523
5	0x3f67f25c80000000	0.00292318407446146
6	0x3f75ded320000000	0.00533945532515645
7	0x3f71a3afe0000000	0.004306494724005461
8	0x3f54fd52a0000000	0.001281099976040423
9	0x3f73542ce0000000	0.0047189476899802685
10	0x3f69e11b00000000	0.0031590964645147324
11	0x3f5c12d980000000	0.001713478472083807
12	0x3f7006c5a0000000	0.003912708256393671
13	0x3f6d0c77c0000000	0.003545984160155058
14	0x3f6901e020000000	0.0030526521150022745
15	0x3f682b4ea0000000	0.0029503379482775927

layer1.0.conv2.bias f4 [16]
0	0x3e82ebfa	0.2557066
1	0x3e50ec09	0.2040254
2	0x3de798c1	0.11308432
3	0xbd5b41c4	-0.053529516
4	0x3edd7b8e	0.43258327
5	0xbca903a8	-0.020631626
6	0xbe1e8a01	-0.15482332
7	0x3db915e4	0.090373784
8	0x3eab7ed0	0.33495188
9	0xbeac036c	-0.3359636
10	0xbe42c760	-0.19021368
11	0x3dc3863d	0.09547088
12	0xbcd3d3a8	-0.025857762
13	0x3f14c616	0.58114755
14	0xbdfcdb5a	-0.123465255
15	0xbea14fc0	-0.31506157

cpu f8 [16]
0	0x3f4aad17e0000000	0.0008140913560055196
1	0x3f4bfe8f40000000	0.0008543204749003053
2	0x3f58eb39c0000000	0.0015209258999675512
3	0x3f5311d260000000	0.0011639170115813613
4	0x3f54e1a400000000	0.0012745000422000885
5	0x3f5276ee80000000	0.0011269883252680302
6	0x3f4bd84ba0000000	0.0008497590315528214
7	0x3f5819ca00000000	0.0014709923416376114
8	0x3f5249d320000000	0.0011162339942529798
9	0x3f4074d860000000	0.0005022102850489318
10	0x3f519eff80000000	0.0010755057446658611
11	0x3f56c3bf40000000	0.0013894431758672
12	0x3f493f1400000000	0.0007704589515924454
13	0x3f45a817c0000000	0.0006609073607251048
14	0x3f45b40f80000000	0.0006623340304940939
15	0x3f549412a0000000	0.0012560064205899835

layer1.1.conv1.bias f4 [16]
0	0x3ee29cb7	0.4426019
1	0xbe0dc2e1	-0.13843872
2	0xbee7480c	-0.45172155
3	0xbf7e3098	-0.992929
4	0x3e369f7b	0.17834274
5	0x3f48961f	0.78354067
6	0x3f38809d	0.7207125
7	0x3ebefc12	0.3730169
8	0x3e8fa69e	0.28056806
9	0x3da6bf88	0.081420004
10	0x3e81be14	0.2534033
11	0x3ec9e958	0.3943584
12	0x3f3fe11b	0.7495286
13	0x3f250146	0.6445507
14	0x3e715e88	0.23571217
15	0x3ea0c18b	0.31397662

cpu f8 [16]
0	0x3f67669fe0000000	0.002856552368029952
1	0x3f4c7edd00000000	0.0008696154691278934
2	0x3f6031d320000000	0.0019768832717090845
3	0x3f5ca70b80000000	0.001748810987919569
4	0x3f5adaea40000000	0.0016391074750572443
5	0x3f633a81e0000000	0.0023472344037145376
6	0x3f6222c7a0000000	0.0022138499189168215
7	0x3f67543460000000	0.0028477690648287535
8	0x3f541f7a60000000	0.001228208071552217
9	0x3f56b161c0000000	0.0013850645627826452
10	0x3f6e493de0000000	0.003697033738717437
11	0x3f61df9680000000	0.002181810326874256
12	0x3f62f278c0000000	0.002312885131686926
13	0x3f6cdb83e0000000	0.003522641723975539
14	0x3f6dd0a740000000	0.003639532718807459
15	0x3f6d43bfa0000000	0.0035723440814763308

layer1.1.conv2.bias f4 [16]
0	0x3e6eee11	0.23333003
1	0xbb486bd0	-0.003058184
2	0x3e2406b6	0.16018185
3	0xbe6d66b0	-0.23183703
4	0xbd9de801	-0.07710267
5	0xbed53db2	-0.41648632
6	0x3de25642	0.110516086
7	0xbe4f7ce8	-0.20262492
8	0x3d8c3aa0	0.06847119
9	0xbe00cee6	-0.12578925
10	0xbeeec193	-0.4663206
11	0xbdc3f9a9	-0.09569103
12	0xbefc0406	-0.4922182
13	0xbe23d428	-0.159989
14	0xbe7841f0	-0.24243903
15	0x3c726838	0.0147953555

cpu f8 [16]
0	0x3f50666f80000000	0.001000985037535429
1	0x3f54f322e0000000	0.0012786713195964694
2	0x3f4781b720000000	0.000717367569450289
3	0x3f488c7520000000	0.0007491657161153853
4	0x3f4d7e74e0000000	0.0009000845602713525
5	0x3f40405cc0000000	0.0004959538346156478
6	0x3f478a3060000000	0.0007183777051977813
7	0x3f44fd8a20000000	0.000640575832221657
8	0x3f4b44ace0000000	0.0008321613422594965
9	0x3f3d4f3680000000	0.000447226339019835
10	0x3f4d3d8d40000000	0.0008923473069444299
11	0x3f4ccc0ae0000000	0.0008788159466348588
12	0x3f423d0140000000	0.0005565887549892068
13	0x3f50da0d20000000	0.0010285499738529325
14	0x3f4ade4a40000000	0.000819956068880856
15	0x3f509a2960000000	0.0010133174946531653

layer1.2.conv1.bias f4 [16]
0	0x3f43430b	0.76274174
1	0xbed3858c	-0.41312826
2	0xbee139ab	-0.4398931
3	0x3ebd01a9	0.3691533
4	0x3e7c023a	0.24610224
5	0x3e3a4098	0.18188703
6	0x3f1267f1	0.5718985
7	0x3e2cd292	0.16877201
8	0x3f351856	0.7074026
9	0xbe93a969	-0.28840187
10	0xbf314b84	-0.6925585
11	0x3e9b34dc	0.30313766
12	0x3e2dfd26	0.169911
13	0x3f3381ab	0.7011973
14	0xbe81de28	-0.25364804
15	0x3f1af8b2	0.6053573

cpu f8 [16]
0	0x3f53b08400000000	0.0012017525732517242
1	0x3f5311ec00000000	0.0011639408767223358
2	0x3f60c53420000000	0.0020471590105444193
3	0x3f651e45c0000000	0.0025779115967452526
4	0x3f52a07360000000	0.0011368872364982963
5	0x3f60032b00000000	0.0019546356052160263
6	0x3f67101b20000000	0.002815297106280923
7	0x3f73788b00000000	0.004753630608320236
8	0x3f5f6f7d00000000	0.0019186707213521004
9	0x3f640ec4c0000000	0.002448448445647955
10	0x3f668ff940000000	0.0027541988529264927
11	0x3f63337d00000000	0.0023438874632120132
12	0x3f5b3590a0000000	0.0016607200959697366
13	0x3f6e120440000000	0.0036707003600895405
14	0x3f6a61cc00000000	0.0032204613089561462
15	0x3f605fd1a0000000	0.0019988149870187044

layer1.2.conv2.bias f4 [16]
0	0x3ea5c529	0.32376984
1	0x3e01d4d1	0.1267884
2	0x3e15d3b6	0.14631543
3	0x3f3c0068	0.7343812
4	0x3ea6ac10	0.32553148
5	0xbe023fd6	-0.12719664
6	0x3e9bda62	0.3044005
7	0x3dbd2416	0.092353985
8	0x3ea901c2	0.33009154
9	0xbb36f5e0	-0.002791755
10	0xbe1819b0	-0.14853549
11	0x3d6b5eb1	0.05746335
12	0xbd5ef0f1	-0.054429
13	0xbec12192	-0.37720925
14	0xbcc6307e	-0.024193045
15	0x3dd3b898	0.10337943

cpu f8 [16]
0	0x3f4a93b980000000	0.0008110671769827604
1	0x3f3addb8a0000000	0.0004099441284779459
2	0x3f3c580c20000000	0.0004324941255617887
3	0x3f42899f20000000	0.0005657221772707999
4	0x3f47d0f220000000	0.0007268125773407519
5	0x3f487ca180000000	0.0007472790312021971
6	0x3f4e436260000000	0.0009235601755790412
7	0x3f45785180000000	0.0006552122067660093
8	0x3f4dc206e0000000	0.0009081395692192018
9	0x3f4a5da800000000	0.0008046217262744904
10	0x3f42e006a0000000	0.0005760223721154034
11	0x3f42933a60000000	0.0005668673547916114
12	0x3f4a8e0320000000	0.0008103862055577338
13	0x3f452c4fe0000000	0.0006461515440605581
14	0x3f4db849e0000000	0.0009069786756299436
15	0x3f437dea40000000	0.0005948442267253995

layer1.3.conv1.bias f4 [16]
0	0x3e34855a	0.17628995
1	0x3e848232	0.2588058
2	0x3eb20a6c	0.34773576
3	0x3e4c54ca	0.1995422
4	0x3e946f0a	0.28990966
5	0x3e57e08a	0.21081749
6	0x3e19a5d5	0.15004666
7	0x3dd11404	0.10208896
8	0x3f0f06f1	0.55869967
9	0xbdbfc3b9	-0.09363503
10	0x3e8a4e9a	0.27013093
11	0x3e695567	0.22786485
12	0x3e2a9b74	0.16660863
13	0x3eef8c2d	0.46786633
14	0x3d99acfd	0.07503698
15	0x3e31ef01	0.17376329

cpu f8 [16]
0	0x3f64643e80000000	0.0024892063811421394
1	0x3f4e354140000000	0.0009218758204951882
2	0x3f6554b940000000	0.0026038759388029575
3	0x3f76cb92a0000000	0.005565235856920481
4	0x3f19f18c20000000	9.896676783682778e-05
5	0x3f5569b760000000	0.0013069430133327842
6	0x3f6d94d9e0000000	0.003611016785725951
7	0x3f6dc1b480000000	0.0036324048414826393
8	0x3f695b89a0000000	0.0030954063404351473
9	0x3f49bb4de0000000	0.0007852678536437452
10	0x3f6e17be20000000	0.0036734307650476694
11	0x3f67a565c0000000	0.00288648484274745
12	0x3f68ae21e0000000	0.003012720262631774
13	0x3f6c00b640000000	0.0034183082170784473
14	0x3f69272c40000000	0.0030704368837177753
15	0x3f602fc9c0000000	0.0019759121350944042

layer1.3.conv2.bias f4 [16]
0	0x3ea9573c	0.33074367
1	0xbcd6b0dc	-0.02620738
2	0x3dea7719	0.11448497
3	0x3f50f1a3	0.8161871
4	0x3d46b7e1	0.048515204
5	0xbdc22438	-0.094795644
6	0x3e874499	0.26419523
7	0x3e9a5e0b	0.30149874
8	0x3e2028bc	0.15640539
9	0xbdda2eb9	-0.10653443
10	0xbd367f24	-0.044554844
11	0xbcd9c2bc	-0.026582114
12	0x3ebac301	0.364769
13	0xbf0f4273	-0.5596077
14	0xbe9069a7	-0.28205606
15	0x3d949778	0.07255453

cpu f8 [16]
0	0x3f47e895e0000000	0.0007296306430362165
1	0x3f3efc41c0000000	0.0004727993509732187
2	0x3f42dc4200000000	0.0005755731835961342
3	0x3f434c0080000000	0.000588894123211503
4	0x3f424ec840000000	0.0005587079795077443
5	0x3f4bb5bbc0000000	0.0008456389186903834
6	0x3f47ef4ba0000000	0.0007304305327124894
7	0x3f44062a80000000	0.0006110866088420153
8	0x3f43479860000000	0.000588368799071759
9	0x3f4f3b09c0000000	0.0009530828101560473
10	0x3f413debc0000000	0.0005261803744360805
11	0x3f41edc7c0000000	0.0005471444455906749
12	0x3f45beb620000000	0.0006636037142015994
13	0x3f44d7c580000000	0.0006360735278576612
14	0x3f42332be0000000	0.0005554165109060705
15	0x3f4e1d7d20000000	0.000919042679015547

layer1.4.conv1.bias f4 [16]
0	0xbbd46220	-0.006481424
1	0x3d6e5f56	0.05819639
2	0x3e1ca2aa	0.15296426
3	0x3e50e1ab	0.20398585
4	0x3e134a16	0.1438373
5	0x3ebf09b0	0.37312078
6	0x3e26ebe5	0.16300924
7	0x3e13bfd1	0.14428641
8	0x3e12b6ce	0.14327547
9	0x3e1dd83e	0.15414521
10	0x3e5e4022	0.21704152
11	0xbe278002	-0.16357425
12	0x3e55f8f8	0.20895755
13	0x3e230bd6	0.15922484
14	0xbc4fb570	-0.012677535
15	0x3da98b54	0.08278528

cpu f8 [16]
0	0x3f6ef81e80000000	0.0037804218009114265
1	0x3f48999100000000	0.0007507284171879292
2	0x3f5c1510a0000000	0.0017140066483989358
3	0x3f76748bc0000000	0.005482240580022335
4	0x3f2305e6a0000000	0.0001451343559892848
5	0x3f5493c6e0000000	0.0012559358729049563
6	0x3f64d30cc0000000	0.002542042639106512
7	0x3f6d0817e0000000	0.003543898230418563
8	0x3f5daf3a00000000	0.0018117967993021011
9	0x3f54b62340000000	0.0012641281355172396
10	0x3f691b9100000000	0.003064902499318123
11	0x3f660f8520000000	0.0026929473970085382
12	0x3f56dcb280000000	0.0013953917659819126
13	0x3f67cbbc20000000	0.0029047655407339334
14	0x3f74e5f200000000	0.005102105438709259
15	0x3f6a7a9e00000000	0.0032322965562343597

layer1.4.conv2.bias f4 [16]
0	0x3f30a082	0.68994915
1	0x3d86b1dd	0.065768935
2	0xbdb964d5	-0.09052435
3	0xbcfc32fc	-0.03078603
4	0x3cd3842f	0.025819866
5	0x3d1610e6	0.03663721
6	0xbea760a9	-0.32690933
7	0xbe162cec	-0.14665574
8	0xbd94a778	-0.07258505
9	0x3caad12e	0.020851698
10	0xbe3bd912	-0.18344525
11	0x3dee64df	0.116403334
12	0x3dce3e8a	0.10070522
13	0xbddb0051	-0.1069342
14	0xbec3ae7c	-0.3821906
15	0x3d5fc064	0.054626837

cpu f8 [32]
0	0x3f42d143a0000000	0.0005742626381106675
1	0x3f4585e3a0000000	0.0006568299722857773
2	0x3f47a09aa0000000	0.000721049786079675
3	0x3f498e89a0000000	0.0007799312588758767
4	0x3f47bed340000000	0.0007246524328365922
5	0x3f4229d6a0000000	0.0005543039296753705
6	0x3f4383b7a0000000	0.0005955359083600342
7	0x3f4c2aba40000000	0.0008595857070758939
8	0x3f4e93a0e0000000	0.0009331260225735605
9	0x3f48aa0be0000000	0.0007526929839514196
10	0x3f46476fc0000000	0.0006799026159569621
11	0x3f3cd12f80000000	0.0004397145239636302
12	0x3f4c6c16e0000000	0.0008673774427734315
13	0x3f458777c0000000	0.0006570181576535106
14	0x3f431bf1e0000000	0.0005831652670167387
15	0x3f4f388700000000	0.0009527835063636303
16	0x3f47d1a460000000	0.0007268955814652145
17	0x3f470061a0000000	0.0007019497570581734
18	0x3f50a3b4e0000000	0.0010155931813642383
19	0x3f456bae40000000	0.000653705676086247
20	0x3f50eb5a60000000	0.001032675034366548
21	0x3f51188440000000	0.0010434428695589304
22	0x3f42dac120000000	0.0005753939622081816
23	0x3f42ab8740000000	0.000569764175452292
24	0x3f4acbbe40000000	0.0008177451090887189
25	0x3f4b02dda0000000	0.0008243162301369011
26	0x3f434f45c0000000	0.0005892839981243014
27	0x3f432af440000000	0.0005849545123055577
28	0x3f44bef2e0000000	0.0006331144249998033
29	0x3f524104e0000000	0.0011141345603391528
30	0x3f4b37b120000000	0.0008306136005558074
31	0x3f4cacd620000000	0.0008750958950258791

layer2.0.conv1.bias f4 [32]
0	0x3f2444a5	0.64167243
1	0x3f67227c	0.90286994
2	0x3e007525	0.12544687
3	0x3e9a01f0	0.30079603
4	0x3ec8f332	0.39248043
5	0x3e8ef4ae	0.2792105
6	0xbe8a131a	-0.26967698
7	0xbe1c8cf8	-0.1528815
8	0xbdb9c8e0	-0.09071517
9	0xbef6ee7f	-0.48228833
10	0x3f12cf26	0.57347333
11	0x3ebf3c89	0.37350872
12	0x3e74f9e2	0.23923448
13	0x3eba5bb6	0.36398095
14	0xbe8393a5	-0.2569858
15	0x3f549bb1	0.83050066
16	0x3eaa26aa	0.33232623
17	0xbf6a0586	-0.9141468
18	0x3ea232e4	0.3167945
19	0x3f028334	0.5098145
20	0xbef7da76	-0.4840886
21	0x3ed9d54d	0.42545548
22	0x3d3ba1c8	0.045808583
23	0xbe24cc32	-0.1609352
24	0xbf041f63	-0.5161039
25	0x3ebeb119	0.3724449
26	0x3dcc8ea7	0.09988146
27	0xbe802abb	-0.250326
28	0x3e0598d0	0.13046575
29	0x3ebacc72	0.36484104
30	0xbf1c1d67	-0.60982364
31	0xbe3e13d4	-0.18562251

cpu f8 [32]
0	0x3f6011b0c0000000	0.0019615604542195797
1	0x3f630a1200000000	0.0023241378366947174
2	0x3f632fe620000000	0.0023421759251505136
3	0x3f615def40000000	0.002119986806064844
4	0x3f656e6580000000	0.0026161177083849907
5	0x3f5bb3e440000000	0.0016908387187868357
6	0x3f5aede000000000	0.0016436278820037842
7	0x3f5827df00000000	0.0014743497595191002
8	0x3f55bbe380000000	0.0013265344314277172
9	0x3f647eb3c0000000	0.002501822542399168
10	0x3f5acfe760000000	0.001636482193134725
11	0x3f59ac7f00000000	0.001567005179822445
12	0x3f65b8b080000000	0.0026515433564782143
13	0x3f606edae0000000	0.0020059847738593817
14	0x3f5a840c40000000	0.0016183967236429453
15	0x3f5f4fd8e0000000	0.0019111268920823932
16	0x3f594e5ee0000000	0.0015445639146491885
17	0x3f62b7b8a0000000	0.0022848707158118486
18	0x3f610541c0000000	0.0020777019672095776
19	0x3f61f32d20000000	0.0021911507938057184
20	0x3f5e9a04e0000000	0.0018677756888791919
21	0x3f673bbd40000000	0.0028361030854284763
22	0x3f59f6c600000000	0.0015847142785787582
23	0x3f564f3b20000000	0.0013616635696962476
24	0x3f592f9f40000000	0.001537232892587781
25	0x3f5da16ce0000000	0.0018085063202306628
26	0x3f5b8b3f40000000	0.0016811483073979616
27	0x3f5a82a7c0000000	0.0016180647071450949
28	0x3f66521660000000	0.0027246891986578703
29	0x3f5aa13060000000	0.0016253445064648986
30	0x3f57267d40000000	0.00141298514790833
31	0x3f60f10340000000	0.002068048808723688

layer2.0.conv2.bias f4 [32]
0	0x3e1e2c03	0.15446477
1	0xbdc89b16	-0.09795205
2	0x3d6fbeec	0.058531687
3	0x3dd416ee	0.10355936
4	0xbe960efb	-0.29308304
5	0xbdbada16	-0.09123628
6	0xbf068fbe	-0.52563083
7	0x3f181fca	0.59423506
8	0x3eb4afdc	0.3529042
9	0xbe5d5f8c	-0.2161848
10	0x3e30264c	0.17202109
11	0x3f063cad	0.52436334
12	0x3dcf0fda	0.10110445
13	0xbd35dee8	-0.044402033
14	0x3f2362dc	0.6382272
15	0x3f0ca028	0.5493188
16	0x3f439359	0.7639671
17	0x3d8ecb67	0.0697239
18	0x3e286aa8	0.16446936
19	0x3e94ce14	0.29063475
20	0xbc9e3d84	-0.019316442
21	0x3d18d2ee	0.037310533
22	0x3f109d43	0.5648996
23	0x3ee81fe6	0.45336837
24	0x3f033242	0.5124856
25	0x3c158fb0	0.009128496
26	0xbdc75592	-0.09733118
27	0x3ea6f923	0.3261195
28	0x3f2ae645	0.66757613
29	0x3ed21aab	0.4103597
30	0x3e75bb28	0.23997176
31	0x3f95d048	1.1704187

cpu f8 [32]
0	0x3f64c82800000000	0.0025368481874465942
1	0x3f4306c500000000	0.0005806409753859043
2	0x3f54bf68e0000000	0.0012663387460634112
3	0x3f5bdf9a60000000	0.0017012603348121047
4	0x3f69c81fa0000000	0.0031471841502934694
5	0x3f5fb35e00000000	0.0019348543137311935
6	0x3f64246420000000	0.0024587588850408792
7	0x3f55d19d60000000	0.0013317143311724067
8	0x3f58eeeb60000000	0.001521806581877172
9	0x3f65689740000000	0.002613349352031946
10	0x3f5fd2f0c0000000	0.0019423819612711668
11	0x3f69fdda00000000	0.003172803670167923
12	0x3f5c9d8300000000	0.00174653809517622
13	0x3f4af24760000000	0.0008223389158956707
14	0x3f5c794ce0000000	0.0017379046184942126
15	0x3f602b6d40000000	0.001973832491785288
16	0x3f632a3440000000	0.0023394604213535786
17	0x3f50680b80000000	0.0010013687424361706
18	0x3f4e5d5ce0000000	0.0009266570559702814
19	0x3f6a0098a0000000	0.0031741124112159014
20	0x3f4e583820000000	0.0009260438964702189
21	0x3f591eeaa0000000	0.001533249975182116
22	0x3f5a1e0ae0000000	0.0015940767480060458
23	0x3f796862a0000000	0.006203065160661936
24	0x3f689f3640000000	0.0030056056566536427
25	0x3f546f15a0000000	0.0012471877271309495
26	0x3f60d56040000000	0.002054870594292879
27	0x3f51247840000000	0.0010462927166372538
28	0x3f60762020000000	0.002009451622143388
29	0x3f5f74b640000000	0.001919916132465005
30	0x3f6425f440000000	0.0024595041759312153
31	0x3f54bc74a0000000	0.0012656344333663583

layer2.0.shortcut.0.bias f4 [32]
0	0xbe5d2641	-0.21596624
1	0x3e69fd5a	0.22850552
2	0x3e426896	0.18985209
3	0x3daad7f2	0.083419695
4	0xbe6cf6e1	-0.23141052
5	0x3ef9db88	0.48800302
6	0x3ee1e474	0.44119608
7	0x3e365b77	0.17808329
8	0x3ef2c96a	0.47419292
9	0x3f416eb3	0.7555954
10	0x3dd9059a	0.105967715
11	0x3efc1ec0	0.4924221
12	0xbd075cb6	-0.0330474
13	0x3db79d00	0.08965492
14	0x3ee8fe1d	0.45506373
15	0x3f3850a1	0.7199803
16	0x3f22223c	0.6333349
17	0xbbada610	-0.005299337
18	0x3d304c6e	0.04304164
19	0x3f83d635	1.0299746
20	0x3df408a1	0.11915708
21	0x3e8616e1	0.2618933
22	0x3eb8659e	0.36015028
23	0xbe33e957	-0.17569481
24	0x3ef8ba16	0.48579472
25	0xbebab237	-0.36464092
26	0xbdf92212	-0.121647015
27	0x3cb7f578	0.022455916
28	0x3e3abc50	0.18235898
29	0xbd8a2de5	-0.06747035
30	0x3d8f2b82	0.0699072
31	0xbe71d270	-0.23615432

cpu f8 [32]
0	0x3f4216fb20000000	0.0005520559498108923
1	0x3f51068f20000000	0.0010391614632681012
2	0x3f4519b160000000	0.0006439319695346057
3	0x3f425a26c0000000	0.0005600632866844535
4	0x3f43795520000000	0.0005942979478277266
5	0x3f422faec0000000	0.0005550006171688437
6	0x3f494ee600000000	0.0007723448798060417
7	0x3f3dd15780000000	0.00045498262625187635
8	0x3f4f283a60000000	0.0009508404764346778
9	0x3f3ea55380000000	0.00046761787962168455
10	0x3f5154cee0000000	0.0010578174842521548
11	0x3f3f1026e0000000	0.0004739851865451783
12	0x3f440f63e0000000	0.0006121862097643316
13	0x3f468f5d00000000	0.0006884769536554813
14	0x3f4663c720000000	0.0006832811632193625
15	0x3f47289480000000	0.0007067418191581964
16	0x3f509c9800000000	0.0010138973593711853
17	0x3f44bcf740000000	0.0006328780436888337
18	0x3f42100200000000	0.0005512246862053871
19	0x3f473ed8a0000000	0.0007093961467035115
20	0x3f3e87d6a0000000	0.00046586027019657195
21	0x3f48fa5c80000000	0.0007622672710567713
22	0x3f45a45300000000	0.0006604581139981747
23	0x3f4712b120000000	0.0007041325443424284
24	0x3f4c16fa40000000	0.000857231323607266
25	0x3f44b56fa0000000	0.0006319804233498871
26	0x3f5049e5e0000000	0.0009941811440512538
27	0x3f4a3ed440000000	0.0008009468438103795
28	0x3f4e4181c0000000	0.000923336367122829
29	0x3f46ae9b80000000	0.0006922015454620123
30	0x3f4aa28c20000000	0.0008128341869451106
31	0x3f48e3d420000000	0.0007595811621285975

layer2.1.conv1.bias f4 [32]
0	0x3e505e76	0.20348534
1	0x3dd7c25a	0.105351165
2	0xbdd504a7	-0.10401278
3	0x3e57155a	0.21004239
4	0xbd668f08	-0.05628875
5	0x3ef9f99b	0.48823246
6	0x3ec039fe	0.37544245
7	0x3e1f8237	0.15577017
8	0x3eeac888	0.45856118
9	0xbdce366f	-0.10068976
10	0xbd94eb08	-0.07271391
11	0x3c15af80	0.009136081
12	0xbd833e71	-0.06408394
13	0x3d679a88	0.056543857
14	0xbd8146e0	-0.063123465
15	0x3d487aec	0.048945352
16	0x3d98690c	0.07441911
17	0x3d96f62e	0.07371174
18	0xbe18c67e	-0.14919469
19	0x3aec6180	0.0018034428
20	0xbd961dc5	-0.07329897
21	0xbe91f4e7	-0.28507158
22	0xbe4680f0	-0.19385123
23	0xbf049caa	-0.5180155
24	0xbe87d32e	-0.26528305
25	0x3ee80396	0.45315236
26	0xbefb602e	-0.49096817
27	0x3eba4d24	0.3638698
28	0x3d0d3100	0.03447056
29	0xbe5a2237	-0.21302114
30	0xbe245edd	-0.16051812
31	0x3e647a27	0.22312222

cpu f8 [32]
0	0x3f67ae84e0000000	0.002890834352001548
1	0x3f6385b200000000	0.0023830868303775787
2	0x3f5f843580000000	0.0019236109219491482
3	0x3f59961ac0000000	0.0015616666059941053
4	0x3f5be075e0000000	0.0017014647601172328
5	0x3f519d3020000000	0.0010750741930678487
6	0x3f56456060000000	0.0013593140756711364
7	0x3f6aa91360000000	0.0032544496934860945
8	0x3f5853e120000000	0.00148484215606004
9	0x3f5e305ec0000000	0.0018425870221108198
10	0x3f6522f160000000	0.002580138621851802
11	0x3f5fca5f00000000	0.001940338872373104
12	0x3f5bddefe0000000	0.0017008631257340312
13	0x3f70ab5360000000	0.004069638904184103
14	0x3f608d2a00000000	0.0020204372704029083
15	0x3f61c597c0000000	0.0021694148890674114
16	0x3f572741e0000000	0.0014131682692095637
17	0x3f63c58bc0000000	0.0024135331623256207
18	0x3f63fac240000000	0.0024389070458710194
19	0x3f4c2b85c0000000	0.000859680469147861
20	0x3f64052660000000	0.0024438619147986174
21	0x3f601f6380000000	0.0019680922850966454
22	0x3f66517300000000	0.0027243848890066147
23	0x3f5b6cd780000000	0.0016738991253077984
24	0x3f539f8660000000	0.0011977016692981124
25	0x3f625433a0000000	0.0022374161053448915
26	0x3f60f9b680000000	0.0020721973851323128
27	0x3f5b3730c0000000	0.0016611076425760984
28	0x3f5c139b40000000	0.0017136589158326387
29	0x3f68496a20000000	0.0029646942857652903
30	0x3f5cb42c80000000	0.0017519411630928516
31	0x3f616c2960000000	0.002126770792528987

layer2.1.conv2.bias f4 [32]
0	0x3dca33b0	0.0987314
1	0x3d9d231e	0.07672714
2	0x3da93f6e	0.082640514
3	0x3de8e9ac	0.113726944
4	0x3dd0c834	0.10194436
5	0x3d5e1b1e	0.05422508
6	0xbd4fe592	-0.050756045
7	0xbe5b68c6	-0.21426687
8	0x3e88bafa	0.26705152
9	0x3e72694a	0.23672977
10	0xbdbeaaf1	-0.09309948
11	0x3c5c537f	0.013447641
12	0xbdabbfae	-0.083861694
13	0xbcd4264d	-0.02589717
14	0x3f000893	0.50013083
15	0xbd8ac5d8	-0.06776017
16	0x3da1739a	0.078833774
17	0x3e37ab76	0.17936501
18	0x3e6512e4	0.22370487
19	0x3d7e3f67	0.062072184
20	0x3da74952	0.081682816
21	0x3d3db590	0.04631573
22	0x3ec10f8b	0.3770717
23	0x3e1e0544	0.15431696
24	0x3da5d21c	0.08096716
25	0x3d350907	0.044198062
26	0xbe4f9518	-0.20271719
27	0x3df4af32	0.11947478
28	0xbe4c2fdb	-0.1994013
29	0xbe1aa942	-0.15103629
30	0x3e924c85	0.28574005
31	0x3ed163de	0.40896505

cpu f8 [32]
0	0x3f3c6459c0000000	0.000433227454777807
1	0x3f43b27840000000	0.0006011092336848378
2	0x3f43892f60000000	0.0005961877177469432
3	0x3f49026f20000000	0.0007632296183146536
4	0x3f428d00e0000000	0.0005661253235302866
5	0x3f43de4a80000000	0.0006063331384211779
6	0x3f52a18260000000	0.001137139624916017
7	0x3f482f6cc0000000	0.0007380753522738814
8	0x3f5114f740000000	0.001042596297338605
9	0x3f437cc8c0000000	0.0005947094177827239
10	0x3f432c4440000000	0.0005851109744980931
11	0x3f41db6020000000	0.0005449504242278636
12	0x3f44325a00000000	0.0006163539364933968
13	0x3f438fd9a0000000	0.0005969822523184121
14	0x3f43af3720000000	0.0006007212796248496
15	0x3f4818f4a0000000	0.0007353968103416264
16	0x3f43bbf940000000	0.0006022421875968575
17	0x3f434a29e0000000	0.0005886749713681638
18	0x3f41d1a820000000	0.0005437918589450419
19	0x3f3607b360000000	0.00033615235588513315
20	0x3f45c4aac0000000	0.0006643136730417609
21	0x3f3ebdf0e0000000	0.00046908503281883895
22	0x3f43ea0b00000000	0.0006077340804040432
23	0x3f3d1d8660000000	0.0004442647041287273
24	0x3f40131ec0000000	0.0004905605455860496
25	0x3f370d54c0000000	0.00035174674121662974
26	0x3f4320dec0000000	0.0005837524076923728
27	0x3f4a3c0320000000	0.0008006110438145697
28	0x3f423a4720000000	0.0005562636652030051
29	0x3f3e248e00000000	0.0004599425010383129
30	0x3f490d9ca0000000	0.0007645621080882847
31	0x3f4aa5dba0000000	0.0008132288348861039

layer2.2.conv1.bias f4 [32]
0	0x3e9f1a5c	0.31074798
1	0x3c430780	0.011903644
2	0xbdc58c82	-0.0964594
3	0x3dec7d88	0.11547381
4	0x3c028cd0	0.007968143
5	0x3ded9fe4	0.11602762
6	0x3d8b6a2e	0.068073615
7	0x3d8c76c8	0.06858593
8	0x3e90a936	0.28254098
9	0x3e1b22b6	0.1514996
10	0xbe550890	-0.20804048
11	0xbd0b97bc	-0.034080252
12	0xbd134ea4	-0.03596367
13	0x3e3b14ca	0.18269649
14	0x3e00e007	0.1258546
15	0xbc3188f0	-0.010835871
16	0xbd7d45c4	-0.06183411
17	0xbd2ce1ec	-0.042207643
18	0x3d9d897c	0.07692239
19	0xbeaea348	-0.3410895
20	0x3e8ac1f3	0.27101097
21	0x3e3e47fa	0.18582144
22	0x3c049820	0.00809291
23	0x3cdd7c60	0.027036846
24	0x3df14ff4	0.11782828
25	0x3d9e53ac	0.07730803
26	0x3ede92cc	0.43471372
27	0x3ec45975	0.383495
28	0x3e3087bd	0.1723928
29	0x3eaf8edc	0.3428868
30	0xbd183a9c	-0.03716527
31	0x3e46489a	0.19363633

cpu f8 [32]
0	0x3f6dc20ea0000000	0.0036325727123767138
1	0x3f65e94740000000	0.002674712333828211
2	0x3f69dec560000000	0.003157983301207423
3	0x3f6545fec0000000	0.002596852835267782
4	0x3f575ae840000000	0.001425482565537095
5	0x3f64a38ec0000000	0.002519396599382162
6	0x3f5b5526e0000000	0.001668251003138721
7	0x3f68927700000000	0.0029995273798704147
8	0x3f5c65e480000000	0.0017332774586975574
9	0x3f5e880340000000	0.00186348264105618
10	0x3f6d0ac420000000	0.003545172745361924
11	0x3f5d4b0b80000000	0.0017879116348922253
12	0x3f67453820000000	0.002840623492375016
13	0x3f6c7c3840000000	0.0034772013314068317
14	0x3f64c38b40000000	0.00253464886918664
15	0x3f66516d80000000	0.002724374644458294
16	0x3f5b7545e0000000	0.001675909268669784
17	0x3f6491dcc0000000	0.002510958816856146
18	0x3f6c3fc700000000	0.003448380157351494
19	0x3f56b1f9c0000000	0.0013852061238139868
20	0x3f6a41d0e0000000	0.0032052116002887487
21	0x3f65055f00000000	0.0025660376995801926
22	0x3f6864b920000000	0.002977716038003564
23	0x3f608612c0000000	0.002017056103795767
24	0x3f647750c0000000	0.0024983002804219723
25	0x3f656f11c0000000	0.0026164385490119457
26	0x3f5f87c180000000	0.001924456562846899
27	0x3f64023fc0000000	0.0024424786679446697
28	0x3f652312c0000000	0.0025802007876336575
29	0x3f70abcee0000000	0.004070098977535963
30	0x3f652e2c20000000	0.0025854932609945536
31	0x3f67e93520000000	0.002918819198384881

layer2.2.conv2.bias f4 [32]
0	0xbe83af1c	-0.25719535
1	0xbd6367a1	-0.05551875
2	0x3ddb87a6	0.10719232
3	0xbe377c82	-0.1791859
4	0xbce6bb61	-0.028165521
5	0xbdc6fdba	-0.09716363
6	0xbea37c4c	-0.31930768
7	0xbcd27143	-0.025688773
8	0x3d629b1f	0.055323716
9	0x3c10c828	0.0088367835
10	0xbcc05152	-0.023476277
11	0x3e2df7f0	0.16989112
12	0xbc0edd00	-0.008719683
13	0xbe2527c1	-0.16128446
14	0x3d33152c	0.043721363
15	0x3ea66675	0.32500044
16	0x3e21a014	0.15783721
17	0xbe00be8e	-0.12572691
18	0xbdedee44	-0.11617711
19	0x3e2b499a	0.16727296
20	0x3cb2de6d	0.021834577
21	0xbe9e81b8	-0.30958343
22	0x3d539f5e	0.051665656
23	0xbc4d4a58	-0.012529932
24	0x3d66b5fa	0.05632589
25	0xbccc6cb4	-0.024954177
26	0x3ce69790	0.028148443
27	0xbde3108d	-0.11087141
28	0x3e07b04e	0.13250849
29	0xbe41f732	-0.18941954
30	0x3ec61f9d	0.38695994
31	0x3e2757a3	0.16342025

cpu f8 [32]
0	0x3f460367c0000000	0.0006717926589772105
1	0x3f3eebf2a0000000	0.0004718272539321333
2	0x3f39036160000000	0.00038167121238075197
3	0x3f4058c380000000	0.0004988627042621374
4	0x3f419bb080000000	0.0005373584572225809
5	0x3f3bbb9240000000	0.0004231674247421324
6	0x3f40bde720000000	0.0005109194316901267
7	0x3f42017180000000	0.0005494884680956602
8	0x3f41ea89e0000000	0.0005467580049298704
9	0x3f4c65b6e0000000	0.0008666174835525453
10	0x3f415b2b20000000	0.0005296669551171362
11	0x3f40fb45a0000000	0.0005182352033443749
12	0x3f4484ab20000000	0.0006261668750084937
13	0x3f4d2287e0000000	0.0008891261531971395
14	0x3f3faa9ea0000000	0.000483192183310166
15	0x3f482570c0000000	0.0007368851220235229
16	0x3f46cc9ea0000000	0.0006957792793400586
17	0x3f3f501c00000000	0.00047779735177755356
18	0x3f44d0f2e0000000	0.0006352601922117174
19	0x3f42f91020000000	0.0005790070281364024
20	0x3f3fd0c9e0000000	0.0004854672297369689
21	0x3f433b6280000000	0.0005869132000952959
22	0x3f35dc4920000000	0.0003335646179039031
23	0x3f365aa760000000	0.0003410967474337667
24	0x3f438be8a0000000	0.0005965124000795186
25	0x3f5101e900000000	0.001038053072988987
26	0x3f41aa77a0000000	0.000539120112080127
27	0x3f37776d40000000	0.00035807053791359067
28	0x3f433780a0000000	0.0005864503909833729
29	0x3f40e4dae0000000	0.0005155628896318376
30	0x3f349fb7e0000000	0.00031469573150388896
31	0x3f383e0560000000	0.00036990767694078386

layer2.3.conv1.bias f4 [32]
0	0x3da16780	0.07881069
1	0xbdb59507	-0.08866315
2	0xbe9ec036	-0.3100602
3	0xbda81d5a	-0.08208723
4	0xbf75e556	-0.96053064
5	0xbe7a375f	-0.24435185
6	0x3e1720b3	0.14758568
7	0x3e09e8ee	0.13467762
8	0x3e514cba	0.20439425
9	0x3d82c930	0.0638603
10	0x3e75ccf1	0.2400396
11	0x3e909a53	0.2824274
12	0x3e874bf9	0.2642515
13	0x3dbfd434	0.093666464
14	0xbe0b0948	-0.1357776
15	0x3e204929	0.15652908
16	0xbe8a71d1	-0.2703996
17	0xbea962c6	-0.3308317
18	0xbe63dffb	-0.2225341
19	0x3ee47379	0.4461935
20	0xbc45eda0	-0.01208058
21	0xbd367c40	-0.044552088
22	0x3e9f69be	0.31135362
23	0xbd53c304	-0.051699653
24	0xbda4c598	-0.080455005
25	0x3db853e4	0.09000376
26	0xbe37b297	-0.1793922
27	0x3dd88fb4	0.10574284
28	0xbdb7f7b4	-0.089827925
29	0x3e8c69a0	0.27424335
30	0xbcb179e4	-0.021664567
31	0xbe391a90	-0.18076539

cpu f8 [32]
0	0x3f6be683e0000000	0.0034058166202157736
1	0x3f70838e40000000	0.004031711257994175
2	0x3f631a4940000000	0.0023318701423704624
3	0x3f6be34da0000000	0.0034042850602418184
4	0x3f63d4b560000000	0.0024207632523030043
5	0x3f63ae6760000000	0.0024024981539696455
6	0x3f590ec520000000	0.001529400353319943
7	0x3f686d7480000000	0.002981879748404026
8	0x3f5cbbfc00000000	0.0017538033425807953
9	0x3f5f55ca20000000	0.001912543666549027
10	0x3f6e8a4d40000000	0.0037280567921698093
11	0x3f68d94180000000	0.0030332831665873528
12	0x3f67b9c3a0000000	0.0028961964417248964
13	0x3f6922ef20000000	0.003068415680900216
14	0x3f5d934020000000	0.001805126783438027
15	0x3f69d96a80000000	0.0031554298475384712
16	0x3f65a84d20000000	0.0026437288615852594
17	0x3f62a9ae40000000	0.0022781756706535816
18	0x3f6b1286e0000000	0.0033047327306121588
19	0x3f533bb540000000	0.0011739034671336412
20	0x3f6a08c0a0000000	0.0031780016142874956
21	0x3f741857e0000000	0.004906028043478727
22	0x3f60d20160000000	0.0020532633643597364
23	0x3f58325020000000	0.0014768393011763692
24	0x3f746233c0000000	0.004976465366780758
25	0x3f7062a900000000	0.0040003396570682526
26	0x3f62b92d20000000	0.002285564551129937
27	0x3f67ab2180000000	0.0028892187401652336
28	0x3f62779e00000000	0.0022543035447597504
29	0x3f6ca96980000000	0.003498750738799572
30	0x3f623d26a0000000	0.0022264246363192797
31	0x3f67d0b9e0000000	0.0029071455355733633

layer2.3.conv2.bias f4 [32]
0	0xbe7a2265	-0.24427183
1	0xbd537ad8	-0.051630825
2	0x3d68b1ec	0.056810305
3	0x3e16c67d	0.14724155
4	0xbdbe3df4	-0.0928916
5	0xbd411645	-0.04714038
6	0x3d2c8ca8	0.042126328
7	0x3bc9a090	0.0061531737
8	0x3d3e698c	0.046487376
9	0x3e187cf8	0.14891422
10	0x3e6e6c60	0.2328353
11	0xbe0eb82a	-0.1393744
12	0x3e0c0688	0.13674366
13	0xbdcac35b	-0.09900542
14	0xbcc46fd4	-0.023979105
15	0x3d91d168	0.07120019
16	0x3c7f18b0	0.015569851
17	0xbe1e5ab8	-0.15464294
18	0x3e364dc6	0.17803106
19	0x3bd09478	0.006365355
20	0xbe17deda	-0.14831105
21	0xbd3026b2	-0.043005653
22	0x3cfeb6a0	0.031092942
23	0xbd865a9e	-0.065602526
24	0x3d02bc58	0.0319179
25	0xbbec0fd0	-0.0072040334
26	0x3dc0b4f4	0.09409514
27	0xbe499156	-0.19684348
28	0xbcbe9e16	-0.02326874
29	0x3e7ad9b4	0.2449711
30	0x3d8e6936	0.06953661
31	0xbce64ad8	-0.02811186

cpu f8 [32]
0	0x3f3fc69fe0000000	0.0004848614044021815
1	0x3f41e3d640000000	0.000545959104783833
2	0x3f3ba125c0000000	0.0004215924418531358
3	0x3f41f736a0000000	0.0005482689593918622
4	0x3f41193500000000	0.0005218037404119968
5	0x3f432d7d00000000	0.0005852566100656986
6	0x3f3a4e3820000000	0.00040139074553735554
7	0x3f39012a80000000	0.0003815392265096307
8	0x3f3e30e540000000	0.0004606780712492764
9	0x3f4c9719a0000000	0.0008725047227926552
10	0x3f3bf5b400000000	0.0004266323521733284
11	0x3f3afaed20000000	0.0004116848867852241
12	0x3f3947f820000000	0.00038575942744500935
13	0x3f41e4a120000000	0.0005460535758174956
14	0x3f40224bc0000000	0.0004923696396872401
15	0x3f3bc881a0000000	0.00042393841431476176
16	0x3f38373b40000000	0.000369502988178283
17	0x3f3aab3760000000	0.00040693380287848413
18	0x3f4a0e0420000000	0.0007951278821565211
19	0x3f37ba2540000000	0.00036204728530719876
20	0x3f4709ae00000000	0.0007030582055449486
21	0x3f3ca5e0a0000000	0.0004371331597212702
22	0x3f4ea921e0000000	0.0009356894879601896
23	0x3f42571f20000000	0.0005597021081484854
24	0x3f432caba0000000	0.0005851591122336686
25	0x3f34e2caa0000000	0.00031869360827840865
26	0x3f3b7147c0000000	0.0004187393351458013
27	0x3f3699fae0000000	0.00034487128141336143
28	0x3f48058780000000	0.0007330810185521841
29	0x3f42328fa0000000	0.0005553437513299286
30	0x3f43150ba0000000	0.0005823427927680314
31	0x3f3cce76a0000000	0.0004395522701088339

layer2.4.conv1.bias f4 [32]
0	0xbf1d6746	-0.6148571
1	0x3b297b00	0.0025860667
2	0x3e964229	0.2934735
3	0xbe696f0c	-0.22796267
4	0xbe12fe7d	-0.14354892
5	0xbeb75494	-0.35806715
6	0x3c9e53a8	0.019327
7	0xbf2c09f0	-0.67202663
8	0x3eb7fa87	0.35933325
9	0xbe477835	-0.19479449
10	0x3dd92bdc	0.10604069
11	0x3e53255f	0.20619725
12	0xbe9ec167	-0.3100693
13	0x3e8d3f38	0.27587295
14	0xbca3f538	-0.02001439
15	0x397bb000	0.0002400279
16	0xbebfb316	-0.3744132
17	0xbe4ea459	-0.20179881
18	0xbe9134ad	-0.283605
19	0x3eea44cd	0.45755616
20	0xbe3196cb	-0.17342679
21	0xbdc23a3c	-0.094837636
22	0xbe3701ab	-0.1787173
23	0xbdbf549c	-0.0934231
24	0xbdb58018	-0.088623226
25	0xbe9f8317	-0.311547
26	0xb9dc3400	-0.00042000413
27	0xbd38941a	-0.045063116
28	0x3dcbd06e	0.09951864
29	0xbeedaf38	-0.46422744
30	0x3d253b98	0.040340036
31	0x3dd9afec	0.106292576

cpu f8 [32]
0	0x3f6cb0cc00000000	0.003502272069454193
1	0x3f6976a0a0000000	0.003108323784545064
2	0x3f6d116540000000	0.0035483338870108128
3	0x3f68aef4a0000000	0.0030131128150969744
4	0x3f66307b00000000	0.0027086641639471054
5	0x3f6cb88ea0000000	0.003505972446873784
6	0x3f5b9fdaa0000000	0.0016860613832250237
7	0x3f6c938240000000	0.0034883064217865467
8	0x3f4e3451a0000000	0.0009217642364092171
9	0x3f663dbf40000000	0.002714990172535181
10	0x3f677188a0000000	0.002861754270270467
11	0x3f6a5c7700000000	0.003217918798327446
12	0x3f6ce02200000000	0.003524843603372574
13	0x3f7dd98120000000	0.007287506479769945
14	0x3f66d44400000000	0.00278676301240921
15	0x3f70bcfbc0000000	0.004086478613317013
16	0x3f620294a0000000	0.0021984961349517107
17	0x3f63dfd500000000	0.002426067367196083
18	0x3f60498480000000	0.0019881809130311012
19	0x3f519b18e0000000	0.0010745757026597857
20	0x3f730e1600000000	0.004652105271816254
21	0x3f712d4e40000000	0.004193597473204136
22	0x3f72029520000000	0.004396994132548571
23	0x3f6153e560000000	0.0021152000408619642
24	0x3f64397a40000000	0.0024688136763870716
25	0x3f718c15e0000000	0.004283986520022154
26	0x3f6fb91080000000	0.0038724252954125404
27	0x3f67731400000000	0.002862490713596344
28	0x3f5a6d3840000000	0.0016129540745168924
29	0x3f715832c0000000	0.004234503023326397
30	0x3f64fa5e20000000	0.0025607908610254526
31	0x3f59ddc940000000	0.0015787568408995867

layer2.4.conv2.bias f4 [32]
0	0xbe653a19	-0.22385444
1	0xbdda56ac	-0.106610626
2	0x3de79e80	0.11309528
3	0xbd922ee9	-0.07137854
4	0xbc8e53e4	-0.017373987
5	0x3ce98a04	0.028508194
6	0xbd6b3a2c	-0.057428524
7	0xbdc66076	-0.09686367
8	0xbc312074	-0.01081096
9	0xbca7ae98	-0.020468995
10	0x3da6dfb6	0.08148138
11	0x3df66f3e	0.120329365
12	0x3de5e985	0.11226181
13	0xbe67bab6	-0.22629818
14	0xbd5984b6	-0.05310508
15	0x3dbdb055	0.09262148
16	0xbdf9a9b3	-0.12190571
17	0x3e4b74d3	0.19868784
18	0x3d7b4590	0.061345637
19	0xba339680	-0.00068507344
20	0xbe412b6f	-0.18864225
21	0xbd00e0c8	-0.031464368
22	0x3d8f4634	0.06995812
23	0x3ca58f4f	0.020209936
24	0xbd99cc18	-0.07509631
25	0xbcadeb32	-0.021230314
26	0xbd9c504e	-0.076325044
27	0xbd13dc8e	-0.03609901
28	0xbd4a2c2a	-0.049358524
29	0x3e840c73	0.25790748
30	0xbcfa943c	-0.030588262
31	0xbc416610	-0.011804119

cpu f8 [64]
0	0x3f451ba280000000	0.0006441634614020586
1	0x3f44893fe0000000	0.0006267129792831838
2	0x3f44924ae0000000	0.0006277909851633012
3	0x3f3dfc1600000000	0.0004575303755700588
4	0x3f41b54580000000	0.0005404080729931593
5	0x3f44f08200000000	0.0006390223279595375
6	0x3f44f9bfc0000000	0.0006401239661499858
7	0x3f3a651220000000	0.0004027528048027307
8	0x3f3d56c5e0000000	0.0004476769536267966
9	0x3f4d6af2c0000000	0.0008977589895948768
10	0x3f45a659c0000000	0.0006606996757909656
11	0x3f417eb5c0000000	0.0005339038325473666
12	0x3f43bd9120000000	0.0006024321191944182
13	0x3f44c28a40000000	0.0006335425423458219
14	0x3f433f9be0000000	0.0005874167545698583
15	0x3f3feda4a0000000	0.0004871870914939791
16	0x3f451424e0000000	0.0006432704976759851
17	0x3f3c2ed560000000	0.0004300375876482576
18	0x3f4a48c9a0000000	0.0008021339890547097
19	0x3f45759e60000000	0.0006548903766088188
20	0x3f47cb5e20000000	0.0007261476130224764
21	0x3f43138b80000000	0.0005821639206260443
22	0x3f42a711c0000000	0.0005692326230928302
23	0x3f46745b60000000	0.0006852575461380184
24	0x3f437f3460000000	0.000594997953157872
25	0x3f429177e0000000	0.0005666575743816793
26	0x3f3bc015a0000000	0.000423436431447044
27	0x3f42d855e0000000	0.0005751056014560163
28	0x3f4874a0c0000000	0.0007463250076398253
29	0x3f3f4f85e0000000	0.000477762398077175
30	0x3f43c51460000000	0.0006033277022652328
31	0x3f418c1c80000000	0.0005355014000087976
32	0x3f43d7f1c0000000	0.0006055765552446246
33	0x3f40129f80000000	0.0004905012901872396
34	0x3f40b0d4c0000000	0.0005093611543998122
35	0x3f3f62bf60000000	0.00047890827408991754
36	0x3f3eaf65c0000000	0.00046821817522868514
37	0x3f42e9bae0000000	0.0005771791911683977
38	0x3f41865a00000000	0.0005348147824406624
39	0x3f3f0eeb40000000	0.00047391169937327504
40	0x3f41e3b680000000	0.000545944320037961
41	0x3f45e3d1e0000000	0.0006680273800157011
42	0x3f473c2dc0000000	0.0007090781582519412
43	0x3f45778460000000	0.0006551166879944503
44	0x3f4187e9c0000000	0.0005350009305402637
45	0x3f46b161c0000000	0.0006925322813913226
46	0x3f35a38b00000000	0.00033018249087035656
47	0x3f3e1ccf00000000	0.0004594807978719473
48	0x3f44cac660000000	0.0006345242145471275
49	0x3f427c2be0000000	0.0005641187890432775
50	0x3f4409b0a0000000	0.0006115066935308278
51	0x3f36783100000000	0.0003428573254495859
52	0x3f4140f1a0000000	0.0005265407380647957
53	0x3f49fe4380000000	0.0007932500448077917
54	0x3f40586d80000000	0.000498822657391429
55	0x3f45946940000000	0.0006585611263290048
56	0x3f42c39180000000	0.0005726299714297056
57	0x3f3a9383c0000000	0.0004055210738442838
58	0x3f48d2f6e0000000	0.0007575707859359682
59	0x3f3dd967c0000000	0.00045546324690803885
60	0x3f4602e4c0000000	0.0006717316573485732
61	0x3f3bcf2920000000	0.0004243350413162261
62	0x3f3f0f2920000000	0.0004739261057693511
63	0x3f434657e0000000	0.0005882195546291769

layer3.0.conv1.bias f4 [64]
0	0xbd25ae2e	-0.040449314
1	0xbf56cdee	-0.83907974
2	0xbe529ac4	-0.20566851
3	0x3eade325	0.3396236
4	0xbe6e6f00	-0.2328453
5	0xbe14c16f	-0.14526914
6	0x3f00ed03	0.5036165
7	0x3eec4970	0.46149778
8	0xbb26efc0	-0.0025472492
9	0x3e235246	0.15949354
10	0x3dc40f74	0.0957326
11	0x3ee2d958	0.44306445
12	0x3b4bd940	0.0031104833
13	0xbd75ee52	-0.060041733
14	0x3e61fff4	0.22070295
15	0x3e65ac3e	0.22428986
16	0xbe5fdc4c	-0.2186138
17	0xbd352136	-0.044221126
18	0xbd2cc3e2	-0.042178996
19	0xbddc40c5	-0.10754541
20	0xbd3e3e0d	-0.046445895
21	0xbe9318b8	-0.28729796
22	0x3e042871	0.12906052
23	0xbeb15d2e	-0.34641403
24	0x3e822331	0.25417474
25	0x3ddf30ce	0.10897981
26	0x3e076f8a	0.13226143
27	0xbe59b590	-0.21260667
28	0xbdc287d8	-0.094985664
29	0x3e639172	0.22223452
30	0x3e59688e	0.2123129
31	0xbc191550	-0.00934346
32	0xbf680513	-0.9063274
33	0x3e94d502	0.29068762
34	0xbec4eaf7	-0.38460514
35	0x3e4e6f6f	0.20159696
36	0x3e0bc396	0.13648829
37	0x3ee40cb2	0.44540936
38	0xbe24b9da	-0.16086522
39	0xbefd63c6	-0.49490184
40	0x3efa77e3	0.4891959
41	0xbe1d13fa	-0.15339652
42	0x3ebccb06	0.36873645
43	0xbb2b0800	-0.0026097298
44	0x3ef41540	0.47672462
45	0xbe33cbe2	-0.17558244
46	0x3ea378a3	0.31927976
47	0xbe32009a	-0.17383042
48	0x3e05c9ee	0.13065311
49	0x3e29dee8	0.16588938
50	0xbecc3965	-0.3988754
51	0x3e25773d	0.16158767
52	0x3f0efd06	0.55854833
53	0xbe63756e	-0.22212765
54	0xbeb8b8cc	-0.3607849
55	0xbf5e3730	-0.8680296
56	0x3e153302	0.14570239
57	0x3e62402b	0.2209479
58	0xbd1e54e6	-0.038655184
59	0x3ea48985	0.3213617
60	0x3ed6f12e	0.4198088
61	0x3e16fd62	0.14745095
62	0x3d3f5748	0.046714097
63	0xbeaa3e0a	-0.33250457

cpu f8 [64]
0	0x3f5b0d3180000000	0.0016510947607457638
1	0x3f60e3e480000000	0.0020617926493287086
2	0x3f63a5e500000000	0.0023984406143426895
3	0x3f5755db00000000	0.0014242781326174736
4	0x3f62a08960000000	0.0022738154511898756
5	0x3f6349fa80000000	0.0023546116426587105
6	0x3f5a2d6760000000	0.0015977391740307212
7	0x3f5c9e8380000000	0.0017467769794166088
8	0x3f60cd2e40000000	0.0020509627647697926
9	0x3f5b7d6f20000000	0.0016778550343587995
10	0x3f64214600000000	0.0024572722613811493
11	0x3f66e4a420000000	0.00279457145370543
12	0x3f645e12e0000000	0.0024862641002982855
13	0x3f63893200000000	0.0023847557604312897
14	0x3f5a7ed140000000	0.0016171496827155352
15	0x3f63267180000000	0.0023376671597361565
16	0x3f650805c0000000	0.002567301969975233
17	0x3f605ab280000000	0.001996372826397419
18	0x3f61bf4d00000000	0.0021664146333932877
19	0x3f63558500000000	0.0023601148277521133
20	0x3f5e619de0000000	0.001854328322224319
21	0x3f62d64e00000000	0.0022994540631771088
22	0x3f5b24e1a0000000	0.0016567424172535539
23	0x3f636547c0000000	0.002367630135267973
24	0x3f617de0c0000000	0.0021352185867726803
25	0x3f61488380000000	0.002109772525727749
26	0x3f626e1320000000	0.002249753335490823
27	0x3f5705fe60000000	0.0014052375918254256
28	0x3f65e7e4c0000000	0.0026740520261228085
29	0x3f622c1ee0000000	0.00221830396912992
30	0x3f59fea200000000	0.0015865880995988846
31	0x3f65166380000000	0.0025741523131728172
32	0x3f5b835660000000	0.001679262495599687
33	0x3f623f9de0000000	0.0022276004310697317
34	0x3f65f02dc0000000	0.0026780026964843273
35	0x3f52e4fa80000000	0.0011532255448400974
36	0x3f64295300000000	0.0024611111730337143
37	0x3f5a364aa0000000	0.001599858165718615
38	0x3f5ce4d680000000	0.0017635435797274113
39	0x3f5a0f0960000000	0.0015904990723356605
40	0x3f5f3eb7e0000000	0.0019070430425927043
41	0x3f62e126a0000000	0.002304625930264592
42	0x3f5ebaf2a0000000	0.0018756265053525567
43	0x3f610a0a40000000	0.002079982776194811
44	0x3f608727e0000000	0.0020175722893327475
45	0x3f63d03fe0000000	0.002418637042865157
46	0x3f5bc8f640000000	0.0016958622727543116
47	0x3f5b229b60000000	0.001656200154684484
48	0x3f57357ee0000000	0.0014165629399940372
49	0x3f5c38e140000000	0.0017225455958396196
50	0x3f639bdf00000000	0.002393661066889763
51	0x3f608123e0000000	0.002014703815802932
52	0x3f663deaa0000000	0.002715070964768529
53	0x3f5dd6db20000000	0.001821245183236897
54	0x3f5acec2e0000000	0.00163620978128165
55	0x3f59fb5cc0000000	0.0015858083497732878
56	0x3f67a676e0000000	0.0028869935777038336
57	0x3f62262540000000	0.0022154548205435276
58	0x3f5981f4a0000000	0.0015568627277389169
59	0x3f63211fa0000000	0.0023351304698735476
60	0x3f61627d80000000	0.0021221591159701347
61	0x3f626f1a00000000	0.002250242978334427
62	0x3f5b0ab0a0000000	0.001650497899390757
63	0x3f5b6ed700000000	0.0016743754968047142

layer3.0.conv2.bias f4 [64]
0	0x3e74f923	0.23923163
1	0xbd20cbf8	-0.03925702
2	0xbe873a30	-0.2641158
3	0x3e60b119	0.21942557
4	0x3ec1b4f7	0.37833378
5	0xbe21a6d9	-0.15786304
6	0x3e759205	0.23981483
7	0xbcbf28bc	-0.023334853
8	0xbe1a675b	-0.1507849
9	0x3eb2a000	0.34887695
10	0x3e9f94e2	0.31168276
11	0xbeb8e0e0	-0.36109066
12	0x3f00dcaf	0.50336736
13	0x3e922590	0.28544283
14	0x3da40344	0.08008435
15	0x3dc31316	0.09525125
16	0x3d9bc3b5	0.076056875
17	0xbd7b6a12	-0.061380453
18	0x3e0dca37	0.1384667
19	0x3ea9f2b9	0.33192995
20	0x3e7af3ef	0.24507116
21	0xbd018bfc	-0.03162764
22	0x3e58c22a	0.21167818
23	0x3e70a6fd	0.23501201
24	0x3d7cf04c	0.061752602
25	0xbed64e0d	-0.41856423
26	0x3e5107fc	0.20413202
27	0x3dcedf68	0.10101205
28	0x3e5b99c6	0.21445379
29	0xbdfe3dbd	-0.124141194
30	0x3e754103	0.23950581
31	0x3e4f4806	0.20242319
32	0xbdb0920e	-0.08621608
33	0xbd6bc308	-0.057559043
34	0xbec8a934	-0.39191592
35	0x3ebe4e40	0.37169075
36	0xbdfd9b01	-0.1238308
37	0x3e85de8b	0.2614635
38	0xbd75d4ab	-0.06001727
39	0x3e6ffe40	0.23436832
40	0x3d0d9268	0.034563452
41	0xbdc77afa	-0.09740253
42	0xbe263572	-0.16231325
43	0x3edaeae0	0.4275732
44	0xbdf4c235	-0.119511046
45	0x3e64cd94	0.22344047
46	0x3e208193	0.15674429
47	0x3e89d3d7	0.26919433
48	0x3ebf7e5a	0.37401086
49	0x3e0da831	0.13833691
50	0xbdfc0e61	-0.1230743
51	0x3e352aab	0.17692058
52	0x3e54d263	0.20783381
53	0x3e2bb0ec	0.16766709
54	0x3eae1f8f	0.34008452
55	0xbafd8ac0	-0.0019343719
56	0xbdc4ad7f	-0.09603404
57	0x3e9311f7	0.28724644
58	0x3e21b7b4	0.15792733
59	0x3ed06c73	0.4070774
60	0x3eec76af	0.46184298
61	0xbe193461	-0.14961387
62	0x3d6f033c	0.058352694
63	0xbdbc6ae3	-0.092000745

cpu f8 [64]
0	0x3f482684c0000000	0.0007370136445388198
1	0x3f470d5e40000000	0.0007034979062154889
2	0x3f51c8f4e0000000	0.0010855094296857715
3	0x3f4ebf3ee0000000	0.0009383255965076387
4	0x3f4f706f20000000	0.0009594481089152396
5	0x3f43289c00000000	0.0005846749991178513
6	0x3f641ea3e0000000	0.002456016605719924
7	0x3f52971920000000	0.0011346574174240232
8	0x3f4afa2fc0000000	0.0008232815889641643
9	0x3f559e4700000000	0.0013194745406508446
10	0x3f37983dc0000000	0.000360026431735605
11	0x3f55b64260000000	0.0013251922791823745
12	0x3f4d1c81e0000000	0.000888408103492111
13	0x3f5223dfc0000000	0.001107185846194625
14	0x3f42c20760000000	0.0005724464426748455
15	0x3f564a4400000000	0.0013604797422885895
16	0x3f46c257a0000000	0.0006945541244931519
17	0x3f446f3da0000000	0.0006236124900169671
18	0x3f5ad5ab40000000	0.0016378567088395357
19	0x3f5aad60e0000000	0.0016282506985589862
20	0x3f57990aa0000000	0.0014402965316548944
21	0x3f4e5782a0000000	0.0009259593789465725
22	0x3f5296b700000000	0.001134566031396389
23	0x3f5f264560000000	0.0019012143602594733
24	0x3f57143620000000	0.0014086273731663823
25	0x3f50243040000000	0.0009851905051618814
26	0x3f52d436c0000000	0.0011492285411804914
27	0x3f4ebc42c0000000	0.0009379697730764747
28	0x3f4f8905a0000000	0.0009623792138881981
29	0x3f566a67e0000000	0.0013681425480172038
30	0x3f4d4bb2c0000000	0.0008940336992964149
31	0x3f510558c0000000	0.001038872404024005
32	0x3f49ea4d80000000	0.0007908705156296492
33	0x3f5bf05500000000	0.0017052488401532173
34	0x3f425bfa40000000	0.0005602809833362699
35	0x3f64a6e1a0000000	0.002520981477573514
36	0x3f50a54200000000	0.0010159630328416824
37	0x3f52dc5680000000	0.001151165459305048
38	0x3f4b803d80000000	0.0008392620366066694
39	0x3f45b63740000000	0.0006625909591093659
40	0x3f5a6de480000000	0.00161311449483037
41	0x3f53de1280000000	0.0012126141227781773
42	0x3f55593ca0000000	0.0013030139962211251
43	0x3f561f4260000000	0.0013502262299880385
44	0x3f532fa7c0000000	0.0011710298713296652
45	0x3f5c977640000000	0.0017450957093387842
46	0x3f640539a0000000	0.00244389777071774
47	0x3f508d86e0000000	0.0010103051317855716
48	0x3f584c7fc0000000	0.0014830825384706259
49	0x3f443351c0000000	0.0006164693040773273
50	0x3f60192f60000000	0.001965134171769023
51	0x3f637ead80000000	0.0023797405883669853
52	0x3f4d535080000000	0.0008949416223913431
53	0x3f4186c640000000	0.0005348651902750134
54	0x3f4a1abca0000000	0.0007966443081386387
55	0x3f4c68b800000000	0.0008669756352901459
56	0x3f52efa7e0000000	0.001155771198682487
57	0x3f59371540000000	0.0015390117187052965
58	0x3f61308740000000	0.0020983354188501835
59	0x3f609b51c0000000	0.002027187030762434
60	0x3f6004ff00000000	0.0019555073231458664
61	0x3f44582f60000000	0.000620864040683955
62	0x3f4d2af5e0000000	0.0008901310502551496
63	0x3f55f0e400000000	0.0013391710817813873

layer3.0.shortcut.0.bias f4 [64]
0	0x3d9d5e6d	0.07684026
1	0xbcf62516	-0.03004698
2	0xbeba2611	-0.36357167
3	0xbcb0e33a	-0.021592725
4	0x3e0f7775	0.14010413
5	0x3ccf427c	0.025300257
6	0xbc81cdec	-0.015845262
7	0x3d4d9cfa	0.050198533
8	0xbd441474	-0.047871068
9	0x3ece55d6	0.40299863
10	0xbc146044	-0.009056155
11	0xbe0156bb	-0.12630741
12	0xbde85afc	-0.11345479
13	0xbeaa8d2a	-0.33310825
14	0x3da74b86	0.08168702
15	0xbe7b4b9e	-0.24540564
16	0x3db1dbe6	0.086845204
17	0x3ccfb13c	0.025353067
18	0xbe83b181	-0.25721362
19	0x3e4392e0	0.19098997
20	0x3db6a724	0.08918598
21	0x3d94d6cf	0.07267534
22	0x3dabcba2	0.08388449
23	0xbe23b17c	-0.15985674
24	0xbea1593e	-0.315134
25	0xbdff4b1b	-0.12465497
26	0x3d76440a	0.06012348
27	0x3d26a3b5	0.040683467
28	0x3dc38dc6	0.095485255
29	0x3c54a000	0.0129776
30	0x3dbd272f	0.09235989
31	0xbd204572	-0.03912873
32	0x3e0a5883	0.13510327
33	0xbece5b11	-0.40303853
34	0xbe6d8ef0	-0.23199058
35	0x3e6301a9	0.22168602
36	0x3e0a976e	0.13534328
37	0xbddb20c9	-0.10699613
38	0x3e1b99a5	0.1519533
39	0xbb9ee520	-0.004849091
40	0xbdde76c9	-0.108625
41	0xbe817ad4	-0.25289023
42	0xbe403eb6	-0.18773922
43	0xbee416f0	-0.4454875
44	0x3e53f893	0.20700292
45	0xbea8f251	-0.32997373
46	0xbe52f86c	-0.20602578
47	0x3e33eab9	0.17570008
48	0x3cfed6b1	0.031108232
49	0x3c4ab8e1	0.01237318
50	0x3e17aaca	0.14811245
51	0xbf2a2c3f	-0.66473764
52	0xbd6ed0a5	-0.058304448
53	0x3db5e41e	0.088814005
54	0xbd916310	-0.07098973
55	0x3d154801	0.03644562
56	0xbdacc0fc	-0.08435246
57	0xbe19df7e	-0.15026662
58	0x3e47dc5d	0.19517656
59	0x3e096d18	0.13420522
60	0x3da7ba99	0.081898876
61	0x3bcad150	0.006189503
62	0x3de4153a	0.11136861
63	0x3cf06cc8	0.029348746
