resnet32/checkpoints/resnet32_int8_qat.pt (torch, 629067 bytes, 167 tensors)

cpu f8 [16]
000000 00 00 00 00 dd e2 60 3f 00 00 00 e0 49 da 65 3f
       0.0020613018423318863 0.0026675646658986807
000010 00 00 00 60 ac 3e 75 3f 00 00 00 20 7b 98 64 3f
       0.005186723079532385 0.002514114836230874
000020 00 00 00 20 6f 57 73 3f 00 00 00 e0 7d 2d 7d 3f
       0.00472205551341176 0.0071234623901546
000030 00 00 00 20 92 75 79 3f 00 00 00 00 4b e3 78 3f
       0.006215639878064394 0.006076138466596603
000040 00 00 00 00 21 60 7e 3f 00 00 00 00 00 00 80 3e
       0.007415894418954849 1.1920928955078125e-07
000050 00 00 00 40 a3 1a 76 3f 00 00 00 40 dd 26 90 3e
       0.005396497435867786 2.406807766419661e-07
000060 00 00 00 20 88 7c 50 3f 00 00 00 c0 42 d5 6d 3f
       0.0010062531800940633 0.003641729708760977
000070 00 00 00 a0 ce 17 78 3f 00 00 00 40 87 7e 73 3f
       0.0058820792473852634 0.0047593386843800545

bn1.weight f4 [16]
000000 6e 00 a2 3e a5 a2 d2 3e 58 9b 76 3f 3e dc 0c 3f
       0.31640953 0.41139713 0.96330786 0.5502356
000010 26 07 17 3f 27 9d fb 3e 92 88 c0 3e b0 98 f8 3e
       0.5899528 0.49143335 0.37604195 0.4855399
000020 b1 12 f0 3e 17 b5 ce 36 da a1 00 3f 1a 8a fc 36
       0.4688926 6.16036e-06 0.50246966 7.5262624e-06
000030 65 bc 88 3e ee 18 93 3e 6f 92 fd 3e dc 03 1e 3f
       0.26706234 0.28729957 0.49525782 0.6172464

bn1.bias f4 [16]
000000 92 2a 66 3e 31 a3 a9 3e 87 a5 5b bd a0 e8 8d 3c
       0.22477177 0.33132318 -0.053624656 0.017322838
000010 85 10 e5 3e f5 f1 54 3f 9a e0 1b 3f 14 6c ec 3e
       0.44739166 0.831817 0.6088959 0.46176207
000020 29 58 78 3f 1c 04 7f b7 1b c5 af 3e a9 0b e5 b7
       0.9700952 -1.5200141e-05 0.34330067 -2.7304357e-05
000030 28 17 01 be 97 17 fb 3e 50 f8 ad 3e 0e 09 1c 3f
       -0.1260649 0.49041435 0.3397851 0.60951316

bn1.running_mean f4 [16]
000000 d8 24 d5 3d 02 14 d0 3c ea 25 d7 3e e3 22 a1 be
       0.10407418 0.025400165 0.42021114 -0.3147193
000010 99 4b 50 3d e5 21 63 3d 7e 2b 3b bd 89 10 9c 3b
       0.050853346 0.055452246 -0.045695774 0.0047627133
000020 55 9f 88 bd 04 00 00 00 8c 74 f8 3c 04 00 00 00
       -0.06671015 6e-45 0.030329011 6e-45
000030 35 40 52 3d c6 5c 3b 3d 9a 40 54 bc 4e 91 00 be
       0.051330764 0.045742773 -0.012954855 -0.1255543

bn1.running_var f4 [16]
000000 6c 1c 9a 3f 1f 19 01 40 2a 2a 7f 40 2c bc fe 3f
       1.2039924 2.0171583 3.9869485 1.9901175
000010 e1 b9 63 40 95 10 2c 3f 20 71 c6 3e 55 49 5e 3f
       3.5582201 0.672128 0.38758183 0.86830646
000020 32 5a 12 3f 04 00 00 00 f1 c6 f3 3f 04 00 00 00
       0.5716888 6e-45 1.9045087 6e-45
000030 40 9a af 3e 34 c7 07 3f 13 de 6a 3f 55 4d 60 40
       0.3429737 0.53038335 0.9174511 3.50472

cpu f8 [16]
000000 00 00 00 e0 50 b3 62 3f 00 00 00 60 a3 6e 71 3f
       0.0022827701177448034 0.004255903419107199
000010 00 00 00 a0 23 4f 65 3f 00 00 00 a0 0a fb 61 3f
       0.0026012130547314882 0.002194901229813695
000020 00 00 00 80 19 1b 64 3f 00 00 00 e0 84 b3 66 3f
       0.0024543283507227898 0.0027711482252925634
000030 00 00 00 80 69 d9 51 3f 00 00 00 20 f8 cb 68 3f
       0.001089432742446661 0.0030269476119428873
000040 00 00 00 c0 b5 b4 68 3f 00 00 00 40 b5 16 58 3f
       0.0030158567242324352 0.0014702577609568834
000050 00 00 00 60 79 28 66 3f 00 00 00 c0 4f 24 75 3f
       0.002704846439883113 0.005161582492291927
000060 00 00 00 40 6f ed 50 3f 00 00 00 c0 9b d2 5f 3f
       0.0010331713128834963 0.0019423027988523245
000070 00 00 00 e0 ec 82 5f 3f 00 00 00 00 2c 32 5e 3f
       0.0019233048660680652 0.0018430165946483612

layer1.0.bn1.weight f4 [16]
000000 41 56 d2 3e c9 b0 ad 3e 87 f4 ac 3e 2b ce 99 3e
       0.41081432 0.3392394 0.3378031 0.30040106
000010 f6 f4 ae 3e 47 cd ac 3e 1c 19 92 3e cd 21 b2 3e
       0.34171265 0.33750364 0.28534782 0.34791413
000020 45 c7 82 3e 27 86 bc 3e ad 79 94 3e 28 23 03 3f
       0.25542656 0.368211 0.2899908 0.5122552
000030 8e 74 65 3e a5 10 a2 3e 45 69 e4 3e f9 f9 90 3e
       0.22407743 0.31653324 0.44611564 0.28315714

layer1.0.bn1.bias f4 [16]
000000 2f b7 90 3e b1 d3 59 3e 2a 03 19 3e 4c e3 ba 3d
       0.28264758 0.2127216 0.14942613 0.09125385
000010 f7 6d b8 bd 74 66 d1 3e 62 bf 13 be 43 b7 16 3d
       -0.09005349 0.40898478 -0.14428475 0.036795866
000020 6e bd 93 3e 22 22 4c be ad 67 96 3e de e8 29 3f
       0.2885546 -0.19934896 0.29375973 0.6637095
000030 98 40 bb 3d ec f7 9a 3e ee d0 24 be 08 94 4c 3e
       0.0914318 0.30267274 -0.16095325 0.19978344

layer1.0.bn1.running_mean f4 [16]
000000 c7 9c 43 bf 9f 96 72 bf 4f e2 13 3e 30 f5 89 bf
       -0.764111 -0.9476108 0.14441799 -1.077795
000010 2a 6d b6 be e9 f2 03 3f 87 ab b2 3e 01 72 9e be
       -0.3563016 0.51542526 0.3489649 -0.30946353
000020 52 fb aa be 2e ac 96 bf 13 41 a2 bf 6e 01 94 be
       -0.33394867 -1.1771295 -1.2676109 -0.2890734
000030 db 80 e4 3e 30 da 8a be 96 1f a6 be 65 1d f5 be
       0.4462956 -0.2711959 -0.32445973 -0.4787399

layer1.0.bn1.running_var f4 [16]
000000 c7 24 2a 3f 7d 05 fa 3e 31 84 19 3f bf 2b 4a 3e
       0.6646237 0.48832312 0.59967333 0.1974325
000010 53 55 22 3e 99 fe 8d 3e 2f 53 1e 3e 38 f9 16 3e
       0.15852861 0.27733305 0.1546142 0.14743507
000020 8b 39 36 3e 5b 33 0b 3e 8e f1 c0 3e a6 57 14 3f
       0.17795388 0.1359381 0.37684292 0.5794624
000030 3c a5 81 3e de aa 01 3f c7 a6 19 3f 3e 46 e7 3e
       0.25321376 0.5065135 0.6002011 0.45170778

cpu f8 [16]
000000 00 00 00 20 ee 10 58 3f 00 00 00 80 5c fa 4f 3f
       0.0014688802184537053 0.0009758903179317713
000010 00 00 00 80 70 e4 5c 3f 00 00 00 20 e7 f4 5a 3f
       0.0017634485848248005 0.0016453034477308393
000020 00 00 00 a0 43 8a 68 3f 00 00 00 80 48 25 72 3f
       0.002995616989210248 0.00443008728325367
000030 00 00 00 a0 a7 4b 66 3f 00 00 00 20 c2 36 5e 3f
       0.002721621887758374 0.0018441100837662816
000040 00 00 00 80 eb 59 65 3f 00 00 00 00 44 f2 59 3f
       0.002606353722512722 0.001583639532327652
000050 00 00 00 20 5b 7d 65 3f 00 00 00 60 17 c5 71 3f
       0.0026232509408146143 0.004338351543992758
000060 00 00 00 80 af 35 49 3f 00 00 00 60 91 0e 64 3f
       0.0007693392690271139 0.002448352752253413
000070 00 00 00 00 21 22 68 3f 00 00 00 60 0f 7a 62 3f
       0.002945961430668831 0.0022554683964699507

layer1.0.bn2.weight f4 [16]
000000 ac f4 b2 3e a4 8e 0f 3e 0a b4 6d 3e 72 dc 5b 3e
       0.34952295 0.14019257 0.2321321 0.21470812
000010 63 75 c9 3e 30 41 16 3f f7 00 e8 3e 36 56 b4 3e
       0.3934737 0.5869322 0.45313236 0.35222024
000020 18 e4 d8 3e a8 23 d3 3e 04 fe 9d 3e f4 9a 2f 3f
       0.42361522 0.4123814 0.3085786 0.68595815
000030 17 77 05 3e 4c 6b ad 3e ec 10 ad 3e 34 7f 5b 3e
       0.1303371 0.33870924 0.33801973 0.21435243

layer1.0.bn2.bias f4 [16]
000000 b9 7f e6 bd ef 22 6f 3d 1f 38 e0 bd 79 bd cd 3d
       -0.1125483 0.058382925 -0.10948204 0.10045905
000010 e5 94 36 3e 18 c2 08 3e 68 7b bb 3d ed 5f 52 be
       0.17830236 0.13355291 0.09154397 -0.20544405
000020 83 7c f1 3c 45 e2 60 bc c3 2b 11 3f 6a dc b3 3e
       0.029478317 -0.013725822 0.567074 0.351291
000030 dd be bc 3e b4 bc 75 3e 31 31 ac be af 02 38 3e
       0.36864367 0.23997766 -0.3363128 0.17969774

layer1.0.bn2.running_mean f4 [16]
000000 13 f3 75 be 88 e6 ad 3e b5 a4 84 3e 08 1b 49 3e
       -0.24018507 0.33964944 0.25906911 0.19639218
000010 24 5b 14 be be 37 e1 3e 72 ba aa be 6c 37 1b be
       -0.14487892 0.4398784 -0.3334537 -0.1515786
000020 7d 00 2e bf 30 f6 de 3e be 98 88 3e 7f 0e b3 bd
       -0.67969495 0.435472 0.26679033 -0.08742999
000030 d2 67 a2 be e5 ba 6a 3d f4 8a d0 3c 34 b9 b6 be
       -0.31719834 0.057307143 0.025456883 -0.35688174

layer1.0.bn2.running_var f4 [16]
000000 23 50 0f 3e f1 ec 26 3d 9d 1c 58 3e 4f e4 4f 3e
       0.13995413 0.04075331 0.21104665 0.20301937
000010 43 9e 6d 3e 24 7b cf 3e 9c cb 0e 3e 46 98 b6 3d
       0.23204903 0.40523636 0.13944858 0.089157626
000020 c8 c1 51 3e af 24 e8 3d 66 d1 78 3e 01 e9 b2 3e
       0.20484078 0.11335122 0.24298629 0.34943393
000030 7e b5 86 3d c7 c3 3e 3e e2 28 dc 3d 60 33 7e 3e
       0.06577586 0.1862937 0.10749985 0.24824286

cpu f8 [16]
000000 00 00 00 a0 5f af 5e 3f 00 00 00 e0 f6 f8 5a 3f
       0.001872866996563971 0.0016462717903777957
000010 00 00 00 60 6f 92 60 3f 00 00 00 60 99 b8 57 3f
       0.002022950677201152 0.0014478204539045691
000020 00 00 00 80 b0 b7 64 3f 00 00 00 a0 5a 71 5e 3f
       0.002528996206820011 0.001858080388046801
000030 00 00 00 40 07 bf 68 3f 00 00 00 00 4e f9 51 3f
       0.003020776901394129 0.001097036525607109
000040 00 00 00 80 ce 02 5a 3f 00 00 00 a0 7b 12 65 3f
       0.0015875832177698612 0.00257228990085423
000050 00 00 00 80 6c 13 5c 3f 00 00 00 80 1b 48 65 3f
       0.0017136153765022755 0.002597860060632229
000060 00 00 00 40 68 e9 5d 3f 00 00 00 20 66 6f 4f 3f
       0.0018256681505590677 0.000959324708674103
000070 00 00 00 00 66 84 5f 3f 00 00 00 00 06 ba 43 3f
       0.001923656091094017 0.0006020097061991692

layer1.1.bn1.weight f4 [16]
000000 f9 16 de 3e 75 73 c0 3e 47 45 e6 3e d8 65 a0 3e
       0.43376902 0.37588087 0.4497473 0.313277
000010 5a 77 e1 3e c5 aa ff 3e 1a 93 f0 3e 01 13 51 3e
       0.4403637 0.49934974 0.4698723 0.20417406
000020 30 a0 a2 3e 0e 20 89 3e 66 b5 99 3e 33 dc 0d 3f
       0.31762838 0.26782268 0.3002121 0.5541412
000030 7d b5 da 3e 8b fd be 3e b6 e9 52 3e fd 6f ca 3c
       0.4271659 0.37302813 0.20596966 0.024711603

layer1.1.bn1.bias f4 [16]
000000 b1 37 6f be 38 e4 de bd 44 c4 1c be af 65 7a 3c
       -0.23361088 -0.10883373 -0.15309244 0.015283032
000010 4f e5 29 be 64 c4 2c be e6 49 37 bd 9b c3 23 3d
       -0.1659138 -0.16871792 -0.04474821 0.039981466
000020 bc 73 3f be 5c f9 93 3e 9f 67 e9 bd b2 98 b5 be
       -0.18696493 0.28901184 -0.11396717 -0.3546806
000030 4c 67 74 be 08 13 06 bd 47 0f f0 3c c9 32 5e be
       -0.2386753 -0.032732993 0.02930416 -0.2169906

layer1.1.bn1.running_mean f4 [16]
000000 0d 45 3e bf 64 a9 2d bf 9d 62 f9 be 67 f8 cb bf
       -0.74324113 -0.67836595 -0.48708048 -1.5935181
000010 42 8d ca be 91 73 10 bf d4 7a d8 bd de 80 94 bf
       -0.39560896 -0.5642634 -0.105703026 -1.1601827
000020 a5 ff d8 3f 5d 5a 2f 3f 74 ad a9 3e 19 ee 84 3f
       1.6953017 0.6849726 0.33140147 1.0385162
000030 96 c9 f4 be 43 95 8a bf b2 17 6e 3e 50 ee 26 3e
       -0.47810048 -1.0826801 0.23251227 0.16301847

layer1.1.bn1.running_var f4 [16]
000000 05 38 01 3f 8d 3a 6b 3f 56 b7 38 3f d2 fd de 3e
       0.50476104 0.91886216 0.7215475 0.43553025
000010 b7 9b 43 3f 85 39 b8 3f 87 3c 0f 40 0f 82 74 3e
       0.76409477 1.4392554 2.2380693 0.23877738
000020 92 29 db 3e 17 72 35 3f 84 88 a4 3e 08 7e 19 3f
       0.42805153 0.7087721 0.32135403 0.59957933
000030 b4 72 eb 3e 4a c5 f5 3e e2 2b f2 3e 93 e9 ea 3d
       0.4598595 0.48002082 0.47299105 0.11470332

cpu f8 [16]
000000 00 00 00 00 35 f7 58 3f 00 00 00 40 fa 70 60 3f
       0.0015237824991345406 0.002006996888667345
000010 00 00 00 60 f3 c0 48 3f 00 00 00 80 19 09 5d 3f
       0.0007554233889095485 0.0017721890471875668
000020 00 00 00 20 00 d1 52 3f 00 00 00 60 13 c1 54 3f
       0.0011484624119475484 0.0012667359551414847
000030 00 00 00 40 43 22 56 3f 00 00 00 80 7a 45 5c 3f
       0.001350942300632596 0.0017255493439733982
000040 00 00 00 e0 4c 2c 67 3f 00 00 00 80 62 8a 5a 3f
       0.0028287412133067846 0.0016199075616896152
000050 00 00 00 c0 46 cd 58 3f 00 00 00 40 e7 7c 55 3f
       0.0015137854497879744 0.0013115175534039736
000060 00 00 00 20 c3 11 61 3f 00 00 00 c0 d2 1e 57 3f
       0.002083664992824197 0.001411157427355647
000070 00 00 00 00 9d 04 5c 3f 00 00 00 60 5f 2a 42 3f
       0.0017100842669606209 0.0005543676088564098

layer1.1.bn2.weight f4 [16]
000000 e3 f3 bd 3e 75 50 e6 3e d2 8a 87 3d 3b 0d 96 3e
       0.37100133 0.4498326 0.06618275 0.2930697
000010 4d ec 2f 3e aa 55 f6 3d 3f 54 54 3e a6 2b b5 3e
       0.17179985 0.12028058 0.20735262 0.35384864
000020 be 4e ac 3e 8d 50 a7 3e c9 87 a4 3d 0a f0 2c 3e
       0.33653826 0.32678643 0.080337115 0.16888443
000030 11 3e 31 3f 5a 5a 59 3e 08 62 90 3e a3 88 52 bd
       0.6923533 0.21225873 0.28199792 -0.05139984

layer1.1.bn2.bias f4 [16]
000000 fb d8 9f bd 5b ad b2 3d 15 7f de 3c ca 6a 4b 3d
       -0.078050576 0.08724471 0.027160207 0.04966239
000010 d7 81 94 3d 36 4a af 3c a9 b8 1d bb df f0 ee be
       0.072513275 0.021397691 -0.0024066365 -0.46668145
000020 c2 d0 c8 bd 71 21 57 3d ce 6a 01 3e d0 d2 c9 3d
       -0.098054424 0.052522127 0.12638399 0.098546624
000030 35 ed b5 3e c1 90 d1 3d 96 18 35 3e 92 8d 90 bc
       0.35532537 0.10232688 0.1768516 -0.017645631

layer1.1.bn2.running_mean f4 [16]
000000 8b 06 08 be b7 b5 f7 bd d3 ba 9c 3c e7 76 82 3d
       -0.13283746 -0.12095206 0.019132053 0.06370335
000010 4f 7a bf bc e8 d2 55 bc f1 34 0e be aa 8e 1a 3e
       -0.023373751 -0.013050772 -0.13887383 0.15093485
000020 4d 1b 8e bd 0f 79 36 3d fe 2c 86 bd 69 31 b3 bd
       -0.06938801 0.044549044 -0.0655155 -0.087496586
000030 4a c4 01 bf bd 85 bc 3e 7d f0 25 be d0 3a d4 3b
       -0.5069014 0.36820784 -0.1620502 0.0064767376

layer1.1.bn2.running_var f4 [16]
000000 ea 59 89 3d b4 17 c8 3d 3a 40 dc 3c 2c 0c ec 3d
       0.06706603 0.09770146 0.026886094 0.11525759
000010 b0 9c 62 3d 29 99 4a 3d 4a d1 64 3d 8e f2 86 3d
       0.05532521 0.04946247 0.055863656 0.065892324
000020 9c 54 a9 3d 40 bf ba 3d 92 77 92 3d d3 8c 43 3d
       0.08268091 0.09118509 0.071517125 0.047741722
000030 06 ef 88 3e 92 1f 86 3d 0b 55 05 3e 78 32 de 3c
       0.2674486 0.0654899 0.13020723 0.027123675

cpu f8 [16]
000000 00 00 00 e0 66 97 4f 3f 00 00 00 e0 91 f5 63 3f
       0.0009640934295020998 0.0024364327546209097
000010 00 00 00 a0 24 6d 61 3f 00 00 00 a0 bb 79 53 3f
       0.002127238782122731 0.0011886913562193513
000020 00 00 00 80 f7 90 5c 3f 00 00 00 e0 a4 36 52 3f
       0.0017435471527278423 0.001111660967580974
000030 00 00 00 00 2d 81 55 3f 00 00 00 20 56 ad 50 3f
       0.0013125361874699593 0.001017889124341309
000040 00 00 00 a0 4f 0b 55 3f 00 00 00 20 72 9d 4b 3f
       0.001284435042180121 0.0008427436114288867
000050 00 00 00 80 d1 e5 68 3f 00 00 00 00 45 a5 65 3f
       0.0030392734333872795 0.0026422832161188126
000060 00 00 00 a0 a1 5b 62 3f 00 00 00 e0 80 e0 5d 3f
       0.002240958856418729 0.0018235453171655536
000070 00 00 00 40 98 6e 61 3f 00 00 00 60 c5 6f 51 3f
       0.002127930987626314 0.0010642459383234382

layer1.2.bn1.weight f4 [16]
000000 39 ec 59 3e 24 77 b6 3e 50 2f 75 3e f5 5f 88 3e
       0.21281518 0.35637772 0.2394383 0.2663571
000010 f4 51 98 3e 3a 2d 96 3e 48 2f 9f 3e a2 ef a0 3e
       0.29750025 0.2933138 0.3109076 0.31432825
000020 6d fa 82 3e 38 eb 8d 3e cd 6a 84 3e aa ee 11 3f
       0.25581685 0.2771852 0.25862733 0.570048
000030 2e b3 88 3e 9f 99 29 3e a3 09 95 3e c0 d3 8c 3e
       0.26699203 0.16562508 0.29108915 0.27505302

layer1.2.bn1.bias f4 [16]
000000 1c 01 96 bb b4 e2 8b bd 7b 70 4d 3e 67 43 8e be
       -0.004577769 -0.068303496 0.20062439 -0.277858
000010 ee df e3 bc 91 9e ed bd 99 1c 97 bd 02 4c 47 be
       -0.027816739 -0.1160251 -0.073785014 -0.19462588
000020 20 d1 8f bd 52 ea 3a be d7 6b 9b 3e e9 56 13 bf
       -0.07022309 -0.18253449 0.30355713 -0.5755449
000030 7b 27 e7 3d 94 df e3 3d 60 a4 81 3c 10 2e 1c be
       0.11286827 0.111266285 0.01582545 -0.15251946

layer1.2.bn1.running_mean f4 [16]
000000 12 41 1e c0 0e 68 2b bf 34 d5 a9 bf 6c 0b 84 3f
       -2.4727216 -0.6695565 -1.326819 1.0315986
000010 0f b4 3a bf 00 7f 8f bf 3f 22 a7 bf 85 e6 83 be
       -0.72931 -1.1210632 -1.3057326 -0.2576181
000020 76 e9 f5 bd 77 a3 31 be 6e 12 cd be c6 d6 e0 3f
       -0.1200742 -0.17347513 -0.40053123 1.7565544
000030 5c 10 e8 bf 78 49 05 bf 1b ea c2 bf f1 88 1a 3f
       -1.8129992 -0.5206523 -1.5227693 0.60365206

layer1.2.bn1.running_var f4 [16]
000000 be 58 a1 3e f7 4a 7f 3f 03 76 89 3f 1a 98 a3 3e
       0.31513017 0.9972376 1.0739139 0.31951982
000010 58 fe 4f 3f 2c 95 09 3f ef a4 61 3f d2 7f e5 3e
       0.8124747 0.53743243 0.88142294 0.44824082
000020 e4 df 35 3f 86 ef 0e 3e aa de 98 3f e8 0e 4c 3f
       0.71044755 0.13958558 1.1942952 0.79710245
000030 de 0d a8 3f bc 43 12 3f 1d bd 8b 3f d9 53 32 3e
       1.3129232 0.57134604 1.0917088 0.17414798

cpu f8 [16]
000000 00 00 00 60 04 25 55 3f 00 00 00 c0 af 44 46 3f
       0.0012905638432130218 0.0006795747904106975
000010 00 00 00 40 01 45 51 3f 00 00 00 60 1b 92 51 3f
       0.001054049702361226 0.0010724322637543082
000020 00 00 00 40 38 99 60 3f 00 00 00 a0 55 fe 63 3f
       0.0020261858589947224 0.0024406120646744967
000030 00 00 00 20 b6 44 58 3f 00 00 00 c0 15 32 56 3f
       0.001481225830502808 0.001354714622721076
000040 00 00 00 80 9f 0d 64 3f 00 00 00 40 01 8c 62 3f
       0.002447902224957943 0.002264025155454874
000050 00 00 00 80 83 91 4f 3f 00 00 00 00 c6 6a 61 3f
       0.0009633915033191442 0.002126108855009079
000060 00 00 00 80 9c 82 4b 3f 00 00 00 80 82 35 49 3f
       0.0008395446930080652 0.0007693183142691851
000070 00 00 00 80 e7 d2 48 3f 00 00 00 a0 b2 fa 65 3f
       0.0007575636263936758 0.0026830185670405626

layer1.2.bn2.weight f4 [16]
000000 74 0f cf 3e 44 04 e6 bb 53 5b 3e 3e 0d 71 0c 3e
       0.40441477 -0.0070195515 0.18589525 0.13715
000010 c1 ab fc 3e f0 6d 37 3f 0c c1 c6 3e e4 eb 62 3e
       0.49349788 0.71652126 0.38819158 0.22160298
000020 b1 c7 0f 3f 3e b9 9c 3e 8f 6b a2 bc 37 f9 f4 3e
       0.5616408 0.3061008 -0.019826679 0.47846386
000030 a5 4a 06 3d c8 7a 2b 3b 34 67 bb bc ed 2c 01 3f
       0.03278603 0.0026165713 -0.02287636 0.50459176

layer1.2.bn2.bias f4 [16]
000000 eb 48 af bc ee b6 18 3e 6d d2 09 3d 51 6a 4d 3b
       -0.021397075 0.14913532 0.033647943 0.0031343887
000010 cd 1e 3b bd a3 b2 bb 3c da dc 39 3d f2 bf 77 be
       -0.04568367 0.022912329 0.045376636 -0.24194315
000020 d0 b5 30 be fb da 91 3d 83 a5 6a 3c 80 3d 11 3e
       -0.17256856 0.07121845 0.014321688 0.14183617
000030 23 1a c5 3d 99 58 b8 3c 15 82 6b 3d af 04 4e bd
       0.09624126 0.022503184 0.057497103 -0.050297435

layer1.2.bn2.running_mean f4 [16]
000000 82 2d 28 be 9b c8 5b 3d cd e5 25 bd 84 de 21 3d
       -0.1642361 0.05365811 -0.04050236 0.039518848
000010 41 a4 89 be 9f ec 38 bd ab f1 12 bd 41 13 77 3d
       -0.26883128 -0.045147534 -0.035875004 0.060321096
000020 3a ba ac bd 17 df 60 3e 46 f4 4b bd 87 5a fb bd
       -0.084339574 0.21960102 -0.049793504 -0.12273126
000030 d6 44 de 3c f9 33 03 bd 05 27 ff 3d 01 75 8b be
       0.027132433 -0.032031987 0.12458614 -0.27237704

layer1.2.bn2.running_var f4 [16]
000000 01 f9 21 3d 6b 53 19 3c 88 40 11 3d ec 3b 15 3d
       0.03954411 0.009358267 0.035461932 0.0364341
000010 d3 87 75 3d bc 24 a2 3d 07 cb 02 3d e0 e3 8a 3c
       0.059943985 0.07917163 0.031931903 0.016954362
000020 0b 6f 3b 3d 7f d3 9f 3d c4 97 a2 3c 83 4b 3d 3d
       0.045760196 0.078040116 0.019847758 0.04621459
000030 4a 3b 81 3c 22 64 0f 3c 8b ad 87 3c d1 3b ae 3d
       0.015775342 0.008751901 0.016562244 0.08507503

cpu f8 [16]
000000 00 00 00 00 87 45 53 3f 00 00 00 60 8f 6b 61 3f
       0.001176244579255581 0.0021264839451760054
000010 00 00 00 e0 3c 81 60 3f 00 00 00 c0 5f 32 62 3f
       0.0020147503819316626 0.002221285831183195
000020 00 00 00 00 95 49 61 3f 00 00 00 20 4c b9 56 3f
       0.0021102819591760635 0.0013869517715647817
000030 00 00 00 e0 a9 14 58 3f 00 00 00 c0 49 c5 60 3f
       0.001469770330004394 0.0020471992902457714
000040 00 00 00 e0 c9 5d 64 3f 00 00 00 c0 26 10 5a 3f
       0.0024861281272023916 0.0015907648485153913
000050 00 00 00 40 41 88 51 3f 00 00 00 40 91 0c 69 3f
       0.0010700833518058062 0.0030577504076063633
000060 00 00 00 80 36 ab 57 3f 00 00 00 e0 5f b6 63 3f
       0.0014446289278566837 0.0024062988813966513
000070 00 00 00 a0 29 4d 5f 3f 00 00 00 40 71 65 60 3f
       0.0019104868406429887 0.002001496497541666

layer1.3.bn1.weight f4 [16]
000000 d0 89 92 3e 80 46 e1 3e 5b 86 e3 3e 22 f2 c9 3e
       0.28620768 0.439991 0.44438443 0.39442545
000010 35 1d e2 3e 98 7b 88 3e 14 09 a0 3e b0 79 dc 3e
       0.44162908 0.26656795 0.31256926 0.4306159
000020 86 c3 ee 3e 5f 22 d7 3e aa 3b 46 3e ed cc f4 3e
       0.46633548 0.4201841 0.19358698 0.47812596
000030 b4 e6 ad 3e 81 e3 d3 3e cc a7 ae 3e 45 72 ec 3e
       0.33965075 0.4138451 0.34112394 0.4618093

layer1.3.bn1.bias f4 [16]
000000 ce f6 df bc 7a 59 3c be 08 30 46 be c3 96 ef bd
       -0.027339365 -0.18393508 -0.1935426 -0.116986774
000010 d0 92 1a be dc 44 01 3c c0 ab af 3d b8 50 8b be
       -0.15095067 0.0078899525 0.085776806 -0.2721002
000020 7f 4e 5c be 67 24 52 be cd ed d1 bd 33 12 10 be
       -0.21514319 -0.20521699 -0.10250435 -0.14069442
000030 72 0c c9 bd c0 7c 7d be 2b 11 ba bc 41 d2 98 be
       -0.09816827 -0.2475462 -0.022713264 -0.2984791

layer1.3.bn1.running_mean f4 [16]
000000 5c 8d fe bd 2c 13 ed 3e 9e 4a bc 3d 02 ca 49 be
       -0.12429306 0.4630369 0.091939196 -0.19705966
000010 4b ec 1f be a8 71 de 3e c5 42 16 bf b3 91 33 be
       -0.15617482 0.43446088 -0.5869563 -0.17536049
000020 59 69 41 bf 2c 94 8d be 80 ea 38 3e 4a ca ba bc
       -0.7555137 -0.2765211 0.18058205 -0.022801537
000030 15 ef e1 bf b3 47 93 be b2 c6 d2 3d 65 50 74 3d
       -1.7651087 -0.2876564 0.102918044 0.059646983

layer1.3.bn1.running_var f4 [16]
000000 ab ac 21 3f c9 a5 d0 3f db 43 04 40 85 df 0c 40
       0.63154095 1.6300594 2.0666416 2.2011425
000010 46 e4 22 40 da a1 30 3f 56 a6 59 3f f2 69 36 3f
       2.5451827 0.68996966 0.85019433 0.7125541
000020 0a e9 fe 3f 0c c1 87 3f f1 b3 96 3e 86 27 45 40
       1.9914868 1.0605788 0.2943416 3.0805373
000030 22 db 8b 3f fd 02 a1 3f d2 43 85 3f 5a a4 52 3f
       1.0926249 1.2579037 1.0411322 0.8228203

cpu f8 [16]
000000 00 00 00 00 45 70 62 3f 00 00 00 20 7f 99 54 3f
       0.002250799909234047 0.001257299561984837
000010 00 00 00 60 66 af 48 3f 00 00 00 40 ee 7c 51 3f
       0.0007533311727456748 0.0010673834476619959
000020 00 00 00 a0 40 43 5f 3f 00 00 00 c0 46 6f 5f 3f
       0.0019081240752711892 0.0019186201971024275
000030 00 00 00 20 97 e7 5b 3f 00 00 00 20 21 d2 5a 3f
       0.0017031646566465497 0.0016370128141716123
000040 00 00 00 a0 10 87 59 3f 00 00 00 a0 a9 81 6b 3f
       0.001558080897666514 0.0033577263820916414
000050 00 00 00 40 20 43 4a 3f 00 00 00 00 6d c1 5b 3f
       0.000801459071226418 0.0016940655186772346
000060 00 00 00 c0 cc 99 63 3f 00 00 00 c0 4b b0 43 3f
       0.002392673399299383 0.0006008500931784511
000070 00 00 00 00 78 fc 48 3f 00 00 00 40 c0 1f 5f 3f
       0.0007625184953212738 0.0018996598664671183

layer1.3.bn2.weight f4 [16]
000000 64 b7 a9 3e 61 42 55 3e e2 57 1a bd a9 a5 04 3e
       0.33147728 0.20826103 -0.037681468 0.1295382
000010 6c df 94 3e 57 dc e2 3e 83 a7 0d 3f 41 5d aa 3e
       0.29076707 0.4430873 0.5533373 0.33274272
000020 18 68 f9 3e 82 7c cb 3e 4d 27 87 bb 6b 41 c6 3e
       0.4871223 0.3974343 -0.004124558 0.38721785
000030 c0 0d 9b 3e a2 27 90 bb c2 97 c1 bb f7 05 82 3e
       0.30283928 -0.004399256 -0.0059079835 0.25395176

layer1.3.bn2.bias f4 [16]
000000 3d fd 20 3d 5d bc 1c 3e f9 f3 4c 3c 71 db eb 3c
       0.039304007 0.1530623 0.0125093395 0.028791161
000010 24 09 41 3c 97 55 bc bd 91 1a 44 3d 9c a2 ce 3d
       0.011781964 -0.091960125 0.0478769 0.10089609
000020 57 ac fc bd 0a 51 cf 3e a1 92 e7 3c 5f bf 9b 3c
       -0.12337559 0.40491515 0.02826816 0.019012151
000030 da 3d 42 3e f2 d8 c0 3c 27 f3 d7 bb d6 30 bf bc
       0.18968907 0.023540948 -0.0065902653 -0.023338716

layer1.3.bn2.running_mean f4 [16]
000000 43 f3 29 3e 66 c9 6a 3e ef e2 36 bd 26 07 20 3e
       0.16596703 0.2292839 -0.044650014 0.15627727
000010 bf c0 02 3e 1b 61 82 be 5c 14 70 be 2e 94 ef bd
       0.1276884 -0.2546471 -0.23445266 -0.11698185
000020 ed cd 03 be ba 8a bc 3e 82 ad b8 3c b4 3f a1 be
       -0.12871523 0.3682459 0.022543672 -0.31493914
000030 3c f7 ca be 8c 19 41 39 ee 86 51 bd 06 65 75 be
       -0.3964175 0.00018415431 -0.05115407 -0.23964319

layer1.3.bn2.running_var f4 [16]
000000 c6 6e 80 3d 0f 80 1a 3d 0d b6 5c 3c 77 f3 f9 3c
       0.06271128 0.037719782 0.013471139 0.0305116
000010 f4 e6 62 3d 31 b3 65 3d b7 f9 8e 3d 5f af 5b 3d
       0.055396035 0.056079093 0.06981223 0.053634044
000020 8e 24 8b 3d 53 93 02 3e c7 08 a8 3c 6c f7 66 3d
       0.06794082 0.12751512 0.020511998 0.056388304
000030 4b b7 d0 3d cc cc 1a 3c cf 03 98 3c 1c 63 37 3d
       0.1019121 0.009448241 0.018556504 0.044772252

cpu f8 [16]
000000 00 00 00 20 55 bd 65 3f 00 00 00 a0 7c 06 65 3f
       0.002653757343068719 0.0025665697176009417
000010 00 00 00 a0 9c 56 60 3f 00 00 00 c0 b5 3b 66 3f
       0.001994424732401967 0.002714018803089857
000020 00 00 00 e0 cf 9b 5a 3f 00 00 00 80 66 fa 65 3f
       0.0016240625409409404 0.0026828767731785774
000030 00 00 00 e0 27 55 5a 3f 00 00 00 80 83 44 5c 3f
       0.0016072167782112956 0.0017253193072974682
000040 00 00 00 80 3e a0 6d 3f 00 00 00 00 a5 86 56 3f
       0.003616449423134327 0.001374875195324421
000050 00 00 00 20 60 b9 68 3f 00 00 00 00 ee 8c 65 3f
       0.003018081421032548 0.0026306770741939545
000060 00 00 00 a0 b1 12 60 3f 00 00 00 e0 2d 58 64 3f
       0.0019620389211922884 0.002483453368768096
000070 00 00 00 60 26 82 61 3f 00 00 00 a0 1d 54 51 3f
       0.002137255622074008 0.0010576524073258042

layer1.4.bn1.weight f4 [16]
000000 27 97 ae 3e 99 87 bf 3e 8b 30 9f 3e 5a 92 d3 3e
       0.34099695 0.3740814 0.31091723 0.41322595
000010 b0 cc e6 3e 6b b7 cc 3e 6c c4 a6 3e f9 26 c6 3e
       0.4507804 0.39983687 0.32571733 0.3870161
000020 2f 3e ec 3e f8 d2 b6 3e 41 af db 3e 19 1a c7 3e
       0.46141192 0.3570783 0.42907146 0.38887098
000030 f4 41 bb 3e bb c2 ad 3e db 48 ab 3e 02 5f 4a 3e
       0.36573756 0.3393763 0.33454022 0.19762805

layer1.4.bn1.bias f4 [16]
000000 fd fa 4a be 37 4f 36 be 9c 21 54 be 3f 0e 84 be
       -0.19822307 -0.17803656 -0.20715946 -0.2579212
000010 d6 1a f8 be 14 ac 51 be e9 df 48 be 55 c5 88 be
       -0.48457974 -0.20475799 -0.19616665 -0.26713052
000020 ba 7f 40 be bc ea 55 be ed a2 78 be e9 b3 42 be
       -0.18798724 -0.20890325 -0.24280901 -0.19013943
000030 fd 3c 61 be a5 55 14 be bb 17 fd bd 44 5e 21 be
       -0.21995921 -0.14485796 -0.12358042 -0.15758616

layer1.4.bn1.running_mean f4 [16]
000000 55 ce 21 bd 29 38 85 be 52 d5 31 bf 5a e1 a2 3e
       -0.039503414 -0.2601941 -0.69466126 0.31812555
000010 e4 88 38 3f c1 f4 24 3d 00 1c 64 3f 5c d9 06 bf
       0.7208388 0.040272478 0.89105225 -0.52675414
000020 8e f5 b2 bf b2 60 0d 3d e2 08 66 3f c3 0b 94 3e
       -1.3981187 0.034516044 0.89857304 0.28915223
000030 a1 72 89 3e 70 d8 46 be d6 c7 18 be a8 26 0e 3e
       0.26845267 -0.19418502 -0.14919981 0.13881934

layer1.4.bn1.running_var f4 [16]
000000 06 30 bc 3f ec bd c2 3f 77 ab 9d 3f 16 3b 19 40
       1.4702156 1.521421 1.2317952 2.3942313
000010 a0 aa fb 3e 9a 62 1d 40 bb 7f c6 3f a9 26 cc 3f
       0.49153614 2.4591432 1.550773 1.5949298
000020 4a 4e 9e 40 3b 0d 8f 3f 58 9d 29 40 d2 4e 87 40
       4.947057 1.1175913 2.6502285 4.2283716
000030 13 f5 bf 3f c9 74 a8 3f 57 7a 90 3f 12 fc 50 3e
       1.4996666 1.316064 1.1287335 0.20408657

cpu f8 [16]
000000 00 00 00 e0 60 6d 5f 3f 00 00 00 60 30 23 61 3f
       0.0019181676907464862 0.0020919747184962034
000010 00 00 00 80 af 15 51 3f 00 00 00 00 36 06 50 3f
       0.0010427678935229778 0.0009780433028936386
000020 00 00 00 00 e5 85 5f 3f 00 00 00 80 ff 07 5f 3f
       0.0019240127876400948 0.0018939967267215252
000030 00 00 00 00 31 da 60 3f 00 00 00 60 f3 d1 4c 3f
       0.0020571667701005936 0.0008795202593319118
000040 00 00 00 80 84 82 5d 3f 00 00 00 00 49 a8 67 3f
       0.0018011373467743397 0.002887861803174019
000050 00 00 00 80 39 a9 51 3f 00 00 00 e0 01 8d 5d 3f
       0.0010779439471662045 0.0018036382971331477
000060 00 00 00 00 97 58 4d 3f 00 00 00 40 2f 3f 48 3f
       0.0008955704979598522 0.0007399540627375245
000070 00 00 00 80 91 37 4b 3f 00 00 00 a0 28 5b 62 3f
       0.0008305988740175962 0.002240733476355672

layer1.4.bn2.weight f4 [16]
000000 07 01 5b 3e bc 0d 9a 3e 52 a1 91 3d 85 8a 3d 3e
       0.2138711 0.30088603 0.071108475 0.18509872
000010 6a 1a be 3e e5 d9 18 3f b1 89 f0 3e cd 67 fd 3d
       0.37129527 0.5970748 0.4698005 0.12373314
000020 83 8d 1f 3f 35 02 b8 3e b7 06 f1 bc dd 89 21 3f
       0.62325305 0.35939184 -0.029422147 0.6310099
000030 79 06 2e 3d d4 51 6b bc 4c 5f c4 bc 03 10 cd 3e
       0.04248664 -0.014362771 -0.023971222 0.40051278

layer1.4.bn2.bias f4 [16]
000000 1d 54 6c bd 3d 95 4b 3e f7 1a 86 3d 5b 6a 34 3d
       -0.057697404 0.19881149 0.06548112 0.04404674
000010 b5 1f b8 bd e7 31 87 be ef f1 12 be 02 0f 57 3d
       -0.08990423 -0.2640526 -0.14350103 0.052504547
000020 2c d2 70 be b4 49 9f 3e c4 cf f2 3b 81 06 94 3c
       -0.23517674 0.3111092 0.0074100215 0.018069508
000030 be bf 84 3a 4a 14 10 3c 21 39 a6 3c 8e 89 4d 3c
       0.0010127944 0.0087939 0.020290913 0.012545003

layer1.4.bn2.running_mean f4 [16]
000000 26 02 4c bc ba 38 5e 3e 9f 7d 8f bb e3 28 50 3c
       -0.012451684 0.21701327 -0.004378989 0.012705061
000010 dd 66 4b 3e f5 95 0d bd 3d c6 08 be 1b 7d 97 3d
       0.19863458 -0.03456684 -0.13356872 0.07396909
000020 5f 25 6f bd 2e e8 ae 3e 7d ad e5 bc 78 d4 7b be
       -0.05838525 0.34161514 -0.028036827 -0.24592769
000030 bc 65 84 bc 47 3a bc bb 0e 5b c7 bb 1b 23 b0 bd
       -0.016161792 -0.005744252 -0.0060838526 -0.08600446

layer1.4.bn2.running_var f4 [16]
000000 88 41 d3 3c 62 24 28 3d 3d f1 9a 3c e0 08 d5 3c
       0.025788084 0.041050322 0.01891386 0.026005208
000010 f2 3c 22 3d 7c cb 4d 3d 28 df 35 3d ad 70 53 3c
       0.039608903 0.050242886 0.04440227 0.012905282
000020 40 e9 4d 3d 76 2f 9d 3d 4f c7 81 3c 88 0c 65 3d
       0.050271273 0.07675068 0.015842108 0.055920154
000030 89 34 4d 3c e1 85 1e 3c b6 30 10 3c 47 b3 55 3d
       0.012524732 0.009675474 0.008800676 0.052172925

cpu f8 [32]
000000 00 00 00 e0 ec a6 5d 3f 00 00 00 c0 3f f0 58 3f
       0.0018098176224157214 0.0015221235807985067
000010 00 00 00 00 1b 95 58 3f 00 00 00 c0 8a ed 60 3f
       0.0015003932639956474 0.0020663938485085964
000020 00 00 00 80 3a 8b 59 3f 00 00 00 20 18 56 58 3f
       0.0015590735711157322 0.001485370215959847
000030 00 00 00 e0 ea d2 69 3f 00 00 00 e0 be 1a 5c 3f
       0.003152331104502082 0.0017153610242530704
000040 00 00 00 c0 03 92 64 3f 00 00 00 c0 20 8a 5f 3f
       0.002511031460016966 0.0019250221084803343
000050 00 00 00 a0 35 b1 62 3f 00 00 00 00 ed 4f 60 3f
       0.0022817656863480806 0.0019912365823984146
000060 00 00 00 00 e2 ee 63 3f 00 00 00 60 ed 43 60 3f
       0.00243324413895607 0.001985515234991908
000070 00 00 00 80 df 98 61 3f 00 00 00 00 ad 71 5c 3f
       0.002148090861737728 0.001736086793243885
000080 00 00 00 60 b0 84 5d 3f 00 00 00 40 b6 4d 64 3f
       0.001801655045710504 0.002478462178260088
000090 00 00 00 40 7b 88 60 3f 00 00 00 e0 cb 11 61 3f
       0.0020182044245302677 0.0020836812909692526
0000a0 00 00 00 80 b1 4d 65 3f 00 00 00 40 20 95 66 3f
       0.002600523643195629 0.0027566556818783283
0000b0 00 00 00 60 4a 25 5b 3f 00 00 00 20 97 02 64 3f
       0.0016568399732932448 0.0024426414165645838
0000c0 00 00 00 60 b4 84 60 3f 00 00 00 80 b9 b7 5f 3f
       0.002016403479501605 0.0019358932040631771
0000d0 00 00 00 00 1d 38 61 3f 00 00 00 40 89 24 5c 3f
       0.0021019522100687027 0.0017176952678710222
0000e0 00 00 00 80 00 7b 5b 3f 00 00 00 a0 09 ee 5c 3f
       0.0016772751696407795 0.0017657369608059525
0000f0 00 00 00 80 04 6d 5b 3f 00 00 00 c0 82 6f 58 3f
       0.001673941034823656 0.0014914299827069044

layer2.0.bn1.weight f4 [32]
000000 6c 50 c7 3e be 4f a5 3e 94 6a c1 3e c6 d1 a5 3e
       0.38928545 0.322874 0.37776625 0.32386607
000010 a5 f9 d5 3e 15 cb b3 3e 6b 03 e3 3e 80 0c a2 3e
       0.41792026 0.35115877 0.44338545 0.31650162
000020 29 0e d0 3e 39 7d d5 3e 05 f3 ec 3e 21 7b e6 3e
       0.40635803 0.416971 0.4627916 0.45015815
000030 09 1d d2 3e 38 28 9f 3e ca 7e cc 3e 8c ca c5 3e
       0.41037777 0.31085372 0.39940482 0.38631094
000040 9b 6c a7 3e 54 8b c6 3e b5 7b ab 3e af 0c df 3e
       0.32700047 0.38778174 0.33492818 0.43564364
000050 93 1b f5 3e 1b 76 bc 3e a0 f6 dd 3e 80 06 fb 3e
       0.478726 0.36808857 0.43352222 0.49028397
000060 02 f7 c2 3e 7a 52 ec 3e 82 00 b1 3e e3 7f d8 3e
       0.38079077 0.46156675 0.345707 0.4228507
000070 99 cd d9 3e 61 91 d9 3e 84 a5 de 3e a3 22 e3 3e
       0.4253967 0.42493728 0.43485653 0.44362363

layer2.0.bn1.bias f4 [32]
000000 50 8f a1 3d 41 26 d0 bd ad 40 8a 3d 6e ec 5a 3d
       0.07888663 -0.10163546 0.06750617 0.053448133
000010 49 bc 51 be 02 04 b9 bc ac b3 29 bd 80 a6 35 3e
       -0.20481981 -0.022584919 -0.041431114 0.17739296
000020 54 18 02 be 25 37 f1 bc 3f 80 b2 bd 62 a8 c0 bd
       -0.12704593 -0.02944524 -0.08715867 -0.094071165
000030 15 47 d3 bd d5 30 47 3d ec d6 34 bd da 33 f8 bd
       -0.10316292 0.048630554 -0.044150278 -0.12119265
000040 3a e6 ad bc 53 61 5f 3e 10 77 d9 bd 7a 3a 57 bd
       -0.021227945 0.2181447 -0.106184125 -0.052546002
000050 f8 29 99 bd 91 ce 3d bd ad cb 3d be 09 24 b6 bd
       -0.07478708 -0.046339575 -0.18534727 -0.08893592
000060 e1 58 fc bd 62 b8 97 bd bb 23 5b 3d 80 04 fb bd
       -0.1232164 -0.07408215 0.053500872 -0.12256718
000070 f4 fa 68 be fe 90 ac bd ee 35 25 be b2 a5 68 be
       -0.22751981 -0.084260926 -0.16133854 -0.22719458

layer2.0.bn1.running_mean f4 [32]
000000 62 01 0b bf 1f a9 0d 3f b4 62 33 be a2 d3 81 be
       -0.54298985 0.55336183 -0.17518121 -0.25356776
000010 78 b8 e6 be 59 bf 9b 3e 27 af 3f bf e3 ae bc be
       -0.45062613 0.30419424 -0.74876636 -0.36852178
000020 71 b9 30 bf 70 3a 17 c0 f5 32 90 3d 75 8e 2f c0
       -0.6903296 -2.3629417 0.07040969 -2.74307
000030 a8 ae 1c c0 06 31 70 3f 0d 02 b2 3f d0 a1 8e be
       -2.4481602 0.93824804 1.3906876 -0.27857828
000040 59 fb 36 bf b7 e0 63 bf 77 35 be bc ff 1b f6 3e
       -0.71477276 -0.8901476 -0.023218853 0.48068234
000050 45 d6 a5 3f 4b 2c 16 bf ae 71 73 bf e0 8c 7a 3e
       1.2956015 -0.58661336 -0.95095336 0.24467802
000060 84 f1 ee be 81 70 18 c0 c4 68 5c bf 69 b9 43 3f
       -0.46668637 -2.3818667 -0.8609736 0.7645479
000070 c9 8e 68 c0 3c b0 d9 3d 0e 8e 90 bf 70 e5 14 c0
       -3.633715 0.10629317 -1.1293352 -2.3265038

layer2.0.bn1.running_var f4 [32]
000000 7d 33 da 3f 82 94 71 3f 61 e4 1b 40 db 3c 5f 3f
       1.7046963 0.9436723 2.4358141 0.87202233
000010 33 ff 3d 3f 88 de 90 3f 68 78 ad 3f 1a 70 9a 3f
       0.7421753 1.1317911 1.355237 1.2065461
000020 48 2c a4 3f 2f cb d8 3f 1f d8 07 40 72 cf c4 3f
       1.2826014 1.6937007 2.122566 1.5375807
000030 23 b5 a6 3f d6 cc 1e 3f 0b 06 80 3f 18 83 5b 3f
       1.3024029 0.62031305 1.0001844 0.8574691
000040 47 52 9e 3f da 0e e9 3f 6d 0d 3b 3f 51 f8 00 40
       1.2368859 1.8207657 0.7306736 2.015156
000050 cf 33 c4 3f 74 d2 b1 3f a4 31 a6 3f f0 dc 95 3f
       1.5328311 1.389235 1.2983899 1.170805
000060 cb c9 88 3f a1 a2 f5 3f 94 33 82 3f 0f 44 81 3f
       1.0686582 1.9190255 1.017199 1.0098895
000070 7d e5 35 3f eb e4 93 3f 82 6f 95 3f 21 42 75 3f
       0.71053296 1.1554235 1.1674654 0.9580403

cpu f8 [32]
000000 00 00 00 00 33 de 5d 3f 00 00 00 20 fc 2c 59 3f
       0.0018229959532618523 0.0015366041334345937
000010 00 00 00 00 99 17 5c 3f 00 00 00 40 4c 2f 64 3f
       0.001714610494673252 0.0024639596231281757
000020 00 00 00 20 b8 8e 59 3f 00 00 00 60 c0 ea 59 3f
       0.001559905824251473 0.0015818480169400573
000030 00 00 00 40 52 11 56 3f 00 00 00 20 d6 b5 59 3f
       0.0013469031546264887 0.0015692320885136724
000040 00 00 00 e0 9e e8 66 3f 00 00 00 60 fa b5 5b 3f
       0.002796469023451209 0.0016913361614570022
000050 00 00 00 60 9f 64 55 3f 00 00 00 20 e5 93 5b 3f
       0.0013057285686954856 0.0016832101391628385
000060 00 00 00 40 e9 ea 59 3f 00 00 00 e0 9f 94 5e 3f
       0.0015818860847502947 0.001866489532403648
000070 00 00 00 80 61 0f 41 3f 00 00 00 c0 d0 ee 5b 3f
       0.0005206323694437742 0.0017048872541636229
000080 00 00 00 40 94 80 5b 3f 00 00 00 e0 16 0a 5b 3f
       0.0016786048654466867 0.00165035470854491
000090 00 00 00 e0 01 92 54 3f 00 00 00 c0 52 61 5e 3f
       0.0012555139837786555 0.001854258356615901
0000a0 00 00 00 00 b3 de 56 3f 00 00 00 80 96 c8 5e 3f
       0.001395869068801403 0.0018788785673677921
0000b0 00 00 00 80 2f e8 59 3f 00 00 00 80 dd d4 57 3f
       0.0015812362544238567 0.0014545596204698086
0000c0 00 00 00 e0 cd 81 57 3f 00 00 00 80 6c b9 5c 3f
       0.0014347563264891505 0.0017531928606331348
0000d0 00 00 00 e0 48 75 5a 3f 00 00 00 40 d2 d7 4a 3f
       0.001614876906387508 0.0008191849337890744
0000e0 00 00 00 40 c8 61 5d 3f 00 00 00 c0 e0 fc 68 3f
       0.0017933326307684183 0.003050269093364477
0000f0 00 00 00 20 a0 43 5d 3f 00 00 00 00 63 f0 60 3f
       0.001786142704077065 0.002067750319838524

layer2.0.bn2.weight f4 [32]
000000 17 16 0e 3f db 42 f8 3e 74 99 19 3f 8f 9a f2 3e
       0.55502456 0.48488507 0.59999776 0.47383544
000010 ee b5 ac 3e 52 af fd 3e 85 f6 02 3f 93 06 a3 3e
       0.3373255 0.4954782 0.5115741 0.31840953
000020 77 5d 0d 3f 60 95 10 3f 57 fd ba 3e be 1c f6 3e
       0.5522074 0.5647793 0.36521408 0.48068804
000030 0c fa 02 3f 95 87 d4 3e 80 98 a9 3d 55 ac ce 3e
       0.5116279 0.4150969 0.0828104 0.40365854
000040 a8 7d bf 3e a4 9f c9 3e 2e 01 dc 3e 9b 23 e8 3e
       0.37400556 0.3937961 0.4296965 0.45339665
000050 c4 84 8c 3e ad 85 ba 3e e3 d8 80 3e 59 36 03 3f
       0.27445042 0.36430112 0.2516547 0.512548
000060 a9 c7 df 3e 53 48 dd 3e d6 54 e5 3e 72 5e dc 3d
       0.43707016 0.43219241 0.44791287 0.107602015
000070 66 b1 28 3f 02 b3 41 3f 21 d6 de 3e f6 68 29 3f
       0.6589569 0.7566377 0.43522742 0.6617578

layer2.0.bn2.bias f4 [32]
000000 9c 23 97 3d 5e 38 f1 3d 66 8c e4 3d 3c 10 f3 3c
       0.07379839 0.11778329 0.111595914 0.029670827
000010 26 89 16 3e 64 69 03 3e e8 32 64 3d 20 e6 16 3e
       0.14700755 0.12833172 0.05571261 0.14736223
000020 aa e6 79 3d ac 4e bd 3d 60 e7 33 3e 5a 77 b3 3d
       0.061010994 0.09243521 0.17568731 0.08762999
000030 fe 22 65 3d 4b 5a 8c 3e 1d db 79 3e 17 81 ea 3d
       0.055941574 0.27412638 0.24399991 0.11450403
000040 63 12 00 3e 45 21 48 3c 2d 20 8d bc 77 bf ba 3d
       0.12507014 0.012214963 -0.017227257 0.0911855
000050 7d 3a 61 3e 15 85 54 3e ba ad 28 3e 2b 16 97 bd
       0.21994968 0.20753892 0.16472521 -0.07377275
000060 b7 3a 77 3c ea 1c 9f bd 94 56 62 3d 8a 71 4f 3d
       0.015089682 -0.07769187 0.05525835 0.05064539
000070 3d e3 b7 3d 8e 0b 04 3e 27 fd 82 3e ca 2a 10 be
       0.08978889 0.12895033 0.25583765 -0.14078823

layer2.0.bn2.running_mean f4 [32]
000000 ca b5 f8 bd e4 62 e9 be 2c f5 e5 be 13 c6 60 3c
       -0.121440485 -0.4558326 -0.44913614 0.0137191
000010 82 fb ab be 57 65 18 bf 1c dd a1 3d 95 40 7b 3b
       -0.33590323 -0.5952963 0.079035014 0.0038338054
000020 59 b0 28 bd a4 04 2c bf 3e 5a 87 be a6 d2 26 be
       -0.041183803 -0.6719458 -0.26436037 -0.16291294
000030 fa c6 91 bd 99 5c 2e bf 97 4b a7 bd 49 6c dc 3d
       -0.0711803 -0.6811004 -0.081687145 0.10762841
000040 96 18 c2 be b0 a3 29 3e cd ee a8 bd 3c 62 91 3e
       -0.37909383 0.16566348 -0.08248673 0.2839526
000050 e3 5b 7c 3e e6 75 1d 3f ca 99 98 be c2 56 83 3e
       0.24644427 0.61508024 -0.29804832 0.25652128
000060 38 46 14 3e ca 62 c1 be b3 39 04 bf 9d b2 a6 ba
       0.14479911 -0.37770683 -0.5165054 -0.0012718026
000070 03 8a 0c bf 0e 1c 61 3e 59 10 cf 3d a0 23 aa be
       -0.5489809 0.21983358 0.1011054 -0.33230305

layer2.0.bn2.running_var f4 [32]
000000 83 2e a1 3e 0e 2c 62 3e 08 5f 8b 3e 9a de 11 3e
       0.31480798 0.22087118 0.2722094 0.14245072
000010 97 f0 6a 3e b8 7c 58 3e 22 4c 39 3e 03 9b 88 3e
       0.2294334 0.21141326 0.18095449 0.26680765
000020 45 00 76 3e c1 6c 47 3e b9 13 2c 3e ab f5 01 3e
       0.2402354 0.1947508 0.16804399 0.12691371
000030 40 45 2b 3e 66 6b 4b 3e 49 e2 2f 3d e0 cc 05 3e
       0.16725636 0.19865188 0.04294041 0.13066435
000040 62 2e 1a 3e eb be e7 3d 38 93 0c 3e f5 e1 42 3e
       0.15056756 0.113157116 0.13728034 0.19031508
000050 15 29 b5 3d 48 b9 94 3e c6 24 bd 3d c3 ac f1 3d
       0.088457264 0.29047608 0.092355296 0.1180053
000060 2d 33 18 3e ca 48 03 3e f5 43 63 3e 4f 7f 2e 3d
       0.14863272 0.12820736 0.22193892 0.04260188
000070 31 8f 97 3e 73 3a aa 3e a6 c2 9b 3e 4a 10 1a 3e
       0.29601434 0.33247718 0.30421942 0.15045276

cpu f8 [32]
000000 00 00 00 80 79 b3 74 3f 00 00 00 80 b5 a2 58 3f
       0.005053972825407982 0.0015036365948617458
000010 00 00 00 40 c8 4e 5f 3f 00 00 00 20 18 96 5f 3f
       0.0019108729902654886 0.001927875098772347
000020 00 00 00 40 96 2a 75 3f 00 00 00 e0 6e 97 68 3f
       0.005167567171156406 0.003001896431669593
000030 00 00 00 40 0b b0 60 3f 00 00 00 a0 2b c5 6f 3f
       0.002037069294601679 0.003878197865560651
000040 00 00 00 c0 4f 3b 64 3f 00 00 00 60 75 ad 60 3f
       0.0024696881882846355 0.0020358364563435316
000050 00 00 00 80 ff 16 71 3f 00 00 00 20 e8 8d 6b 3f
       0.0041723232716321945 0.003363564843311906
000060 00 00 00 e0 78 35 5b 3f 00 00 00 e0 78 4d 6e 3f
       0.0016606979770585895 0.003699050983414054
000070 00 00 00 40 65 43 7b 3f 00 00 00 00 55 d9 6d 3f
       0.006656070239841938 0.0036436710506677628
000080 00 00 00 80 e3 fc 6e 3f 00 00 00 60 ef 85 65 3f
       0.0037826960906386375 0.002627341775223613
000090 00 00 00 00 bf 12 62 3f 00 00 00 00 26 0a 60 3f
       0.0022062044590711594 0.001957964152097702
0000a0 00 00 00 60 b2 07 72 3f 00 00 00 60 c0 7f 6e 3f
       0.004401871468871832 0.00372302602045238
0000b0 00 00 00 e0 9a 8f 70 3f 00 00 00 20 11 02 64 3f
       0.004043202381581068 0.002442391822114587
0000c0 00 00 00 00 e1 d0 63 3f 00 00 00 80 85 b5 58 3f
       0.002418937161564827 0.001508121844381094
0000d0 00 00 00 80 10 23 69 3f 00 00 00 60 99 ef 7c 3f
       0.0030684778466820717 0.00706443702802062
0000e0 00 00 00 80 f7 4a 72 3f 00 00 00 40 7f af 52 3f
       0.004466025158762932 0.0011404745746403933
0000f0 00 00 00 a0 19 47 72 3f 00 00 00 60 fa 2f 5a 3f
       0.004462337587028742 0.0015983529156073928

layer2.0.shortcut.1.weight f4 [32]
000000 55 7c ff 3e 2e 41 f0 3d b0 10 80 3e 15 12 8e 3e
       0.49899545 0.11731182 0.25012732 0.2774817
000010 76 f8 50 3f 71 b0 98 3e 15 89 61 3e 48 c5 07 3f
       0.8162912 0.29822114 0.22024949 0.530354
000020 9d 5c 93 3e ae f6 66 3e d8 4c 0e 3f c4 7b b1 3e
       0.28781596 0.22555038 0.55586004 0.34664738
000030 7c 8a 84 3e aa 71 f8 3e 52 41 58 3f 0e d1 fd 3e
       0.25886905 0.4852422 0.8447467 0.4957356
000040 e0 86 00 3f c5 27 d3 3e f9 92 b7 3e 43 ff e6 3e
       0.502058 0.4124128 0.3585432 0.45116624
000050 14 5b 27 3f fd ce 20 3f 2c 86 f7 3e 00 ae 60 3e
       0.6537335 0.6281584 0.48344553 0.21941376
000060 1d 85 98 3e 54 a7 17 3e a7 1b a5 3e 2f 81 62 3f
       0.29789057 0.14809924 0.3224766 0.8847837
000070 99 a9 0a 3f 4e 99 80 3d 6f 7f 01 3f db fe 4f 3e
       0.54165035 0.062792405 0.50585073 0.20312063

layer2.0.shortcut.1.bias f4 [32]
000000 9c 23 97 3d 5e 38 f1 3d 66 8c e4 3d 3c 10 f3 3c
       0.07379839 0.11778329 0.111595914 0.029670827
000010 26 89 16 3e 64 69 03 3e e8 32 64 3d 20 e6 16 3e
       0.14700755 0.12833172 0.05571261 0.14736223
000020 aa e6 79 3d ac 4e bd 3d 60 e7 33 3e 5a 77 b3 3d
       0.061010994 0.09243521 0.17568731 0.08762999
000030 fe 22 65 3d 4b 5a 8c 3e 52 e8 79 3e 17 81 ea 3d
       0.055941574 0.27412638 0.2440503 0.11450403
000040 63 12 00 3e 45 21 48 3c 2d 20 8d bc 77 bf ba 3d
       0.12507014 0.012214963 -0.017227257 0.0911855
000050 7d 3a 61 3e 15 85 54 3e ba ad 28 3e 2b 16 97 bd
       0.21994968 0.20753892 0.16472521 -0.07377275
000060 b7 3a 77 3c ea 1c 9f bd 94 56 62 3d f5 89 4f 3d
       0.015089682 -0.07769187 0.05525835 0.050668675
000070 3d e3 b7 3d dc e5 03 3e 27 fd 82 3e 19 13 10 be
       0.08978889 0.12880653 0.25583765 -0.14069785

layer2.0.shortcut.1.running_mean f4 [32]
000000 f8 38 8f bf a3 db a7 3d 5a 07 0a 3d 6e 15 99 be
       -1.118926 0.08196189 0.033698417 -0.29899162
000010 44 96 01 c0 6d 83 9c 3e cd 2d dd bd 30 ee 01 be
       -2.0247965 0.3056902 -0.107997514 -0.12688518
000020 a3 26 dc be 8e 53 f8 be 72 f8 81 3f 98 92 cd 3e
       -0.42998227 -0.48501247 1.0153944 0.40150905
000030 dc a4 95 be 4f 46 38 bf 10 36 85 3f 68 e0 8b bf
       -0.2922734 -0.7198228 1.0407124 -1.0927858
000040 10 68 10 bf 72 e0 0d be 0c d7 34 bf 38 f1 58 3e
       -0.56408787 -0.1385515 -0.70640635 0.21185768
000050 80 15 6b bf c3 5b d0 3e b6 f6 bb bd 90 2e 7a 3e
       -0.9182968 0.4069501 -0.09177916 0.24431825
000060 30 58 3d 3f 5a db e6 bd ad 16 74 bf 30 ad 77 3d
       0.7396269 -0.11272307 -0.953471 0.0604679
000070 f6 d5 fc 3d d4 1f 9b 3e 26 07 17 3f 02 c2 f4 3e
       0.12345497 0.3029772 0.5899528 0.47804266

layer2.0.shortcut.1.running_var f4 [32]
000000 47 c3 ba 3e b5 55 7c 3d f0 3d 0a 3e 43 67 c1 3d
       0.3647711 0.061605174 0.1350019 0.09443524
000010 a7 8b e7 3e e9 a5 07 3e 11 9b e5 3d 15 e2 1b 3f
       0.45223734 0.13246883 0.11211217 0.6089185
000020 88 62 31 3e 06 d8 eb 3d 55 bc 90 3e c4 68 fb 3d
       0.17322743 0.115158126 0.28268686 0.12275842
000030 a4 ca f7 3d 2a 4b b1 3e 4a 14 c6 3e 12 f1 77 3e
       0.120991975 0.34627658 0.38687354 0.24213055
000040 6c a9 9b 3e 0e 1a 32 3e 7f 02 e9 3d 8b 87 98 3e
       0.30402696 0.17392752 0.11377429 0.2979091
000050 43 22 91 3e 70 bb 03 3f 14 50 9d 3e e0 5b cb 3d
       0.28346452 0.5145788 0.30725157 0.09929633
000060 cf 5a 0d 3e 88 95 98 3d 56 d9 6c 3e 52 da e9 3e
       0.13804172 0.07450396 0.23129782 0.45674378
000070 73 64 bd 3e dc 09 3d 3d 67 72 a4 3e 36 6d e7 3d
       0.369907 0.04615198 0.32118532 0.11300127

cpu f8 [32]
000000 00 00 00 60 48 34 59 3f 00 00 00 e0 8f c5 51 3f
       0.001538344076834619 0.0010847001103684306
000010 00 00 00 20 75 a2 50 3f 00 00 00 e0 f2 ee 50 3f
       0.001015295390971005 0.0010335323167964816
000020 00 00 00 80 28 a5 4e 3f 00 00 00 e0 fa 28 56 3f
       0.0009352157358080149 0.0013525438262149692
000030 00 00 00 80 c7 1c 63 3f 00 00 00 40 01 df 54 3f
       0.002333058975636959 0.0012738716322928667
000040 00 00 00 60 76 fb 4c 3f 00 00 00 20 2c 26 51 3f
       0.0008844688418321311 0.0010466986568644643
000050 00 00 00 60 7b de 51 3f 00 00 00 a0 09 0c 5a 3f
       0.00109064148273319 0.0015897840494289994
000060 00 00 00 60 2a 23 53 3f 00 00 00 40 7d 7e 50 3f
       0.001168052083812654 0.0010067198891192675
000070 00 00 00 e0 d6 d8 5b 3f 00 00 00 40 2d 31 55 3f
       0.001699647749774158 0.001293462933972478
000080 00 00 00 20 1c e7 57 3f 00 00 00 a0 90 f0 51 3f
       0.001458909478969872 0.0010949528077617288
000090 00 00 00 00 7a ca 58 3f 00 00 00 e0 fb 96 55 3f
       0.0015131179243326187 0.0013177356449887156
0000a0 00 00 00 60 52 62 4f 3f 00 00 00 40 13 fe 52 3f
       0.0009577657910995185 0.0011592090595513582
0000b0 00 00 00 60 6b 07 5d 3f 00 00 00 20 d2 a8 57 3f
       0.0017717884620651603 0.0014440586091950536
0000c0 00 00 00 e0 a0 88 59 3f 00 00 00 a0 2b 00 5f 3f
       0.0015584536595270038 0.0018921304726973176
0000d0 00 00 00 00 1d a2 49 3f 00 00 00 80 5f a7 53 3f
       0.0007822648622095585 0.0011995728127658367
0000e0 00 00 00 60 74 05 53 3f 00 00 00 40 95 7c 52 3f
       0.0011609684443101287 0.0011283357162028551
0000f0 00 00 00 80 08 9f 50 3f 00 00 00 60 42 b1 5a 3f
       0.0010144789703190327 0.0016291759675368667

layer2.1.bn1.weight f4 [32]
000000 b2 5f 90 3e 74 be 5b 3e 1d 4b 99 3e 62 5c 4c 3e
       0.2819801 0.21459371 0.2994012 0.19957116
000010 6c 47 89 3e 6a 49 8f 3e 38 b9 9b 3e 0f 31 ba 3e
       0.26812303 0.27985698 0.30414748 0.36365554
000020 72 36 a3 3e e9 7d 58 3e 15 6d 5d 3e b2 ea 96 3e
       0.31877476 0.21141781 0.21623643 0.29475933
000030 e2 2a 9c 3e 24 4a a4 3e 69 16 c7 3e 9c 8b 8c 3e
       0.30501467 0.32087815 0.38884285 0.27450264
000040 3e 7c ac 3e 7e 09 8a 3e 74 61 ba 3e 3e 43 93 3e
       0.3368854 0.26960367 0.36402476 0.2876224
000050 cf 20 80 3e df 42 89 3e 21 4e 87 3e 99 6c 8d 3e
       0.2502503 0.2680883 0.26426795 0.27621916
000060 e3 3e 99 3e bd 60 d8 3e 9d 63 8d 3e e1 70 91 3e
       0.2993079 0.42261305 0.2761506 0.28406432
000070 aa 5f 8a 3e e0 ff 87 3e c5 4d 9d 3e a2 2f b3 3e
       0.2702611 0.26562405 0.30723396 0.34997278

layer2.1.bn1.bias f4 [32]
000000 1c 5a 08 be 86 56 eb bd 08 d2 3f be b1 68 d7 bd
       -0.13315624 -0.114911124 -0.18732464 -0.10518015
000010 42 84 35 be e0 2a 46 be 49 cf 85 be d5 c3 8a be
       -0.17726234 -0.19352293 -0.2613471 -0.27102533
000020 73 84 22 be c7 e3 24 be f1 7f 04 be 30 6e 76 be
       -0.15870838 -0.16102515 -0.12939431 -0.2406547
000030 86 dd 14 be 3b db 74 be a2 b2 a5 be 4a d5 6f be
       -0.1453763 -0.23911755 -0.3236285 -0.23421207
000040 5f 86 87 be 12 44 e3 bd fb 4f 92 be ee 0c 79 be
       -0.26469705 -0.11096968 -0.28576645 -0.24321339
000050 cf 90 08 be f3 16 6d be b4 34 00 be e1 a3 d4 bd
       -0.1333649 -0.23153286 -0.12520105 -0.1038282
000060 af 55 84 be 0e 67 a2 be c4 41 25 be 9e 73 13 be
       -0.2584662 -0.3171925 -0.16138369 -0.14399573
000070 1e 7f 45 be cf 76 21 be 14 aa 2e be d7 ba ab be
       -0.19286773 -0.15767978 -0.17057067 -0.33540985

layer2.1.bn1.running_mean f4 [32]
000000 22 49 5d bf b0 ac a9 3e ae a4 9d be 00 0a d9 be
       -0.86439717 0.33139563 -0.30789703 -0.42390442
000010 3d e8 36 3d 9a 72 15 be 5a 1d 90 be 47 3e d1 be
       0.044655073 -0.14594498 -0.28147393 -0.40867826
000020 4d d1 3e bf 56 a6 de be d2 6f 46 be e6 94 c5 be
       -0.7453812 -0.4348628 -0.19378594 -0.38590163
000030 12 57 82 3e f4 f5 03 bf 4d ae ed bf 9d 00 91 3c
       0.25457054 -0.5154717 -1.8568817 0.017700488
000040 f5 0e b3 be e9 92 cb be df e1 7d bf ba d2 69 3e
       -0.3497235 -0.3976052 -0.99172777 0.22834292
000050 17 9e 33 3f e8 f5 94 3d 58 c3 13 be ae 26 50 bf
       0.701631 0.072734654 -0.14429986 -0.8130902
000060 d2 cf 7e bf 46 64 13 bf 1d c5 56 be 67 6e e7 be
       -0.9953586 -0.5757488 -0.2097363 -0.45201418
000070 ee ed 87 3d d6 c2 57 bf 58 20 0d bf f8 c6 f6 be
       0.06637178 -0.8428167 -0.5512748 -0.48198676

layer2.1.bn1.running_var f4 [32]
000000 9c b4 3a 3f d1 cb 87 3e 03 32 97 3e d4 8c bc 3e
       0.7293184 0.26522687 0.29530343 0.36826193
000010 c8 87 7e 3e 9d c1 0b 3f 98 64 19 3f f2 fe 15 3f
       0.24856484 0.54592305 0.5991912 0.5859214
000020 24 13 ef 3e 05 fa b9 3e b8 ce a2 3e 3b 3e 64 3f
       0.4669429 0.36323562 0.3179834 0.89157456
000030 e6 ae 22 3f c9 b7 09 3f 8a d5 67 3f c9 9a 27 3f
       0.63548124 0.5379606 0.9056021 0.6547056
000040 19 bb 3d 3f 16 7e de 3e 7c b9 55 3f c7 54 c9 3e
       0.74113613 0.4345557 0.8348615 0.39322492
000050 b0 19 03 3f 83 0f 0b 3f 87 14 d3 3e 5b fd 97 3e
       0.5121107 0.54320544 0.412266 0.29685482
000060 ed 68 0a 3f d4 2b 8e 3f 05 ae c2 3e e0 f4 e2 3e
       0.54066354 1.1107125 0.3802339 0.4432745
000070 3e 9f f1 3e 13 09 c6 3e 72 2e d9 3e 8f d9 ab 3f
       0.47191805 0.38678798 0.42418247 1.3425769
