resnet32/checkpoints/resnet32_pruned50_int8_ptq_fx.pt (torch, 564595 bytes, 68 tensors)

cpu f8 [16]
0	0x3f4de36140000000	0.000912115559913218
1	0x3f413545a0000000	0.0005251493421383202
2	0x3f40125620000000	0.0004904671222902834
3	0x3f5d5aa5e0000000	0.001791631686501205
4	0x3f5704eb80000000	0.0014049815945327282
5	0x3f5976e040000000	0.001554221147671342
6	0x3f470e1ba0000000	0.0007035860908217728
7	0x3f6480c420000000	0.002502806717529893
8	0x3f48778860000000	0.0007466712850145996
9	0x3f679c14c0000000	0.002882042434066534
10	0x3f590fb200000000	0.001529620960354805
11	0x3f45c81920000000	0.0006647226982749999
12	0x3f56da1c60000000	0.0013947751140221953
13	0x3f5bc7a280000000	0.001695545855909586
14	0x3f4d8f1d00000000	0.0009020701982080936
15	0x3f5a81a400000000	0.0016178227961063385

conv1.bias f4 [16]
0	0x3e5a8502	0.21339801
1	0x3ee75bc4	0.451872
2	0x3d908d96	0.070582554
3	0x3ea96434	0.3308426
4	0x3ed3b912	0.41352135
5	0x3e890a27	0.26765558
6	0x3e3daba8	0.18522513
7	0x3f481d64	0.78169847
8	0x3edeb105	0.4349443
9	0x3e090e1e	0.13384292
10	0x3d371890	0.04470116
11	0xbe9376c5	-0.2880155
12	0xbf4d4ea5	-0.8019813
13	0x3f4a5e5d	0.79050237
14	0x3f03d248	0.5149274
15	0xbe374762	-0.17898324

cpu f8 [16]
0	0x3f4fec5a80000000	0.0009742204565554857
1	0x3f6aeab300000000	0.0032857414335012436
2	0x3f62ee8540000000	0.0023110010661184788
3	0x3f5f581e80000000	0.0019130990840494633
4	0x3f5640ff60000000	0.0013582700630649924
5	0x3f5ae8b280000000	0.0016423934139311314
6	0x3f55b31cc0000000	0.0013244419824331999
7	0x3f51c25120000000	0.0010839264141395688
8	0x3f72a4ffc0000000	0.004551886580884457
9	0x3f58bcf480000000	0.0015098941512405872
10	0x3f66667400000000	0.0027344003319740295
11	0x3f5550e300000000	0.0013010231778025627
12	0x3f6a094840000000	0.00317825423553586
13	0x3f5007f560000000	0.0009784599533304572
14	0x3f679c6b00000000	0.002882203087210655
15	0x3f556ac3a0000000	0.0013071928406134248

layer1.0.conv1.bias f4 [16]
0	0xbebf8c52	-0.37411743
1	0xbf11c854	-0.569463
2	0x3ed0f426	0.4081127
3	0x3f092765	0.53575736
4	0x3f020e4c	0.50803065
5	0xbd8611d4	-0.06546369
6	0x3d807d45	0.06273893
7	0x3f194042	0.59863675
8	0x3f2f7c7d	0.6854933
9	0x3ec0e103	0.3767167
10	0x3e84fb6c	0.2597307
11	0x3f4c78d8	0.7987189
12	0xbf9265b0	-1.1437283
13	0xbf1451ba	-0.57937205
14	0x3edb579a	0.42840272
15	0xbcea2058	-0.028579876

cpu f8 [16]
0	0x3f583ffac0000000	0.0014800976496189833
1	0x3f52eed140000000	0.0011555713135749102
2	0x3f60b710e0000000	0.002040417632088065
3	0x3f65475c40000000	0.0025975038297474384
4	0x3f637a46a0000000	0.0023776416201144457
5	0x3f6611a5e0000000	0.002693962072953582
6	0x3f75e34ba0000000	0.00534371891990304
7	0x3f7327af20000000	0.004676517564803362
8	0x3f54cc2fc0000000	0.0012693849857896566
9	0x3f6e46c5c0000000	0.003695856314152479
10	0x3f68a07900000000	0.003006206825375557
11	0x3f5c5e2d60000000	0.00173143798019737
12	0x3f70ad5280000000	0.004071542993187904
13	0x3f6fa39f80000000	0.0038622012361884117
14	0x3f6775b4e0000000	0.0028637440409511328
15	0x3f6a598f80000000	0.0032165339216589928

layer1.0.conv2.bias f4 [16]
0	0x3e367d8c	0.1782133
1	0x3e45e48e	0.19325468
2	0x3e1c3758	0.15255487
3	0x3d13ef22	0.036116727
4	0x3f12d8c4	0.5736201
5	0xbd1e3de8	-0.038633257
6	0xbcbdfcd0	-0.02319184
7	0x3dfd60c5	0.12371973
8	0x3ebb6906	0.36603564
9	0xbedc0362	-0.4297133
10	0xbe99e478	-0.3005712
11	0x3d2d18d0	0.04225999
12	0xbdaa93aa	-0.08328946
13	0x3f28be7f	0.65915674
14	0xbe0b6f9e	-0.13616797
15	0xbea25c66	-0.3171112

cpu f8 [16]
0	0x3f499a1f20000000	0.0007813121774233878
1	0x3f458c6600000000	0.0006576059386134148
2	0x3f57b991a0000000	0.0014480516547337174
3	0x3f565b1600000000	0.0013644900172948837
4	0x3f56248180000000	0.001351477112621069
5	0x3f54f5ee00000000	0.0012793373316526413
6	0x3f4e1b10c0000000	0.0009187537943944335
7	0x3f59e587c0000000	0.0015806031879037619
8	0x3f52842720000000	0.001130140502937138
9	0x3f3eee1160000000	0.00047195362276397645
10	0x3f53bfde80000000	0.0012054131366312504
11	0x3f57dfbe80000000	0.0014571533538401127
12	0x3f48e20440000000	0.0007593651534989476
13	0x3f46100120000000	0.0006732945912517607
14	0x3f45f67900000000	0.0006702509708702564
15	0x3f536acb80000000	0.0011851298622786999

layer1.1.conv1.bias f4 [16]
0	0x3efbb574	0.49161875
1	0xbe0e991a	-0.13925591
2	0xbf09ed72	-0.5387794
3	0xbf98ddde	-1.1942708
4	0x3e449a54	0.19199497
5	0x3f5fed02	0.8747102
6	0x3f48c263	0.7842161
7	0x3e98ce04	0.29844677
8	0x3e92c4e4	0.2866584
9	0x3d08d8b3	0.033409785
10	0x3e58fc20	0.21189928
11	0x3ede1efa	0.43383008
12	0x3f4035f7	0.75082344
13	0x3f2f20f8	0.6840968
14	0x3e6feaeb	0.23429458
15	0x3e896f92	0.26842934

cpu f8 [16]
0	0x3f665f31e0000000	0.0027309393044561148
1	0x3f4bd37bc0000000	0.0008491853950545192
2	0x3f5b4c80e0000000	0.0016661890549585223
3	0x3f5d1ebae0000000	0.0017773461295291781
4	0x3f5cb46f20000000	0.0017520032124593854
5	0x3f601df4c0000000	0.001967409159988165
6	0x3f62708700000000	0.002250922843813896
7	0x3f65b781a0000000	0.002650979207828641
8	0x3f4f425d40000000	0.000953956157900393
9	0x3f54474040000000	0.00123769068159163
10	0x3f714b2760000000	0.004222062882035971
11	0x3f5f19a220000000	0.0018982012988999486
12	0x3f62ec4bc0000000	0.0023099402897059917
13	0x3f6df33780000000	0.0036560138687491417
14	0x3f6c319e80000000	0.0034416290000081062
15	0x3f6c2bae80000000	0.003438797779381275

layer1.1.conv2.bias f4 [16]
0	0x3e2fdcf7	0.17174135
1	0x3d84bf0c	0.06481752
2	0x3e3175b0	0.1733005
3	0xbe5e4e9b	-0.21709673
4	0xbe141fb0	-0.14465213
5	0xbecb7145	-0.39734855
6	0x3e2c3afb	0.16819374
7	0xbe5e9a01	-0.21738435
8	0x3da7806b	0.08178791
9	0xbe12e380	-0.14344597
10	0xbf0606ab	-0.52353925
11	0xbd8df9ed	-0.06932435
12	0xbf0070d0	-0.5017214
13	0xbe3f10b2	-0.18658713
14	0xbe83509e	-0.25647444
15	0x3d3a7da9	0.045529995

cpu f8 [16]
0	0x3f50e8b100000000	0.0010320404544472694
1	0x3f53a35420000000	0.0011986085446551442
2	0x3f45bdbe60000000	0.0006634883466176689
3	0x3f48628540000000	0.0007441664347425103
4	0x3f4e12a600000000	0.0009177504107356071
5	0x3f401b35c0000000	0.0004915249301120639
6	0x3f4938c1a0000000	0.0007697053370065987
7	0x3f425b1ae0000000	0.0005601769662462175
8	0x3f4c3ad340000000	0.0008615046972408891
9	0x3f3cc88bc0000000	0.00043919956078752875
10	0x3f48bfcb80000000	0.0007552856113761663
11	0x3f4f880ce0000000	0.0009622633806429803
12	0x3f40ff9d40000000	0.0005187528440728784
13	0x3f518939a0000000	0.0010703146690502763
14	0x3f4c0b5d00000000	0.0008558467961847782
15	0x3f53b8a900000000	0.0012036943808197975

layer1.2.conv1.bias f4 [16]
0	0x3f49f866	0.7889465
1	0xbeebbed4	-0.46044028
2	0xbeec9dd1	-0.46214154
3	0x3ed153ea	0.40884334
4	0x3e9ce6b4	0.30644763
5	0x3e44788a	0.19186607
6	0x3f378025	0.7167991
7	0x3decd842	0.115646854
8	0x3f3ef4b9	0.7459217
9	0xbea7d486	-0.3277933
10	0xbf28e080	-0.6596756
11	0x3ea12858	0.31476092
12	0x3db50c83	0.08840277
13	0x3f51c31f	0.81938356
14	0xbeb8bf04	-0.36083233
15	0x3f56e403	0.8394167

cpu f8 [16]
0	0x3f533a23c0000000	0.0011735295411199331
1	0x3f515201c0000000	0.0010571496095508337
2	0x3f60ba0580000000	0.002041826955974102
3	0x3f65131620000000	0.002572577679529786
4	0x3f511ecec0000000	0.0010449427645653486
5	0x3f5f8f1f00000000	0.0019262125715613365
6	0x3f668dc080000000	0.0027531394734978676
7	0x3f732e8000000000	0.004683017730712891
8	0x3f5c50d8c0000000	0.001728259725496173
9	0x3f63320860000000	0.002343193395063281
10	0x3f63ee2c80000000	0.0024329060688614845
11	0x3f60fe34e0000000	0.0020743401255458593
12	0x3f5cee6f80000000	0.0017658318392932415
13	0x3f6cdd5aa0000000	0.0035235185641795397
14	0x3f6b986740000000	0.003368570003658533
15	0x3f608b45e0000000	0.002019535517320037

layer1.2.conv2.bias f4 [16]
0	0x3eaf737f	0.34267804
1	0x3e0d98bc	0.13827795
2	0x3e0ae652	0.13564423
3	0x3f3f1a79	0.7464977
4	0x3e919653	0.28435
5	0xbe00fd02	-0.12596515
6	0x3ea6fc01	0.3261414
7	0x3d90d8a3	0.0707257
8	0x3eaad44e	0.333651
9	0x3d009fc8	0.03140238
10	0xbde0a9a8	-0.10969859
11	0x3c6b4244	0.014359061
12	0xbd314d68	-0.04328671
13	0xbebc8a57	-0.36824295
14	0xbdf15ce5	-0.11785296
15	0x3e1fec85	0.15617569

cpu f8 [16]
0	0x3f4b9100a0000000	0.0008412602473981678
1	0x3f39778ae0000000	0.0003885950136464089
2	0x3f3aa95e20000000	0.00040682361577637494
3	0x3f42ab83e0000000	0.0005697626038454473
4	0x3f47c187c0000000	0.0007249749032780528
5	0x3f48beb6c0000000	0.0007551567396149039
6	0x3f503cf520000000	0.0009910959051921964
7	0x3f45d34e80000000	0.0006660588551312685
8	0x3f4be7f640000000	0.00085162662435323
9	0x3f4742b680000000	0.0007098570931702852
10	0x3f42aa49a0000000	0.0005696162697859108
11	0x3f4251e800000000	0.0005590803921222687
12	0x3f4ad96700000000	0.0008193734101951122
13	0x3f45a14a20000000	0.0006600963533855975
14	0x3f4d9d6d00000000	0.0009037763811647892
15	0x3f45b302c0000000	0.0006622088840231299

layer1.3.conv1.bias f4 [16]
0	0x3e48f1a1	0.19623424
1	0x3e87e4f7	0.26541874
2	0x3eaadfb1	0.33373788
3	0x3e643e60	0.22289419
4	0x3ea7fa57	0.32808182
5	0x3e617625	0.22017725
6	0x3e052322	0.13001683
7	0x3e0d9ec3	0.13830094
8	0x3f182e23	0.594454
9	0xbe2d2106	-0.16907129
10	0x3ead938b	0.3390163
11	0x3e7cd120	0.2468915
12	0x3e517689	0.20455374
13	0x3ef62ad1	0.4807954
14	0x3d214a44	0.039377466
15	0x3e56a392	0.20960835

cpu f8 [16]
0	0x3f636971e0000000	0.002369615947827697
1	0x3f4a612e20000000	0.0008050418109633029
2	0x3f6591c340000000	0.0026329816319048405
3	0x3f73cfb1c0000000	0.004836744628846645
4	0x3ee5f6d1c0000000	1.0473317161086015e-05
5	0x3f515a3e60000000	0.0010591134196147323
6	0x3f6bf2ee80000000	0.003411737270653248
7	0x3f6db8d6c0000000	0.0036281771026551723
8	0x3f69701360000000	0.0031051996629685163
9	0x3f4ada11c0000000	0.00081945292185992
10	0x3f6c4e5a60000000	0.0034553303848952055
11	0x3f68b519a0000000	0.0030160427559167147
12	0x3f65d37e40000000	0.00266432436183095
13	0x3f6aa8ac60000000	0.0032542578410357237
14	0x3f6a5432c0000000	0.003213976975530386
15	0x3f6055b6e0000000	0.0019939967896789312

layer1.3.conv2.bias f4 [16]
0	0x3eaaa0a0	0.33325672
1	0x3c6d7380	0.014492869
2	0x3e15a905	0.14615257
3	0x3f370e22	0.7150594
4	0x3d311b86	0.04323914
5	0xbd85f13f	-0.06540155
6	0x3e8cc3d6	0.2749316
7	0x3e975acb	0.29561457
8	0x3e25cc1f	0.16191147
9	0xbe017fad	-0.1264636
10	0xbd759510	-0.05995661
11	0xbd454c16	-0.048168264
12	0x3ea6976e	0.32537407
13	0xbf1119d2	-0.56680024
14	0xbeb16ecc	-0.34654844
15	0x3e04235a	0.1290411

cpu f8 [16]
0	0x3f482f6780000000	0.0007380729075521231
1	0x3f3be61200000000	0.0004257005639374256
2	0x3f40373d40000000	0.0004948662826791406
3	0x3f4310a640000000	0.0005818187491968274
4	0x3f409b7780000000	0.0005068143364042044
5	0x3f49a66a80000000	0.000782777788117528
6	0x3f45b5a5a0000000	0.0006625231471844018
7	0x3f42fe8f60000000	0.0005796623299829662
8	0x3f434dc700000000	0.0005891057662665844
9	0x3f4c60e720000000	0.000866043905261904
10	0x3f3fcae2c0000000	0.0004851153935305774
11	0x3f418e0440000000	0.000535728526301682
12	0x3f447eefc0000000	0.0006254835752770305
13	0x3f41344820000000	0.0005250312970019877
14	0x3f40de7b20000000	0.0005148030468262732
15	0x3f4e171040000000	0.0009182767244055867

layer1.4.conv1.bias f4 [16]
0	0x3c3221c0	0.010872304
1	0x3dd1471c	0.10218641
2	0x3dc3ae3c	0.09554717
3	0x3e43d759	0.19125117
4	0x3dd71076	0.105011865
5	0x3ea95a22	0.33076578
6	0x3e0e72bb	0.13910954
7	0x3e055a82	0.13022807
8	0x3e1a0e44	0.15044504
9	0x3e052db5	0.13005717
10	0x3e3b8c24	0.18315178
11	0xbdef7680	-0.11692524
12	0x3e3838b5	0.17990382
13	0x3de0200a	0.10943611
14	0xbd77484c	-0.060371682
15	0x3da60e94	0.08108249

cpu f8 [16]
0	0x3f6f88c8a0000000	0.0038494032341986895
1	0x3f44642de0000000	0.0006222938536666334
2	0x3f5bff0380000000	0.0017087492160499096
3	0x3f776d8600000000	0.005719684064388275
4	0x3f1148c500000000	6.593420403078198e-05
5	0x3f48db4a20000000	0.0007585632265545428
6	0x3f665427a0000000	0.0027256750036031008
7	0x3f6c9bd100000000	0.0034922678023576736
8	0x3f5d4f68e0000000	0.0017889522714540362
9	0x3f4fdf7460000000	0.0009726827847771347
10	0x3f6891bca0000000	0.002999180229380727
11	0x3f6ab960c0000000	0.0032622232101857662
12	0x3f55d46f40000000	0.0013323866296559572
13	0x3f68e44ee0000000	0.003038553288206458
14	0x3f750fb9c0000000	0.005141950212419033
15	0x3f68cbb340000000	0.003026819322258234

layer1.4.conv2.bias f4 [16]
0	0x3f24e26e	0.64408004
1	0x3dab7459	0.08371801
2	0xbd9aa02e	-0.07550083
3	0xbd69f540	-0.057118654
4	0x3cb6e530	0.022326082
5	0x3d63136a	0.055438437
6	0xbec55068	-0.38537908
7	0xbdfd491c	-0.1236746
8	0xbc283380	-0.010266185
9	0x3cf10700	0.029422283
10	0xbe064840	-0.13113499
11	0x3e23faca	0.16013637
12	0x3de8f653	0.113751076
13	0xbd9861d6	-0.07440536
14	0xbecdcb80	-0.4019432
15	0x3d87c96f	0.06630217

cpu f8 [32]
0	0x3f4262ad00000000	0.0005610794760286808
1	0x3f44f4ca20000000	0.0006395327509380877
2	0x3f45e5a880000000	0.0006682465318590403
3	0x3f4890c920000000	0.0007496816688217223
4	0x3f4612ec00000000	0.0006736423820257187
5	0x3f42baa5e0000000	0.0005715665756724775
6	0x3f44a36880000000	0.000629831338301301
7	0x3f4c57c0e0000000	0.0008649532101117074
8	0x3f4e900500000000	0.000932695809751749
9	0x3f46fb69c0000000	0.0007013574941083789
10	0x3f4680bee0000000	0.0006867343909107149
11	0x3f39e0ca60000000	0.00039486828609369695
12	0x3f4cc2b820000000	0.0008777045295573771
13	0x3f425dde00000000	0.000560506246984005
14	0x3f42912e60000000	0.0005666233482770622
15	0x3f4f10bfa0000000	0.0009480415028519928
16	0x3f47b09c40000000	0.0007229578914120793
17	0x3f49ef6440000000	0.0007914771558716893
18	0x3f504f7be0000000	0.000995512935332954
19	0x3f43dbd340000000	0.0006060391897335649
20	0x3f4e406de0000000	0.0009232079028151929
21	0x3f4dca7280000000	0.0009091433603316545
22	0x3f4348a540000000	0.0005884940037503839
23	0x3f4410d220000000	0.000612356758210808
24	0x3f4a378720000000	0.0008000764646567404
25	0x3f4a127d40000000	0.0007956611225381494
26	0x3f423957a0000000	0.0005561521393246949
27	0x3f43d73740000000	0.0006054897094145417
28	0x3f46dd5dc0000000	0.0006977756274864078
29	0x3f52283c60000000	0.001108225784264505
30	0x3f46e68900000000	0.0006988686509430408
31	0x3f4a70ca00000000	0.0008069025352597237

layer2.0.conv1.bias f4 [32]
0	0x3f285272	0.657508
1	0x3f71aa08	0.9440007
2	0x3d80de72	0.06292428
3	0x3ea0734e	0.3133797
4	0x3ef0d047	0.47033903
5	0x3ebaeef8	0.36510444
6	0xbe96450a	-0.29349548
7	0xbe2cf900	-0.16891861
8	0xbd5aa920	-0.053383946
9	0xbf02b948	-0.51063967
10	0x3f1ece3c	0.6203344
11	0x3ebabd1b	0.364724
12	0x3e8f6c04	0.28012097
13	0x3e930c04	0.28720105
14	0xbea45692	-0.32097298
15	0x3f689b4a	0.9086195
16	0x3ec2c32c	0.3803953
17	0xbf938023	-1.1523479
18	0x3e9ca12e	0.3059172
19	0x3eebdfef	0.46069285
20	0xbeca4fc9	-0.39513996
21	0x3eb96190	0.36207247
22	0x3dba362c	0.09092364
23	0xbe7f818a	-0.24951759
24	0xbf139b4c	-0.5765884
25	0x3ea03925	0.31293598
26	0x3e458f2a	0.19292894
27	0xbeabe5da	-0.335738
28	0x3e229647	0.15877639
29	0x3eb36354	0.3503672
30	0xbf0d245a	-0.55133593
31	0xbe741414	-0.23835784

cpu f8 [32]
0	0x3f601d7160000000	0.0019671644549816847
1	0x3f6305f300000000	0.0023221727460622787
2	0x3f644e9360000000	0.0024788740556687117
3	0x3f61fca320000000	0.002195662120357156
4	0x3f65f9d9e0000000	0.002682614838704467
5	0x3f5d9beda0000000	0.0018071957165375352
6	0x3f5a1fdea0000000	0.0015945123741403222
7	0x3f59ab9600000000	0.0015667881816625595
8	0x3f55b280e0000000	0.0013242968125268817
9	0x3f64d65420000000	0.002543606096878648
10	0x3f59b64220000000	0.0015693326713517308
11	0x3f5c87e0e0000000	0.0017413803143426776
12	0x3f68725ea0000000	0.0029842231888324022
13	0x3f60887720000000	0.002018196741119027
14	0x3f5aaf5240000000	0.0016287139151245356
15	0x3f5ffa6560000000	0.0019517889013513923
16	0x3f558ba6e0000000	0.0013150338781997561
17	0x3f63930560000000	0.0023894410114735365
18	0x3f6176e5e0000000	0.002131890272721648
19	0x3f6109e600000000	0.0020799152553081512
20	0x3f611ffbe0000000	0.0020904464181512594
21	0x3f6958ee20000000	0.0030941630247980356
22	0x3f58c88100000000	0.001512647606432438
23	0x3f534ff6a0000000	0.001178732723928988
24	0x3f597690e0000000	0.0015541472239419818
25	0x3f5df62a00000000	0.0018287096172571182
26	0x3f5c187500000000	0.0017148153856396675
27	0x3f5c3b4d40000000	0.0017231230158358812
28	0x3f656c1b40000000	0.002615025732666254
29	0x3f5b5fae00000000	0.0016707610338926315
30	0x3f58426b60000000	0.0014806793769821525
31	0x3f63464220000000	0.0023528377059847116

layer2.0.conv2.bias f4 [32]
0	0x3dfa5d1b	0.1222479
1	0xbda36f38	-0.07980198
2	0x3d6f76f0	0.058463037
3	0x3e3a8ea8	0.18218482
4	0xbea6e329	-0.32595184
5	0xbd537b3c	-0.051631197
6	0xbeffc437	-0.49954388
7	0x3f2a8840	0.6661415
8	0x3e925ce0	0.28586483
9	0xbe6bee20	-0.23040056
10	0x3e509099	0.2036766
11	0x3f1fd448	0.6243329
12	0x3e2b9c2a	0.1675879
13	0x3cc2048c	0.023683809
14	0x3f1f3208	0.62185717
15	0x3f235207	0.6379704
16	0x3f3f0d75	0.7462991
17	0x3d887468	0.06662828
18	0x3e174436	0.14772114
19	0x3e9276bd	0.28606215
20	0xbd6f1918	-0.05837354
21	0x3d1016d0	0.035178006
22	0x3f101154	0.5627644
23	0x3ed93dc6	0.42429942
24	0x3f049f6a	0.51805747
25	0x3a78bf00	0.00094889104
26	0xbd9f6f7a	-0.07784934
27	0x3ea0ddfb	0.31419358
28	0x3f184a8f	0.5948877
29	0x3eed811b	0.46387562
30	0x3e5499b0	0.20761752
31	0x3fad2b12	1.3528769

cpu f8 [32]
0	0x3f658a6de0000000	0.002629484748467803
1	0x3f448ce280000000	0.0006271463353186846
2	0x3f52515700000000	0.0011180257424712181
3	0x3f5efec8a0000000	0.001891799853183329
4	0x3f6bf190a0000000	0.0034110855776816607
5	0x3f6083d8a0000000	0.0020159941632300615
6	0x3f65551f20000000	0.0026040656957775354
7	0x3f56bf8840000000	0.0013884382788091898
8	0x3f5abefec0000000	0.0016324508469551802
9	0x3f66a483e0000000	0.0027639938052743673
10	0x3f5fb50760000000	0.0019352504750713706
11	0x3f6cf9a760000000	0.0035370129626244307
12	0x3f5e5e0fe0000000	0.001853480818681419
13	0x3f4ae5dd80000000	0.0008208591025322676
14	0x3f5a307320000000	0.0015984653728082776
15	0x3f5d2b18e0000000	0.0017802946968004107
16	0x3f6558c900000000	0.0026058126240968704
17	0x3f50548440000000	0.0009967128280550241
18	0x3f4a5e9100000000	0.0008047302253544331
19	0x3f6b1cdea0000000	0.003309664549306035
20	0x3f496994e0000000	0.00077552575385198
21	0x3f5a0c6520000000	0.0015898692654445767
22	0x3f5c5d5140000000	0.0017312329728156328
23	0x3f79f3c5a0000000	0.006335994694381952
24	0x3f6907b180000000	0.0030554262921214104
25	0x3f554e6b80000000	0.001300435047596693
26	0x3f609ecb60000000	0.0020288440864533186
27	0x3f515cdd00000000	0.0010597379878163338
28	0x3f62b84ea0000000	0.0022851501125842333
29	0x3f5f4e2360000000	0.001910719438455999
30	0x3f62fb2120000000	0.0023170134518295527
31	0x3f5464c600000000	0.0012447293847799301

layer2.0.shortcut.0.bias f4 [32]
0	0xbe873ead	-0.26415005
1	0x3e784c08	0.24247754
2	0x3e444867	0.19168244
3	0x3d8cee3a	0.068813756
4	0xbe87bdcc	-0.2651199
5	0x3f11c1de	0.5693644
6	0x3ef28a59	0.47371176
7	0x3e1bbc5c	0.15208572
8	0x3efb717a	0.49110013
9	0x3f590438	0.8477206
10	0x3de325fd	0.1109123
11	0x3f0b8b17	0.5450911
12	0xbc1b1e48	-0.009467669
13	0x3d95f4ea	0.07322104
14	0x3eed4b52	0.46346527
15	0x3f3248b3	0.6964218
16	0x3f369df6	0.7133478
17	0x3c821774	0.015880324
18	0x3d94304b	0.07235774
19	0x3f940fb0	1.1567287
20	0x3de9e3a8	0.11420375
21	0x3e9f8b2e	0.31160873
22	0x3ec6c0c3	0.3881894
23	0xbe561a0b	-0.20908372
24	0x3f0d1ce5	0.55122215
25	0xbed3c48d	-0.41360894
26	0xbe07fc83	-0.1327992
27	0x3c80f558	0.015741989
28	0x3e1a50ce	0.15069887
29	0xbe0338c2	-0.1281462
30	0x3d728a84	0.05921413
31	0xbe8bc493	-0.27298412

cpu f8 [32]
0	0x3f4142cae0000000	0.0005267611122690141
1	0x3f50d57700000000	0.001027456484735012
2	0x3f42684720000000	0.000561747292522341
3	0x3f3f8dac00000000	0.00048146676272153854
4	0x3f41df8200000000	0.0005454430356621742
5	0x3f416dcca0000000	0.0005318879266269505
6	0x3f48d8d320000000	0.0007582693942822516
7	0x3f407b4f60000000	0.0005029809544794261
8	0x3f51aaa300000000	0.001078280620276928
9	0x3f3e2dc6c0000000	0.0004604921559803188
10	0x3f5189d920000000	0.0010704632150009274
11	0x3f3f4ec000000000	0.000477716326713562
12	0x3f44692be0000000	0.0006228889687918127
13	0x3f43fb2920000000	0.0006097746663726866
14	0x3f448a8960000000	0.0006268664146773517
15	0x3f45b8c980000000	0.0006628974806517363
16	0x3f4d230320000000	0.0008891835459508002
17	0x3f424cf7a0000000	0.000558491621632129
18	0x3f42375e40000000	0.0005559168057516217
19	0x3f443d33e0000000	0.0006176474853418767
20	0x3f3aff5b60000000	0.0004119489749427885
21	0x3f46e0a760000000	0.0006981675396673381
22	0x3f48310520000000	0.0007382655167020857
23	0x3f444826a0000000	0.0006189526175148785
24	0x3f489fad00000000	0.0007514567114412785
25	0x3f4460a380000000	0.0006218717899173498
26	0x3f4cb28520000000	0.0008757734321989119
27	0x3f49c8b0a0000000	0.000786863558460027
28	0x3f4fa69b20000000	0.0009659058996476233
29	0x3f45a48260000000	0.0006604801747016609
30	0x3f4a264c40000000	0.0007980224909260869
31	0x3f477cee60000000	0.0007167972507886589

layer2.1.conv1.bias f4 [32]
0	0x3e017a49	0.12644304
1	0x3d997a8e	0.074940786
2	0xbb43db00	-0.0029885173
3	0x3e3b4ce2	0.18291047
4	0xbdd08933	-0.10182419
5	0x3f0424fc	0.51618934
6	0x3ec6874c	0.38775098
7	0x3e27acd4	0.16374522
8	0x3f17e1e1	0.5932904
9	0xbe117cdf	-0.14207791
10	0xbd5f1af8	-0.05446908
11	0x3d3f507c	0.046707615
12	0xbd55419c	-0.052064523
13	0x3d4f3a88	0.05059293
14	0xbd895fe0	-0.0670774
15	0x3dac9120	0.08426118
16	0x3dcd26d2	0.1001717
17	0x3d23bafc	0.039973244
18	0xbe043112	-0.12909344
19	0x3ca78128	0.020447329
20	0xbd53daa4	-0.051722184
21	0xbe8f1214	-0.2794348
22	0xbe0583d9	-0.13038577
23	0xbf0f57cc	-0.5599334
24	0xbe895974	-0.2682606
25	0x3ec6dd5f	0.38840768
26	0xbeff98b8	-0.49921203
27	0x3ecc2e01	0.39878848
28	0x3d9ab9c8	0.07554966
29	0xbe44ffc2	-0.19238189
30	0xbe32ec8a	-0.17473045
31	0x3e8dc4b0	0.27689123

cpu f8 [32]
0	0x3f65d09480000000	0.002662935294210911
1	0x3f5a832000000000	0.0016181766986846924
2	0x3f57e91dc0000000	0.0014593878295272589
3	0x3f551f4f00000000	0.001289202831685543
4	0x3f59fe7860000000	0.0015865493332967162
5	0x3f51d55380000000	0.0010884585790336132
6	0x3f518671c0000000	0.0010696516837924719
7	0x3f6b343440000000	0.00332079129293561
8	0x3f575eb9c0000000	0.0014263929333537817
9	0x3f5d13a580000000	0.0017747036181390285
10	0x3f63a38180000000	0.002397301606833935
11	0x3f5b399f20000000	0.0016616872744634748
12	0x3f5eab4e60000000	0.0018718972569331527
13	0x3f6f917e20000000	0.0038535560015589
14	0x3f6084a9a0000000	0.002016383456066251
15	0x3f60c7c060000000	0.002048373920843005
16	0x3f58c6c960000000	0.0015122381737455726
17	0x3f645b59a0000000	0.002484965370967984
18	0x3f61b879a0000000	0.00216315989382565
19	0x3f4166c6a0000000	0.0005310506676323712
20	0x3f64effd00000000	0.0025558415800333023
21	0x3f5f0f8d60000000	0.0018957977881655097
22	0x3f64186160000000	0.0024530317168682814
23	0x3f5616a880000000	0.001348175574094057
24	0x3f501fc560000000	0.0009841372957453132
25	0x3f61fc3f80000000	0.0021954765543341637
26	0x3f63317fa0000000	0.0023429386783391237
27	0x3f57631760000000	0.0014274338027462363
28	0x3f55611720000000	0.0013048864202573895
29	0x3f679aca60000000	0.002881427062675357
30	0x3f5c087fe0000000	0.0017110108165070415
31	0x3f5f611d60000000	0.001915243803523481

layer2.1.conv2.bias f4 [32]
0	0x3d44eb0a	0.048075713
1	0x3d7b2ecd	0.06132393
2	0x3daec904	0.085344344
3	0x3d8426a9	0.06452686
4	0x3dc9bc24	0.09850338
5	0x3d693d86	0.05694344
6	0xbcc2a3ac	-0.023759685
7	0xbe4fd15c	-0.20294708
8	0x3e5eaaa4	0.21744782
9	0x3e820f87	0.2540247
10	0xbdc5d2a4	-0.09659317
11	0xbc212f19	-0.009837889
12	0xbdd31299	-0.103062816
13	0xbd985fff	-0.07440185
14	0x3f0524d3	0.52009314
15	0xbd751614	-0.05983551
16	0x3df813f8	0.12113184
17	0x3e8006fb	0.25005326
18	0x3e5dd3fc	0.21662897
19	0x3d907648	0.0705381
20	0x3d8ff946	0.07029967
21	0x3d7358c7	0.059410837
22	0x3eb77218	0.35829234
23	0x3e069d02	0.13145831
24	0x3d8e380a	0.06944282
25	0x3d76bba8	0.060237557
26	0xbe6d1762	-0.23153451
27	0x3dc8a2f6	0.09796707
28	0xbe174cc1	-0.14775373
29	0xbe238861	-0.15969993
30	0x3e95f6fd	0.2929
31	0x3ecc9778	0.3995931

cpu f8 [32]
0	0x3f3a3abd60000000	0.0004002296773251146
1	0x3f4164f9e0000000	0.0005308361141942441
2	0x3f42931f80000000	0.000566854840144515
3	0x3f44541900000000	0.0006203767843544483
4	0x3f3f3c81a0000000	0.00047662892029620707
5	0x3f428f3600000000	0.0005663884803652763
6	0x3f52134c60000000	0.001103233895264566
7	0x3f43c3b6e0000000	0.0006031649536453187
8	0x3f50e9f5e0000000	0.0010323430178686976
9	0x3f42a24060000000	0.000568658288102597
10	0x3f415da3a0000000	0.0005299614858813584
11	0x3f4253dbe0000000	0.0005593131645582616
12	0x3f46a595a0000000	0.0006911259260959923
13	0x3f44c497e0000000	0.000633787305559963
14	0x3f4289c640000000	0.0005657403962686658
15	0x3f47c69080000000	0.0007255750242620707
16	0x3f42b88280000000	0.0005713116843253374
17	0x3f4329c5c0000000	0.0005848136497661471
18	0x3f40432900000000	0.000496287364512682
19	0x3f3400e820000000	0.00030522982706315815
20	0x3f436e4a40000000	0.0005929815815761685
21	0x3f3f0004c0000000	0.00047302356688305736
22	0x3f44f89220000000	0.0006399835110642016
23	0x3f39beb8e0000000	0.00039283765363506973
24	0x3f3cb7d600000000	0.0004382035695016384
25	0x3f37ca99a0000000	0.00036302805528976023
26	0x3f41df1be0000000	0.0005453954800032079
27	0x3f49f66c00000000	0.0007923152297735214
28	0x3f43f2a800000000	0.0006087608635425568
29	0x3f3ae32260000000	0.0004102667735423893
30	0x3f49153200000000	0.0007654661312699318
31	0x3f49c80ea0000000	0.0007867881213314831

layer2.2.conv1.bias f4 [32]
0	0x3eb1e03a	0.34741384
1	0x3bccf2c0	0.006254524
2	0xbdbacec6	-0.0912147
3	0x3df14fc8	0.11782795
4	0xbc7808e0	-0.015138835
5	0x3ded0920	0.11574006
6	0x3d033878	0.032036275
7	0x3d56f5f8	0.052480668
8	0x3e6faf73	0.23406772
9	0x3e664680	0.22487831
10	0xbe3488fd	-0.17630382
11	0xbdea6826	-0.11445646
12	0xbcaad040	-0.020851254
13	0x3e2270e6	0.1586338
14	0x3e0392dd	0.12848993
15	0x3d6647c0	0.05622077
16	0xbd341ed8	-0.043974727
17	0xbdc92220	-0.09820962
18	0x3d709190	0.05873257
19	0xbebad848	-0.36493134
20	0x3e0f688c	0.14004725
21	0x3e5ea8fc	0.2174415
22	0xbcc34280	-0.02383542
23	0xbc216fd0	-0.009853318
24	0x3dbc95b6	0.092082426
25	0x3dc51e20	0.096248865
26	0x3ef939a0	0.48676777
27	0x3ebda8f3	0.3704296
28	0x3e3bdc25	0.18345697
29	0x3ec9030e	0.39260143
30	0x3ccf8c58	0.025335476
31	0x3e28027b	0.16407196

cpu f8 [32]
0	0x3f68d43c40000000	0.0030308892019093037
1	0x3f61c82100000000	0.0021706242114305496
2	0x3f68f2a420000000	0.0030453877989202738
3	0x3f671142e0000000	0.002815847983583808
4	0x3f57e52200000000	0.0014584381133317947
5	0x3f64595cc0000000	0.0024840175174176693
6	0x3f5a205ba0000000	0.0015946287894621491
7	0x3f64f881c0000000	0.0025599035434424877
8	0x3f57ddaa40000000	0.0014566576573997736
9	0x3f5af771e0000000	0.0016459095058962703
10	0x3f6acfbbe0000000	0.0032728833612054586
11	0x3f58ce0760000000	0.0015139648457989097
12	0x3f6a4fad80000000	0.0032118214294314384
13	0x3f68aeb4e0000000	0.003012994071468711
14	0x3f61c15300000000	0.0021673794835805893
15	0x3f65b41de0000000	0.0026493628975003958
16	0x3f5691e920000000	0.0013775612460449338
17	0x3f6317b840000000	0.0023306463845074177
18	0x3f6bda4ec0000000	0.003399995621293783
19	0x3f54bc6700000000	0.0012656217440962791
20	0x3f69515b40000000	0.0030905515886843204
21	0x3f622197a0000000	0.0022132836747914553
22	0x3f63733700000000	0.002374274656176567
23	0x3f5b0e62a0000000	0.0016513789305463433
24	0x3f61d82260000000	0.00217825616709888
25	0x3f65235220000000	0.00258031883276999
26	0x3f5b35ff60000000	0.0016608232399448752
27	0x3f60612320000000	0.00199944362975657
28	0x3f61fec540000000	0.0021966793574392796
29	0x3f6f595d00000000	0.0038267914205789566
30	0x3f610a2d20000000	0.0020800477359443903
31	0x3f652b3400000000	0.0025840774178504944

layer2.2.conv2.bias f4 [32]
0	0xbe7aa771	-0.24477936
1	0xbd936be0	-0.0719831
2	0x3db1de67	0.08684998
3	0xbe45edc8	-0.19328988
4	0xbcd683ba	-0.026185859
5	0xbdc17741	-0.09446574
6	0xbeaf6c09	-0.34262112
7	0x3c66d8e4	0.014089797
8	0x3cee5da9	0.029097395
9	0x3c22df23	0.009940895
10	0xbdcbfa34	-0.09959832
11	0x3e22ef40	0.15911579
12	0x3bbb75c8	0.0057208277
13	0xbe30df40	-0.17272663
14	0x3d08b9a0	0.03338015
15	0x3eb6087d	0.3555335
16	0x3e19447f	0.14967535
17	0xbdf924ca	-0.1216522
18	0xbdfb5dd3	-0.12273755
19	0x3e2c9cce	0.16856691
20	0x3c23cc86	0.009997493
21	0xbe928e1c	-0.28624046
22	0x3d4d72f8	0.05015847
23	0x3cff69e0	0.031178415
24	0x3d77308a	0.060349025
25	0xbd1f541c	-0.038898572
26	0xbcdc92a8	-0.0269254
27	0xbdf4da0f	-0.11955654
28	0x3d898954	0.067156464
29	0xbe4fcab2	-0.20292166
30	0x3eb5df0e	0.3552174
31	0x3e0fc4b6	0.14039883

cpu f8 [32]
0	0x3f4740a1e0000000	0.0007096090703271329
1	0x3f3f787b20000000	0.00048020368558354676
2	0x3f384291e0000000	0.0003701788082253188
3	0x3f3ca26640000000	0.0004369258531369269
4	0x3f40598d80000000	0.0004989567678421736
5	0x3f3d674940000000	0.0004486612160690129
6	0x3f3f9adb20000000	0.0004822525952477008
7	0x3f4019da40000000	0.0004913631128147244
8	0x3f40274340000000	0.0004929617280140519
9	0x3f4e06c6a0000000	0.0009163350914604962
10	0x3f3dbcf7a0000000	0.0004537682107184082
11	0x3f3ef489e0000000	0.0004723393067251891
12	0x3f456d6200000000	0.0006539085879921913
13	0x3f4f6cd5a0000000	0.0009590190020389855
14	0x3f3fd59bc0000000	0.0004857545136474073
15	0x3f446add40000000	0.0006230907747521996
16	0x3f46c461c0000000	0.0006947972578927875
17	0x3f40426ba0000000	0.0004961991799063981
18	0x3f42a39ca0000000	0.0005688204546459019
19	0x3f44ededa0000000	0.0006387148168869317
20	0x3f3f106e20000000	0.00047400177572853863
21	0x3f43be2da0000000	0.0006025049951858819
22	0x3f32fc2e60000000	0.0002896893711294979
23	0x3f349d4620000000	0.00031455003772862256
24	0x3f43d16d00000000	0.0006047994829714298
25	0x3f5108fb60000000	0.0010397391160950065
26	0x3f41ba5180000000	0.0005410097073763609
27	0x3f35999360000000	0.00032958839437924325
28	0x3f41140240000000	0.0005211840616539121
29	0x3f4000bfc0000000	0.0004883705405518413
30	0x3f31816600000000	0.0002671121619641781
31	0x3f323e4f60000000	0.00027837217203341424

layer2.3.conv1.bias f4 [32]
0	0x3c2fc480	0.010728002
1	0xbdfcf22a	-0.12350877
2	0xbea63b20	-0.32466984
3	0xbdb365a0	-0.08759618
4	0xbf7b4305	-0.9814914
5	0xbe887f1a	-0.2665947
6	0x3e16fefe	0.1474571
7	0x3e33b51f	0.17549561
8	0x3e61ab37	0.2203797
9	0x3de4d5d2	0.111735955
10	0x3e6ec39e	0.2331681
11	0x3e94cb0e	0.29061168
12	0x3e8ba9dc	0.2727803
13	0x3c9ea390	0.019365102
14	0xbe471977	-0.19443308
15	0x3e079274	0.13239461
16	0xbea14b86	-0.31502932
17	0xbe958b6a	-0.29207927
18	0xbe8ea806	-0.27862567
19	0x3eff1ccc	0.49826658
20	0x3b9c1e80	0.004764378
21	0xbd54e44c	-0.051975533
22	0x3e8be7f9	0.2732542
23	0xbda68478	-0.08130735
24	0xbddb18e6	-0.106981084
25	0x3e6ee2cf	0.23328708
26	0xbde138e7	-0.109971814
27	0x3dcea498	0.100899875
28	0xbde03bf0	-0.10948932
29	0x3e86d341	0.2633305
30	0xbd11685e	-0.035499923
31	0xbe1afb5e	-0.15134951

cpu f8 [32]
0	0x3f638a48c0000000	0.002385274972766638
1	0x3f6d538040000000	0.0035798554308712482
2	0x3f5c1eb120000000	0.0017163018928840756
3	0x3f6a0a5880000000	0.003178761340677738
4	0x3f5e1f9200000000	0.0018385816365480423
5	0x3f625bb620000000	0.002240997040644288
6	0x3f4cdbf5a0000000	0.0008807133999653161
7	0x3f672ff580000000	0.002830485813319683
8	0x3f51ce2260000000	0.0010867438977584243
9	0x3f5e51eb40000000	0.0018505856860429049
10	0x3f6b74e660000000	0.0033516406547278166
11	0x3f5f79cfa0000000	0.0019211318576708436
12	0x3f62761260000000	0.002253566635772586
13	0x3f62e66200000000	0.0023071207106113434
14	0x3f54c40de0000000	0.001267446088604629
15	0x3f65fe7700000000	0.0026848148554563522
16	0x3f60f3bf20000000	0.002069352427497506
17	0x3f5a892ca0000000	0.0016196189681068063
18	0x3f64b3af40000000	0.002527086529880762
19	0x3f4b774e80000000	0.0008381970692425966
20	0x3f64bc08a0000000	0.0025310677010565996
21	0x3f733115e0000000	0.004685483407229185
22	0x3f5770ca00000000	0.0014306996017694473
23	0x3f48a37d80000000	0.0007519114296883345
24	0x3f72cfed00000000	0.004592824727296829
25	0x3f6c4557e0000000	0.0034510341938585043
26	0x3f5f615040000000	0.0019152911845594645
27	0x3f6269ea60000000	0.002247770084068179
28	0x3f5b64eb40000000	0.0016720101702958345
29	0x3f688033c0000000	0.0029908190481364727
30	0x3f5f3a4940000000	0.0019059863407164812
31	0x3f674bdae0000000	0.0028437876608222723

layer2.3.conv2.bias f4 [32]
0	0xbe514abd	-0.20438667
1	0xbde69fe5	-0.11260966
2	0x3d6206a2	0.055182107
3	0x3dfb7bc6	0.12279467
4	0xbe0268fc	-0.12735361
5	0xbd4eb30b	-0.050463717
6	0x3d57acde	0.052655093
7	0x3c9d45ac	0.019198261
8	0xbc0e6fb8	-0.008693628
9	0x3e12d865	0.1434036
10	0x3e5ee170	0.21765685
11	0xbe108cee	-0.1411626
12	0x3df337fe	0.11875914
13	0xbd8e1698	-0.06937903
14	0xbcad3084	-0.021141298
15	0xbca471af	-0.02007374
16	0x3c458bb0	0.01205723
17	0xbe1d88b3	-0.15384178
18	0x3dfeefe4	0.12448099
19	0xbbb55198	-0.0055334084
20	0xbe20fa34	-0.15720445
21	0xbd52e2e6	-0.05148592
22	0x3a51a700	0.0007997602
23	0xbdcdd020	-0.10049462
24	0xbc5fea50	-0.013666704
25	0xbd3cf1b4	-0.046128944
26	0x3d7393dc	0.05946718
27	0xbe3c38c6	-0.18381032
28	0xbd77c2ce	-0.060488515
29	0x3e70a93c	0.23502058
30	0x3d813a76	0.06309979
31	0xbcdacda8	-0.026709393

cpu f8 [32]
0	0x3f3d3287e0000000	0.000445516750914976
1	0x3f3be05340000000	0.0004253581282682717
2	0x3f37680160000000	0.00035715135163627565
3	0x3f40215cc0000000	0.0004922583466395736
4	0x3f421af040000000	0.000552527722902596
5	0x3f437d8f00000000	0.0005948017351329327
6	0x3f37588f00000000	0.0003562306519597769
7	0x3f36cb0e20000000	0.0003477963909972459
8	0x3f3ae1f300000000	0.0004101961385458708
9	0x3f4f66a7e0000000	0.0009582824422977865
10	0x3f36e6c420000000	0.00034944809158332646
11	0x3f386b6ca0000000	0.0003726139257196337
12	0x3f39191ae0000000	0.00038296610000543296
13	0x3f42e24840000000	0.0005762913497164845
14	0x3f40ff1080000000	0.0005186873022466898
15	0x3f39e59d40000000	0.000395155802834779
16	0x3f2de8cf80000000	0.0002281907363794744
17	0x3f3be78060000000	0.0004257858672644943
18	0x3f45a50e20000000	0.0006605452508665621
19	0x3f377ce7a0000000	0.00035839705378748477
20	0x3f44ff6640000000	0.0006407975452020764
21	0x3f3bbb7920000000	0.0004231615748722106
22	0x3f49052d20000000	0.0007635565125383437
23	0x3f3e151240000000	0.0004590196185745299
24	0x3f43015a00000000	0.0005799951031804085
25	0x3f32d7f4e0000000	0.0002875302161555737
26	0x3f3d7f0e20000000	0.0004500779614318162
27	0x3f35375440000000	0.0003237324417568743
28	0x3f46153740000000	0.0006739158416166902
29	0x3f4242fea0000000	0.0005573027883656323
30	0x3f41961ca0000000	0.0005366935511119664
31	0x3f3b307a40000000	0.00041487679118290544

layer2.4.conv1.bias f4 [32]
0	0xbf20bb44	-0.62785745
1	0xba08ee00	-0.0005223453
2	0x3e9fce6e	0.3121218
3	0xbe706f84	-0.2348004
4	0xbe08189e	-0.1329064
5	0xbeacc168	-0.33741307
6	0x387ee000	6.0766935e-05
7	0xbf388eba	-0.72092783
8	0x3ed6ec68	0.4197724
9	0xbe796d3f	-0.2435808
10	0x3d908d2e	0.07058178
11	0x3e47477a	0.1946086
12	0xbeb9a6e8	-0.36260152
13	0x3eb3e255	0.35133615
14	0x3d8c03b6	0.06836645
15	0x3a7a8100	0.00095559657
16	0xbe9f3bb6	-0.31100243
17	0xbe90f44c	-0.28311384
18	0xbe9f5068	-0.31116033
19	0x3f0b6864	0.5445616
20	0xbe2ab496	-0.1667045
21	0xbe355bd4	-0.17710811
22	0xbe4193d2	-0.18904045
23	0xbe11b013	-0.14227323
24	0xbd843210	-0.06454861
25	0xbeb29721	-0.34880927
26	0xbd409d20	-0.047024846
27	0xbd996eba	-0.074918225
28	0x3dfcca18	0.12343234
29	0xbf1535df	-0.58285326
30	0x3dde3624	0.1085017
31	0x3c55bc20	0.013045341

cpu f8 [32]
0	0x3f67f6bdc0000000	0.0029252725653350353
1	0x3f667bc8a0000000	0.002744571538642049
2	0x3f68715ee0000000	0.0029837468173354864
3	0x3f615ea180000000	0.0021203188225626945
4	0x3f6107e460000000	0.0020789585541933775
5	0x3f62b32900000000	0.002282695844769478
6	0x3f5305f9e0000000	0.0011610927758738399
7	0x3f66bbb520000000	0.002775052795186639
8	0x3f41a8fb60000000	0.0005389430443756282
9	0x3f61563720000000	0.00211630598641932
10	0x3f645180a0000000	0.002480269642546773
11	0x3f644a96e0000000	0.0024769732262939215
12	0x3f67f25fa0000000	0.0029231898952275515
13	0x3f791a3a00000000	0.006128527224063873
14	0x3f61411c00000000	0.0021062418818473816
15	0x3f6c08d0e0000000	0.0034221725072711706
16	0x3f5770eaa0000000	0.0014307299861684442
17	0x3f607f7760000000	0.0020139056723564863
18	0x3f55f54f00000000	0.0013402244076132774
19	0x3f3f28d180000000	0.0004754554247483611
20	0x3f711f6840000000	0.004180342890322208
21	0x3f6bc305e0000000	0.003388892626389861
22	0x3f6af18860000000	0.0032889998983591795
23	0x3f540a1be0000000	0.001223113271407783
24	0x3f626e4200000000	0.002249840646982193
25	0x3f6a98e080000000	0.0032467255368828773
26	0x3f652cde20000000	0.0025848711375147104
27	0x3f652be6c0000000	0.0025844103656709194
28	0x3f526cb480000000	0.0011245501227676868
29	0x3f6bf775e0000000	0.0034138967748731375
30	0x3f5a0ebdc0000000	0.0015904286410659552
31	0x3f5c09da00000000	0.0017113331705331802

layer2.4.conv2.bias f4 [32]
0	0xbe8c6432	-0.27420193
1	0xbdad6583	-0.084666274
2	0x3dbb4386	0.091437384
3	0xbddd663b	-0.108105145
4	0xbd265060	-0.040603995
5	0x3bba9100	0.005693555
6	0xbd374d6a	-0.044751562
7	0xbda880d0	-0.08227694
8	0xbd0e64e6	-0.034764193
9	0xbd7a53c2	-0.061115034
10	0x3dd689a9	0.10475475
11	0x3dfe2cac	0.12410864
12	0x3e07b909	0.13254179
13	0xbe568d86	-0.20952424
14	0xbd5543fe	-0.052066796
15	0x3e10e27b	0.14148895
16	0xbe05cb2c	-0.13065785
17	0x3e47cbd9	0.19511355
18	0x3d217227	0.039415505
19	0x3c308a36	0.01077514
20	0xbe7975a4	-0.24361283
21	0xbd5ed570	-0.05440277
22	0x3d6aeafc	0.057353005
23	0x3d40ce4c	0.04707174
24	0xbda799c7	-0.081836276
25	0xbcdf51fe	-0.027260777
26	0xbe0dfc77	-0.13865839
27	0xbd3021b7	-0.043000903
28	0xbdb9d813	-0.09074416
29	0x3e7d2178	0.24719799
30	0xbc6d2dd4	-0.014476258
31	0x3b02f660	0.0019983277

cpu f8 [64]
0	0x3f45498320000000	0.0006496324785985053
1	0x3f42243240000000	0.0005536313401535153
2	0x3f42dfc4e0000000	0.0005759917548857629
3	0x3f3b1a0680000000	0.0004135385388508439
4	0x3f4283dc20000000	0.000565035326872021
5	0x3f40abffa0000000	0.0005087850731797516
6	0x3f43819ee0000000	0.0005952859646640718
7	0x3f3a40bc60000000	0.0004005870723631233
8	0x3f40b4dd60000000	0.0005098420078866184
9	0x3f4de49aa0000000	0.0009122614865191281
10	0x3f44c92680000000	0.0006343305576592684
11	0x3f40c81f40000000	0.0005121376598253846
12	0x3f43c04f80000000	0.000602759188041091
13	0x3f437462a0000000	0.0005937081878073514
14	0x3f4092ebe0000000	0.0005057956441305578
15	0x3f3fc2fe60000000	0.00048464498831890523
16	0x3f46148480000000	0.0006738326046615839
17	0x3f39979720000000	0.0003905052144546062
18	0x3f4a1847c0000000	0.0007963514653965831
19	0x3f4589d860000000	0.0006573015707544982
20	0x3f45b10320000000	0.0006619706400670111
21	0x3f42a27a20000000	0.000568685180041939
22	0x3f40d43260000000	0.0005135770770721138
23	0x3f469e9e80000000	0.0006902955938130617
24	0x3f42033160000000	0.0005496970261447132
25	0x3f432e5cc0000000	0.0005853608017787337
26	0x3f3bf8c420000000	0.0004268149205017835
27	0x3f43621a00000000	0.0005915286019444466
28	0x3f49d9b080000000	0.0007888900581747293
29	0x3f3ca1da00000000	0.00043689319863915443
30	0x3f44a14b40000000	0.0006295792991295457
31	0x3f42e79020000000	0.0005769208655692637
32	0x3f40c9c300000000	0.000512333121150732
33	0x3f39fc7720000000	0.0003965178329963237
34	0x3f40180ec0000000	0.0004911491414532065
35	0x3f40cb46c0000000	0.0005125136813148856
36	0x3f3c273f00000000	0.00042958534322679043
37	0x3f4329fd20000000	0.0005848394357599318
38	0x3f436b7cc0000000	0.0005926474696025252
39	0x3f3f6eaf40000000	0.0004796197754330933
40	0x3f404dee40000000	0.0004975713090971112
41	0x3f4640ba80000000	0.0006791029591113329
42	0x3f454485a0000000	0.0006490375963039696
43	0x3f47e8eca0000000	0.0007296710391528904
44	0x3f415e5f60000000	0.0005300489137880504
45	0x3f43cf4480000000	0.0006045422051101923
46	0x3f35378880000000	0.00032374460715800524
47	0x3f40bffda0000000	0.0005111683276481926
48	0x3f45c81080000000	0.0006647186819463968
49	0x3f416e12a0000000	0.000531920522917062
50	0x3f428e6cc0000000	0.0005662947660312057
51	0x3f366eefc0000000	0.000342305691447109
52	0x3f40e5eaa0000000	0.0005156894330866635
53	0x3f4a459d20000000	0.0008017556392587721
54	0x3f3df1df00000000	0.00045692152343690395
55	0x3f42475b80000000	0.0005578228738158941
56	0x3f4375e2a0000000	0.0005938870017416775
57	0x3f36a4f7c0000000	0.0003455262049101293
58	0x3f461c9440000000	0.0006747936131432652
59	0x3f3d646aa0000000	0.00044849017285741866
60	0x3f46ebd660000000	0.0006995007279329002
61	0x3f3c0c7d00000000	0.0004279904533177614
62	0x3f3f500040000000	0.00047779089072719216
63	0x3f42542940000000	0.0005593491951003671

layer3.0.conv1.bias f4 [64]
0	0xbd5393e0	-0.051654696
1	0xbf4f0812	-0.8087169
2	0xbe5f2444	-0.21791178
3	0x3e82b48e	0.25528377
4	0xbe68cb49	-0.22733797
5	0xbe1de514	-0.15419418
6	0x3f055900	0.5208893
7	0x3efd0eee	0.49425453
8	0x3d3e8e16	0.046522222
9	0x3e2ad94f	0.16684459
10	0x3e10d058	0.14141977
11	0x3effdce8	0.49973226
12	0x3d2484d8	0.040165752
13	0xbdf3392d	-0.1187614
14	0x3e30505f	0.17218159
15	0x3df27826	0.11839323
16	0xbe4a427e	-0.19751927
17	0xbd082d2e	-0.03324621
18	0xbc87da10	-0.016583472
19	0xbdd336d1	-0.1031319
20	0xbca76000	-0.020431519
21	0xbea5cbcf	-0.32382056
22	0x3dc02d33	0.09383621
23	0xbea93b7e	-0.330532
24	0x3ec030da	0.3753727
25	0x3e10a4b6	0.14125332
26	0x3e2d52de	0.16926143
27	0xbe3f650c	-0.1869089
28	0xbda0a9bf	-0.078448765
29	0x3e237dc4	0.15965945
30	0x3e611c2c	0.21983403
31	0xbb539700	-0.0032286048
32	0xbf59c34e	-0.85063636
33	0x3e31165c	0.17293686
34	0xbebe26c3	-0.37138948
35	0x3e9bd6de	0.30437368
36	0x3e1c65e6	0.15273246
37	0x3ef728c3	0.48273286
38	0xbe13ec1f	-0.14445542
39	0xbeef3f84	-0.46728146
40	0x3ee21568	0.44156957
41	0xbe27bca9	-0.16380562
42	0x3ee80497	0.45316002
43	0xbd4797fa	-0.04872892
44	0x3ef6d267	0.482074
45	0xbe839d01	-0.25705722
46	0x3ec1ab71	0.37826112
47	0xbe1f2e5e	-0.15545031
48	0x3e1fddc8	0.15611947
49	0x3e2e03b0	0.16993594
50	0xbec193be	-0.3780803
51	0x3e1e2eb2	0.154475
52	0x3f1cedd1	0.6130038
53	0xbe39ccf5	-0.18144591
54	0xbeb35eb0	-0.35033178
55	0xbf58363e	-0.84457767
56	0x3da34c66	0.07973556
57	0x3e61677c	0.22012132
58	0xbca48704	-0.020083912
59	0x3eb56f7c	0.35436618
60	0x3ec263a9	0.3796666
61	0x3e195536	0.14973912
62	0x3d5811de	0.052751414
63	0xbe9cfa1c	-0.30659568

cpu f8 [64]
0	0x3f5a490740000000	0.00160432537086308
1	0x3f6221ce40000000	0.002213385421782732
2	0x3f620ebb60000000	0.002204290358349681
3	0x3f57196220000000	0.0014098604442551732
4	0x3f624284a0000000	0.002228983910754323
5	0x3f63e566c0000000	0.002428723033517599
6	0x3f598ce280000000	0.0015594684518873692
7	0x3f5d758200000000	0.0017980355769395828
8	0x3f61f92fc0000000	0.002194016706198454
9	0x3f5e269fa0000000	0.0018402632558718324
10	0x3f65263d20000000	0.0025817102286964655
11	0x3f67634280000000	0.0028549479320645332
12	0x3f655a5480000000	0.0026065493002533913
13	0x3f653c1420000000	0.0025921242777258158
14	0x3f5bbb2f60000000	0.0016925776144489646
15	0x3f63384620000000	0.002346169436350465
16	0x3f644f2ba0000000	0.002479157643392682
17	0x3f601a1800000000	0.001965567469596863
18	0x3f61d8adc0000000	0.002178515773266554
19	0x3f62e70c00000000	0.0023074373602867126
20	0x3f6004e000000000	0.0019554495811462402
21	0x3f63d288e0000000	0.0024197266902774572
22	0x3f5ad38480000000	0.0016373437829315662
23	0x3f63d297c0000000	0.002419754397124052
24	0x3f620562e0000000	0.002199833979830146
25	0x3f62ca0b00000000	0.002293607220053673
26	0x3f632e1a20000000	0.0023413191083818674
27	0x3f56c915e0000000	0.0013907159445807338
28	0x3f644f7460000000	0.0024792931508272886
29	0x3f6307ce60000000	0.0023230582010000944
30	0x3f5bfe3040000000	0.001708552474156022
31	0x3f6446ff80000000	0.0024752607569098473
32	0x3f5b290b40000000	0.0016577348578721285
33	0x3f6291de80000000	0.002266821451485157
34	0x3f6648fae0000000	0.0027203464414924383
35	0x3f53215740000000	0.0011676170397549868
36	0x3f627ac9a0000000	0.002255815314128995
37	0x3f5ae17200000000	0.0016406644135713577
38	0x3f5d1cdee0000000	0.0017769028199836612
39	0x3f59d7a860000000	0.0015772957121953368
40	0x3f6023e540000000	0.0019702413119375706
41	0x3f63aa8d60000000	0.0024006615858525038
42	0x3f60d07700000000	0.0020525287836790085
43	0x3f604928a0000000	0.0019880097825080156
44	0x3f6072e2c0000000	0.0020079067908227444
45	0x3f64bd3340000000	0.0025316239334642887
46	0x3f5a87a260000000	0.0016192517941817641
47	0x3f5acf7a80000000	0.0016363807953894138
48	0x3f56d5b900000000	0.0013937288895249367
49	0x3f5b5eb3a0000000	0.0016705278540030122
50	0x3f63feb640000000	0.002440792042762041
51	0x3f60abea20000000	0.002035100245848298
52	0x3f65671fe0000000	0.0026126501616090536
53	0x3f5d893f60000000	0.0018027418991550803
54	0x3f59e66ee0000000	0.0015808184398338199
55	0x3f5bbdd220000000	0.0016932060243561864
56	0x3f686059c0000000	0.0029756310395896435
57	0x3f625a6a00000000	0.0022403784096240997
58	0x3f58750920000000	0.0014927472220733762
59	0x3f60fe2600000000	0.0020743124186992645
60	0x3f63ab5320000000	0.002401029923930764
61	0x3f61a0d8c0000000	0.002151892986148596
62	0x3f5ad8cdc0000000	0.0016386040952056646
63	0x3f5b2e7560000000	0.0016590257873758674

layer3.0.conv2.bias f4 [64]
0	0x3e393f68	0.18090594
1	0xbd399ce1	-0.045315627
2	0xbea3ce68	-0.31993413
3	0x3e29165c	0.16512436
4	0x3eca0899	0.39459684
5	0xbdcebda8	-0.10094768
6	0x3e73934a	0.23786655
7	0x3cc19648	0.02363123
8	0xbe165828	-0.14682066
9	0x3e984d74	0.29746592
10	0x3ec0b2c6	0.37636393
11	0xbec114e0	-0.3771124
12	0x3f0c7a7a	0.54874384
13	0x3e9484d8	0.29007602
14	0x3dffc0c2	0.124879375
15	0x3db51b80	0.08843136
16	0x3d70d713	0.05879886
17	0xbcfb458c	-0.030672811
18	0x3e04df6b	0.12975852
19	0x3ecc11d9	0.39857367
20	0x3e897974	0.26850474
21	0xbd8d6683	-0.06904318
22	0x3e636aa8	0.22208655
23	0x3e957a38	0.29194808
24	0x3da5cbc0	0.08095503
25	0xbecb918c	-0.3975948
26	0x3e6a968f	0.22908996
27	0x3daeae74	0.08529368
28	0x3e46aae4	0.19401127
29	0xbd442e28	-0.04789558
30	0x3e5ecba9	0.21757378
31	0x3e6641c0	0.22486019
32	0xbdd98430	-0.10620916
33	0xbd6d76be	-0.05797457
34	0xbee53a91	-0.44771245
35	0x3ebc2023	0.36743268
36	0xbd7d8e96	-0.06190356
37	0x3e812531	0.25223687
38	0xbdcffaf7	-0.101552896
39	0x3e7d58b2	0.24740866
40	0xbb83ad90	-0.004018493
41	0xbe078696	-0.13234934
42	0xbdd05b03	-0.10173609
43	0x3ec36728	0.3816464
44	0xbe18411b	-0.14868586
45	0x3e1fdf34	0.15612489
46	0x3e1abd90	0.15111375
47	0x3ea4941f	0.32144257
48	0x3eae1335	0.3399903
49	0x3dfaf5cb	0.122539125
50	0xbe0f253c	-0.13979048
51	0x3e3727e2	0.17886308
52	0x3e53489e	0.2063317
53	0x3e0c84ae	0.13722488
54	0x3e8f3f5c	0.27978027
55	0x3c3b23c8	0.011422105
56	0xbdc5b630	-0.0965389
57	0x3e767ee3	0.24071841
58	0x3e1b4639	0.15163507
59	0x3ecb6feb	0.39733824
60	0x3ee40802	0.4453736
61	0xbe30b9c5	-0.17258365
62	0x3e190e33	0.14946823
63	0xbe066948	-0.13126099

cpu f8 [64]
0	0x3f41813aa0000000	0.0005342041258700192
1	0x3f4a0a9980000000	0.0007947206031531096
2	0x3f53014e00000000	0.0011599790304899216
3	0x3f50c2f240000000	0.0010230413172394037
4	0x3f4b3d4140000000	0.0008312767604365945
5	0x3f429d9240000000	0.0005681003676727414
6	0x3f65fd7500000000	0.0026843342930078506
7	0x3f5274ab60000000	0.001126448973082006
8	0x3f4af98d60000000	0.0008232059772126377
9	0x3f587a5a40000000	0.0014940148685127497
10	0x3f36895e60000000	0.00034388116910122335
11	0x3f574c6600000000	0.0014220234006643295
12	0x3f4c4459c0000000	0.000862640212289989
13	0x3f51864d20000000	0.0010696175741031766
14	0x3f434a8ba0000000	0.0005887204897589982
15	0x3f59a12a40000000	0.001564303645864129
16	0x3f48932620000000	0.0007499633939005435
17	0x3f460c04c0000000	0.0006728194421157241
18	0x3f60051a00000000	0.0019555576145648956
19	0x3f5aaade40000000	0.001627652207389474
20	0x3f5bf3df40000000	0.0017060928512364626
21	0x3f4c774840000000	0.000868711736984551
22	0x3f55f261a0000000	0.001339526497758925
23	0x3f60f134e0000000	0.0020681412424892187
24	0x3f58162260000000	0.0014701209729537368
25	0x3f4eb744e0000000	0.0009373747161589563
26	0x3f51f07900000000	0.0010949308052659035
27	0x3f5126a260000000	0.0010468087857589126
28	0x3f4dc7f8e0000000	0.0009088483056984842
29	0x3f5690c3a0000000	0.0013772879028692842
30	0x3f50460640000000	0.0009932576213032007
31	0x3f51d58200000000	0.0010885018855333328
32	0x3f4c37e2a0000000	0.0008611542289145291
33	0x3f5b378420000000	0.001661185291595757
34	0x3f4025c080000000	0.0004927816335111856
35	0x3f68549d20000000	0.0029700344894081354
36	0x3f4efd4a00000000	0.0009457217529416084
37	0x3f550ea080000000	0.0012852256186306477
38	0x3f4d6d39c0000000	0.0008980304701253772
39	0x3f42bacfa0000000	0.0005715860170312226
40	0x3f5bcd4800000000	0.0016968920826911926
41	0x3f549749e0000000	0.0012567731318995357
42	0x3f59298d00000000	0.0015357853844761848
43	0x3f546e25e0000000	0.0012469644425436854
44	0x3f53ea5fa0000000	0.0012155469739809632
45	0x3f5ec1fc60000000	0.0018773045158013701
46	0x3f655fc9c0000000	0.0026091518811881542
47	0x3f50b2cc80000000	0.001019191462546587
48	0x3f57ef1e00000000	0.001460818573832512
49	0x3f4115ef80000000	0.0005214137490838766
50	0x3f5fbf3080000000	0.0019376729615032673
51	0x3f634c0960000000	0.0023555930238217115
52	0x3f4d777ea0000000	0.0008992546354420483
53	0x3f44191100000000	0.0006133397109806538
54	0x3f453ffc80000000	0.0006484969053417444
55	0x3f52e7e940000000	0.00115392473526299
56	0x3f5604f3a0000000	0.001343954005278647
57	0x3f560f2f00000000	0.0013463934883475304
58	0x3f601bf160000000	0.00196644919924438
59	0x3f62392bc0000000	0.002224526833742857
60	0x3f605fafc0000000	0.001998751889914274
61	0x3f4705abe0000000	0.0007025803788565099
62	0x3f4f2fab00000000	0.0009517273865640163
63	0x3f5698c380000000	0.0013791951350867748

layer3.0.shortcut.0.bias f4 [64]
0	0x3d2949e4	0.041330233
1	0xbcbb6b52	-0.022878323
2	0xbed3da88	-0.41377664
3	0xbd071fd2	-0.03298933
4	0x3da52e8a	0.08065517
5	0x3caf48ec	0.021397077
6	0xbc7a14c0	-0.015263736
7	0x3d32fc3c	0.04369758
8	0xbd2258f4	-0.039635614
9	0x3ef34637	0.47514507
10	0xbad776a0	-0.0016438551
11	0xbddae4cc	-0.10688171
12	0xbe031cb9	-0.12803926
13	0xbeb98dca	-0.3624099
14	0x3d742262	0.059603103
15	0xbe87082d	-0.26373425
16	0x3dce46fc	0.10072133
17	0x3c76a5d0	0.015054181
18	0xbe8ce1b4	-0.27515948
19	0x3e3a22ee	0.18177387
20	0x3de1acb4	0.11019269
21	0x3d9884d9	0.07447214
22	0x3dda60f7	0.10663026
23	0xbe19270b	-0.149563
24	0xbeaf3875	-0.3422276
25	0xbe05fb0b	-0.13084047
26	0x3d62537c	0.0552554
27	0x3d095ffb	0.0335388
28	0x3daf72a4	0.08566788
29	0xbca9bc48	-0.020719662
30	0x3dbeae80	0.09310627
31	0xbd52ae19	-0.051435564
32	0x3e3d7d85	0.18504913
33	0xbed103c9	-0.408232
34	0xbe85efa7	-0.26159403
35	0x3e793837	0.2433785
36	0x3e0329bf	0.12808894
37	0xbe106d92	-0.14104298
38	0x3e439ab4	0.19101983
39	0xbca69602	-0.020335201
40	0xbdda5bc7	-0.106620364
41	0xbe99c6cb	-0.3003448
42	0xbe5f21f1	-0.21790291
43	0xbed5b154	-0.41736853
44	0x3e74d397	0.2390884
45	0xbeb7a6cc	-0.35869443
46	0xbe8a4377	-0.27004597
47	0x3e3f4eac	0.18682355
48	0x3b390b78	0.0028235596
49	0xb9fc7c9c	-0.00048158027
50	0x3e2263f4	0.15858442
51	0xbf30d402	-0.690735
52	0xbd988d40	-0.07448816
53	0x3d956613	0.0729486
54	0xbdcceb62	-0.10005833
55	0x3dabc2dc	0.08386776
56	0xbdac8914	-0.08424583
57	0xbe3eb999	-0.18625487
58	0x3e1fd919	0.1561016
59	0x3e0dfd1a	0.13866082
60	0x3d91dd70	0.07122314
61	0x3cecd878	0.028911814
62	0x3df6ad8e	0.12044822
63	0x3ceee988	0.02916409
