benchmarks/resnet/resnet_qat/resnet_fp32_b1_op13.onnx (onnx, 85587 bytes, 32 tensors)

fc.bias f4 [10]
0	0xbd26a22a	-0.040681995
1	0xbc8a0b5c	-0.01685112
2	0xbd7260fd	-0.059174526
3	0xbca9441c	-0.02066236
4	0x3b809942	0.0039245198
5	0x3da291ee	0.0793799
6	0x3d0879db	0.033319335
7	0xbd5a31be	-0.053270094
8	0xbd4bc22a	-0.049745716
9	0xbd573f23	-0.052550446

input_bias f4 [16]
0	0x3f2058dd	0.62635595
1	0xbf3c6e6f	-0.7360601
2	0xbc00bae8	-0.007857062
3	0x3f41caab	0.7569987
4	0x3f2928c6	0.6607784
5	0xbe411234	-0.188546
6	0x3eb6ba16	0.35688847
7	0x3f2b1d7a	0.6684185
8	0x3daef069	0.08541948
9	0x3ed6c684	0.4194833
10	0xbe307867	-0.1723343
11	0x3e13abd7	0.1442102
12	0x3dd42c5d	0.10360024
13	0x3ec74f29	0.38927582
14	0x3ebe0f5d	0.37121096
15	0x3f770de3	0.96505564

relu_bias f4 [16]
0	0xbd9a01aa	-0.07519849
1	0x3fe00087	1.7500161
2	0x3e870c36	0.26376504
3	0x3e914e34	0.28379977
4	0x3fdd9982	1.7312472
5	0x3f82269b	1.0168031
6	0x3f755866	0.9583801
7	0x3d146b85	0.03623535
8	0x3fc339ca	1.5252011
9	0x3fa83d37	1.3143681
10	0x3f2bc527	0.67097706
11	0x3f10996b	0.564841
12	0x3f6838f1	0.90711886
13	0x3f43db32	0.7650634
14	0xbfa75456	-1.3072612
15	0xbdd3d004	-0.1034241

relu_1_bias f4 [16]
0	0x3f38b1c4	0.7214625
1	0x3de14cac	0.11000952
2	0x3f35ae19	0.70968777
3	0x3e0c4c9a	0.13701096
4	0x3f63f5f3	0.89047164
5	0x3efd66cd	0.49492493
6	0xbe66767e	-0.22506139
7	0x3eae3e2d	0.3403181
8	0x3ec6d2f2	0.38832814
9	0x3f19551c	0.5989549
10	0xbf5e8166	-0.86916196
11	0x3e96b74c	0.2943672
12	0x3e5d57b8	0.21615493
13	0xbfbbfb38	-1.4686041
14	0x3e7ce25d	0.24695726
15	0xbe4326d0	-0.19057775

relu_2_bias f4 [16]
0	0x3f120615	0.5704053
1	0x3f8f6c4f	1.1204928
2	0x3ed96322	0.42458445
3	0x3f009a4e	0.5023545
4	0x3fbb5024	1.4633832
5	0x3fa9a88d	1.3254563
6	0x3f4b0806	0.7930912
7	0xbfb7021a	-1.4297516
8	0x3e486b66	0.19572219
9	0x3f55b690	0.83481693
10	0x3f0b7a3c	0.5448339
11	0x3f025a8e	0.50919425
12	0x3ee0bc5d	0.4389371
13	0x3f13f8da	0.5780159
14	0x3f61a12a	0.8813654
15	0x3f895bb4	1.073111

relu_3_bias f4 [16]
0	0x3e669fe0	0.22521925
1	0x3f1e37f0	0.61804104
2	0x3ea257da	0.3170765
3	0xbeb9b74b	-0.36272654
4	0xbe5578a6	-0.20846805
5	0xbeadff77	-0.33983967
6	0x3da73220	0.081638575
7	0x3e9ec774	0.31011546
8	0x3ef63d5f	0.48093697
9	0xbf34e480	-0.70661163
10	0xbf3df4c1	-0.7420159
11	0xbee137a4	-0.43987763
12	0xbeaa77d1	-0.33294538
13	0x3eb42762	0.35186297
14	0x3eeccd51	0.46250394
15	0xbe345128	-0.17609084

relu_4_bias f4 [16]
0	0x3f198c93	0.59980124
1	0x3ef17553	0.47159824
2	0x3f3d38c9	0.7391477
3	0x3fb6ac7c	1.4271388
4	0xbec4c5c1	-0.38432124
5	0x3ecdbae1	0.4018164
6	0x3f4d4158	0.8017783
7	0x3c22f890	0.009946957
8	0x3f6f20a0	0.93409157
9	0x3e2a8f09	0.16656126
10	0x3f329b6c	0.69768405
11	0x3f87d498	1.0611753
12	0x3f2e2910	0.68031406
13	0xbf443f17	-0.7665877
14	0x3f0235a7	0.50863117
15	0xbf764085	-0.961922

relu_5_bias f4 [16]
0	0x3e52a7a7	0.20571767
1	0x3d82e872	0.06391992
2	0xbe06821d	-0.13135572
3	0x3f03b2b5	0.5144456
4	0xbf0421f2	-0.51614296
5	0xbd37b0bd	-0.044846285
6	0xbea30206	-0.3183748
7	0x3ef92df1	0.48667863
8	0x3e96b1fa	0.2943266
9	0xbf25e516	-0.6480268
10	0x3f25fd2a	0.6483942
11	0x3e6dc5dc	0.23220009
12	0xbd54561c	-0.051839933
13	0xbe187bbf	-0.14890955
14	0xbe461ec3	-0.19347672
15	0xbe930eb0	-0.28722143

relu_6_bias f4 [16]
0	0x3e61b402	0.22041324
1	0x3eb598a3	0.35468015
2	0x3ef26b86	0.4734766
3	0x3fe3ec0e	1.7806413
4	0x3f97b749	1.1852809
5	0x3fbb1001	1.4614259
6	0x3f0e6d95	0.5563596
7	0x3f2d453d	0.67683774
8	0x3ee967d3	0.45587024
9	0xbecd8aa5	-0.4014484
10	0x3edf5592	0.43619972
11	0x3f1585d6	0.5840734
12	0xbdf96cc5	-0.12178949
13	0x3e47167c	0.19442171
14	0xbf8d4ca0	-1.1039009
15	0x3f3fc4e3	0.749098

relu_7_bias f4 [16]
0	0xbe98b97b	-0.2982901
1	0x3e213ed5	0.15746625
2	0x3eb8bb0a	0.360802
3	0x3e66bb9a	0.22532502
4	0x3e1cdb80	0.15318108
5	0x3ecc386b	0.39886793
6	0xbe0e769e	-0.13912436
7	0xbe77a7ee	-0.24185154
8	0x3f031379	0.5120159
9	0xbe8e0af2	-0.27742726
10	0x3eed4070	0.46338224
11	0x3e0683d3	0.13136224
12	0x3e34a841	0.17642309
13	0x3d238df8	0.039930314
14	0xbe82a4b7	-0.25516292
15	0x3cd94446	0.026521813

relu_8_bias f4 [16]
0	0x3f258738	0.6465945
1	0x3eef29a4	0.46711457
2	0xbd96078c	-0.07325658
3	0x3e9ebcc7	0.310034
4	0x3ef4bc34	0.47799838
5	0x3efca241	0.4934254
6	0x3e4b8949	0.19876589
7	0x3e386737	0.18008123
8	0x3f01c94e	0.5069779
9	0x3da65be0	0.081229925
10	0xbddf4cc0	-0.10903311
11	0x3e88639a	0.2663849
12	0x3d93079e	0.07179187
13	0xbe311636	-0.17293629
14	0x3ee93180	0.45545578
15	0x3e9acb40	0.30233192

relu_9_bias f4 [16]
0	0xbf8a808e	-1.0820482
1	0x3ea4b786	0.32171267
2	0x3ce616c8	0.028087035
3	0x3e617a61	0.2201934
4	0xbf5b995a	-0.8578087
5	0xbeac609b	-0.33667454
6	0xbeccfc84	-0.40036404
7	0xbf3bcff2	-0.73364174
8	0x3f6d83b2	0.92779076
9	0xbe5d2bee	-0.21598789
10	0xbf3774f9	-0.7166286
11	0x3fbef872	1.491957
12	0x3e82377d	0.2543296
13	0x3f588b64	0.84587693
14	0xbeed8431	-0.46389917
15	0xbe512478	-0.20424068

relu_10_bias f4 [32]
0	0x3f3bc2cc	0.7334411
1	0xbd4c1654	-0.04982598
2	0xbf14e4c9	-0.581616
3	0xbd84c9fe	-0.064838395
4	0x3f8147b3	1.0100006
5	0xbf2032ff	-0.62577814
6	0xbea22c9e	-0.31674665
7	0x3f08fe1c	0.5351274
8	0x3f24795c	0.6424768
9	0x3e3afa42	0.18259528
10	0xbf74b8ee	-0.9559468
11	0x3d505bd4	0.050868824
12	0x3f5233e5	0.82110435
13	0x3e6c92c3	0.2310286
14	0x3f12b4ab	0.5730693
15	0x3f3f547c	0.7473829
16	0xbf0bf0c3	-0.5466425
17	0x3cf749a4	0.030186482
18	0xbf5b6e29	-0.85714966
19	0xbe914581	-0.2837334
20	0xbe09560c	-0.1341173
21	0xbe902dfa	-0.28160077
22	0x3f6d03af	0.92583746
23	0x3f4cfad0	0.8007021
24	0x3f12650a	0.57185423
25	0xbf447806	-0.7674564
26	0x3f4ed034	0.8078644
27	0x3f90cb6e	1.1312082
28	0x3f5a9c3f	0.8539466
29	0xbdb3364c	-0.08750591
30	0xbf7b768e	-0.98227775
31	0x3f21f115	0.63258487

relu_11_bias f4 [32]
0	0x3f1db4fe	0.616043
1	0x3ed0fad2	0.4081636
2	0x3eef07c9	0.46685627
3	0x3f7ac017	0.97949356
4	0x3f912240	1.1338577
5	0x3ed7f6d6	0.42180508
6	0x3e45c112	0.19311932
7	0x3e0065b2	0.12538794
8	0x3fb013d2	1.3756049
9	0x3e7e61df	0.24842022
10	0x3f35da4a	0.7103621
11	0x3eb8203e	0.359621
12	0x3e96ec12	0.29476982
13	0x3f090bf0	0.5353384
14	0x3da07362	0.078345075
15	0x3f9db0e6	1.231961
16	0x3e3912fb	0.18073647
17	0x3e593c6e	0.21214458
18	0xbf6529a9	-0.89516693
19	0x3f026473	0.50934523
20	0x39cb0300	0.00038721412
21	0xbe8ff0bc	-0.28113353
22	0xbe27b140	-0.1637621
23	0xbf822535	-1.0167605
24	0xbebfbcba	-0.37448674
25	0x3f8d9794	1.1061883
26	0x3f016176	0.5053934
27	0x3fafb84c	1.3728118
28	0xbe8aa274	-0.27077067
29	0x3ebeea19	0.37287977
30	0x3f4ae9ca	0.79262984
31	0x3f092dd1	0.53585535

relu_12_bias f4 [32]
0	0xbd6fa580	-0.058507442
1	0xbef75ab6	-0.48311394
2	0x3eae5d7a	0.34055692
3	0xbde1af30	-0.110197425
4	0x3de2ffc8	0.11083943
5	0x3cc0e888	0.02354838
6	0xbe0623dc	-0.13099617
7	0xbeae8914	-0.34088957
8	0x3dd0e3a3	0.10199668
9	0xbe522d5c	-0.20525116
10	0x3d8280f6	0.063722536
11	0x3e54c5ec	0.20778626
12	0x3eeaf0c5	0.45886818
13	0xbe845ed6	-0.25853604
14	0xbdbe53ee	-0.09293352
15	0xbea28995	-0.31745592
16	0xbe0bba93	-0.13645391
17	0x3f151f38	0.5825076
18	0xbd9be85c	-0.076126784
19	0xbdfcd0c2	-0.12344505
20	0x3e7b5d6c	0.24547356
21	0xbe1be7c6	-0.15225133
22	0xbf2e203b	-0.6801793
23	0x3e191d6a	0.14952627
24	0x3ee555d1	0.44792035
25	0xbed6d8d0	-0.4196229
26	0xbd9c6294	-0.0763599
27	0xbef0dfc8	-0.47045732
28	0xbe85bca6	-0.2612049
29	0x3f3aeaed	0.7301472
30	0x3e970edd	0.29503527
31	0x3e5af222	0.21381429

relu_13_bias f4 [32]
0	0x3f225d83	0.6342394
1	0x3ebf43c8	0.373564
2	0x3db7de20	0.08977914
3	0xbd9dcaf6	-0.07704727
4	0x3eeda2b0	0.46413183
5	0x3f099378	0.53740644
6	0xbe239c84	-0.15977675
7	0x3d303e8b	0.043028396
8	0x3f45f657	0.7732901
9	0x3f193d8d	0.59859544
10	0x3ddd220a	0.10797508
11	0x3e760887	0.2402669
12	0xbf27f74f	-0.6561174
13	0x3ed15443	0.408846
14	0xbdd9e538	-0.10639423
15	0xbdd2602c	-0.102722496
16	0x3cac247b	0.021013489
17	0xbdb31b11	-0.08745397
18	0xbdbd56a4	-0.09245041
19	0x3ed77036	0.42077798
20	0xbe25ba08	-0.16184247
21	0x3d626ade	0.055277698
22	0x3e8a4677	0.27006885
23	0x3dea26cf	0.114331834
24	0x3e3d0e18	0.18462408
25	0xbddf94e7	-0.10917073
26	0xbe10a5bc	-0.14125723
27	0x3ed2f1b4	0.4120003
28	0xbe7d9f46	-0.24767789
29	0x3e9be2f8	0.304466
30	0x3de5798b	0.11204823
31	0xbc9ecea0	-0.019385636

relu_14_bias f4 [32]
0	0xbe89bd6a	-0.26902324
1	0xbf14685b	-0.57971734
2	0x3e3fc682	0.18728068
3	0xbea3f731	-0.3202453
4	0x3de2d1ca	0.1107517
5	0x3f6f1083	0.9338457
6	0xbee9b062	-0.45642382
7	0xbc9b1340	-0.018930078
8	0x3efd26f6	0.49443787
9	0x3e0a3f90	0.1350081
10	0xbe64024a	-0.22266498
11	0x3ed4d3f7	0.41567966
12	0x3eedfb99	0.46481016
13	0xbf8d53a9	-1.1041156
14	0x3d3ff1a4	0.046861306
15	0x3cee77d0	0.029109865
16	0x3e884257	0.26613113
17	0xbe81b796	-0.25335377
18	0x3f0e8b79	0.5568157
19	0x3efb5fe6	0.49096602
20	0x3ea68400	0.32522583
21	0x3f135e16	0.5756544
22	0xbebc612c	-0.36792886
23	0xbf60885e	-0.8770808
24	0xbf27fb5a	-0.6561791
25	0xbf904781	-1.1271821
26	0x3e05db6e	0.13071987
27	0x3e1bd054	0.1521619
28	0x3ed30785	0.41216674
29	0xbe3e1d3e	-0.18565843
30	0x3e0b27d2	0.13589409
31	0x3ee461a9	0.4460576

relu_15_bias f4 [32]
0	0x3d8e1508	0.06937605
1	0x3db562c8	0.08856732
2	0x3ed50d28	0.416116
3	0x3da3cf40	0.07998514
4	0x3e52455f	0.20534275
5	0xbdbf15e0	-0.09330344
6	0xbcf25ff8	-0.029586777
7	0x3ec74d11	0.38925985
8	0x3e103f9e	0.14086768
9	0x3ecd6993	0.4011961
10	0x3ecff1df	0.4061422
11	0x3d8c5e88	0.06853968
12	0xbf220859	-0.6329399
13	0xbe4618fe	-0.19345471
14	0xbd8141c2	-0.063113704
15	0xbe02d111	-0.12775065
16	0x3e3db3c2	0.18525603
17	0xbe867e79	-0.26268366
18	0xbe99c778	-0.30034995
19	0x3ef4b180	0.47791672
20	0x3e9a692b	0.30158362
21	0x3d21702a	0.03941361
22	0x3dfc171a	0.12309094
23	0xbed00a1e	-0.4063272
24	0x3e8dd3ce	0.27700657
25	0x3e0461a7	0.12927876
26	0x3ed328d2	0.4124208
27	0x3dcd642c	0.10028872
28	0xbd535384	-0.05159332
29	0xbd95c054	-0.07312074
30	0x3ca28f64	0.019843765
31	0xbe4549ee	-0.19266483

relu_16_bias f4 [32]
0	0x3e711950	0.23544812
1	0xbeb7a5cc	-0.3586868
2	0x3edf1545	0.43570915
3	0xbe58e1ac	-0.21179837
4	0xbe9e6270	-0.30934477
5	0xbec8dacb	-0.39229426
6	0x3e96f34f	0.29482505
7	0xbbce9c40	-0.0063052475
8	0xbeb2113f	-0.34778783
9	0x3e9c18f5	0.3048779
10	0xbe864ec9	-0.26231983
11	0x3c634ae0	0.013872832
12	0x3ed350e4	0.41272652
13	0xbd4c71d8	-0.049913257
14	0x3e44a248	0.1920253
15	0x3c46a1e0	0.012123555
16	0x3f34e9c2	0.70669186
17	0x3e911b3d	0.28341094
18	0x3dc81de2	0.09771325
19	0xbef9e299	-0.48805693
20	0xbedcc649	-0.4312003
21	0x3f029ad8	0.5101752
22	0x3e4763f8	0.19471729
23	0x3ea9e34a	0.3318122
24	0x3e68824c	0.22705954
25	0x3e06f2bc	0.13178533
26	0xbd0c9d40	-0.034329653
27	0x3f3340ce	0.7002076
28	0xbe9da048	-0.30786347
29	0x3eb44568	0.35209203
30	0xbe9bb4af	-0.30411288
31	0xbe18c5f6	-0.14919266

relu_17_bias f4 [32]
0	0xbdef2ef5	-0.11678878
1	0x3ef3ea3b	0.4763964
2	0xbdc5d96c	-0.096606106
3	0x3d627e49	0.055296216
4	0xbda45202	-0.08023454
5	0xbef9d70b	-0.48796877
6	0xbca62610	-0.020281821
7	0xbe27a6a8	-0.16372168
8	0xbd4b53a1	-0.0496403
9	0x3eb0fb9a	0.34566957
10	0xbe478bf0	-0.19486976
11	0x3d8bd941	0.06828547
12	0x3e10aa99	0.14127578
13	0x3cbc79e8	0.023007348
14	0xbe4986f1	-0.19680382
15	0xbd9c303d	-0.07626388
16	0x3d5a670c	0.05332093
17	0x3d815574	0.06315127
18	0xbe20f898	-0.15719831
19	0xbd8172b4	-0.06320706
20	0x3d9046d8	0.070447624
21	0xbe66e293	-0.22547369
22	0xbda4019a	-0.08008118
23	0x3dfab77c	0.12242028
24	0x3eb91bbd	0.36153975
25	0xbe030fb8	-0.12798965
26	0x3e9637e9	0.2933953
27	0xbeb9ae5c	-0.36265838
28	0xbd321820	-0.04348004
29	0xbf2b05fe	-0.6680602
30	0x3e1c5f5e	0.15270755
31	0x3d431696	0.04762896

relu_18_bias f4 [32]
0	0x3e9c9756	0.3058421
1	0x3f0a2058	0.539556
2	0xbd7d0188	-0.06176904
3	0xbddc3bdc	-0.10753605
4	0xbe229b66	-0.15879592
5	0xba49da00	-0.0007700026
6	0xbe177eec	-0.1479451
7	0x3e6994a4	0.22810608
8	0xbeb79267	-0.35853884
9	0xbeafa748	-0.34307313
10	0xbe725ad2	-0.23667458
11	0x3f60e668	0.8785157
12	0xbdd299d4	-0.10283247
13	0xbfc89fbd	-1.5673748
14	0xbe36ab16	-0.17838702
15	0xbf293fa7	-0.6611275
16	0x3d87c6a0	0.066296816
17	0x3dc330f4	0.095308214
18	0x3e34fd8c	0.17674845
19	0x3d8de594	0.06928554
20	0xbe0980b2	-0.13428
21	0xbc249820	-0.010046035
22	0x3e7c9336	0.24665532
23	0xbe70b9a5	-0.23508318
24	0xbea74507	-0.3266985
25	0xbf5599f3	-0.8343803
26	0xbbeafc40	-0.007171184
27	0xbe9b12c8	-0.30287766
28	0xbe682bb0	-0.22672915
29	0xbef58f6a	-0.4796098
30	0x3cbb8610	0.022891074
31	0xbeaa8868	-0.33307195

relu_19_bias f4 [32]
0	0x3e4d0b3b	0.20023815
1	0x3ea59e29	0.3234723
2	0xbdd1ca24	-0.102436334
3	0x3ddae630	0.10688436
4	0x3e33e8f0	0.17569327
5	0xbf153d33	-0.5829651
6	0x3df63a8a	0.12022884
7	0xbe25edc4	-0.16203982
8	0x3cf66f90	0.030082494
9	0xbe26de33	-0.162957
10	0x3d47ac6c	0.04874842
11	0x3ded7c3c	0.115959615
12	0xbe4edd89	-0.20201696
13	0x3e9366d0	0.28789377
14	0xbd850c67	-0.06496506
15	0x3d194194	0.037416056
16	0xbe9acf81	-0.30236438
17	0xbced5daa	-0.028975327
18	0x3e5aa9a5	0.21353777
19	0xbe0691e7	-0.13141595
20	0x3e925ca2	0.28586298
21	0xbe659d8c	-0.2242338
22	0xbe95797e	-0.29194254
23	0x3e0902c5	0.13379963
24	0xbe672650	-0.22573209
25	0xbd694a96	-0.056955896
26	0x3ecda611	0.4016576
27	0x3f3014f0	0.6878195
28	0xbdd9bdce	-0.106319055
29	0xbe9eb59d	-0.30997935
30	0x3dfce247	0.123478465
31	0x3e69aa9f	0.22818993

relu_20_bias f4 [64]
0	0xbf2ed6c6	-0.6829647
1	0xbeb82672	-0.3596683
2	0xbd0cbb7d	-0.03435849
3	0xbf088aa3	-0.5333654
4	0x3de8fd2a	0.11376412
5	0xbe04c412	-0.1296542
6	0xbefb0c7a	-0.49032956
7	0x3f0346ae	0.51279724
8	0xbf2ea2bd	-0.6821707
9	0xbf17b8ed	-0.5926655
10	0xbee4d836	-0.44696206
11	0xbbc0c240	-0.0058825314
12	0x3e97869a	0.2959488
13	0xbe9e03cf	-0.3086228
14	0x3e71272c	0.23550099
15	0xbdceec51	-0.101036675
16	0xbdc3494a	-0.09535463
17	0x3e205738	0.15658271
18	0x3dd1f5b6	0.10251944
19	0x3e8cb7b9	0.2748392
20	0xbe4ddaee	-0.20103046
21	0xbeeb21f2	-0.45924336
22	0xbdd320d8	-0.10308999
23	0xbea08710	-0.31353045
24	0x3e39d65e	0.18148181
25	0xbea7cb34	-0.3277222
26	0xbe549944	-0.20761591
27	0xbf21049a	-0.62897646
28	0xbd71090c	-0.05884652
29	0xbe34538c	-0.17609996
30	0xbe83b864	-0.25726616
31	0xbf845d0a	-1.0340893
32	0xbd910c1c	-0.07082388
33	0x3d358e26	0.044325016
34	0xbdf8df8b	-0.121520124
35	0xbe1a5749	-0.15072359
36	0xbd88fb78	-0.06688589
37	0x3db617e4	0.088912755
38	0xbe94b97c	-0.29047763
39	0xbd39f665	-0.045400996
40	0x3d93638c	0.071967214
41	0xbe5bfc4c	-0.21482962
42	0x3ec31d02	0.3810807
43	0xbdb534b3	-0.08847942
44	0xbeccb52e	-0.3998198
45	0x3db197be	0.08671521
46	0x3e2ced5f	0.16887425
47	0x3e1031b6	0.14081463
48	0xbeefc270	-0.46828032
49	0x3efa29db	0.48860058
50	0xbf589636	-0.84604204
51	0x3e076f1f	0.13225983
52	0x3d19047e	0.0373578
53	0xbea8e387	-0.3298609
54	0x3e9d5791	0.3073087
55	0xbeb207fe	-0.34771723
56	0xbea53076	-0.32263535
57	0xbebd0e29	-0.36924866
58	0x3e9759f9	0.2956083
59	0xbe6380d1	-0.22217108
60	0xbc4c40bc	-0.012466606
61	0x3e4ac68c	0.19802302
62	0xbeb680d2	-0.35645157
63	0xbe776033	-0.24157791

relu_21_bias f4 [64]
0	0x3f4a6129	0.79054505
1	0xbda5c7f7	-0.08094781
2	0x3f170467	0.5899109
3	0x3e86768c	0.2626232
4	0x3e8a1a5c	0.26973236
5	0xbf09ca89	-0.5382467
6	0x3e9d2fd0	0.3070054
7	0x3e847d74	0.25876963
8	0x3cf20640	0.029543996
9	0x3f8d73bb	1.1050943
10	0x3e575ffb	0.21032707
11	0x3ddcc5aa	0.10779889
12	0x3ea5bc72	0.32370335
13	0x3da4a2e0	0.080388784
14	0x3e4dfede	0.20116755
15	0x3d4e4924	0.05036272
16	0x3ed5d50a	0.41764098
17	0x3edc2236	0.4299485
18	0x3ef12c2b	0.4710401
19	0x3e9eacdf	0.30991265
20	0x3f03d51d	0.5149706
21	0xbe09aac4	-0.13444048
22	0x3f82d0c7	1.0219964
23	0x3d2c11a0	0.042008996
24	0x3eadc165	0.3393661
25	0xbe056110	-0.13025308
26	0x3f33c399	0.70220333
27	0x3ec12e4b	0.3773063
28	0xbdb07488	-0.086159766
29	0xbe372dba	-0.17888537
30	0xbea0d5fa	-0.3141325
31	0xbddcba36	-0.107777044
32	0xbf43372f	-0.7625608
33	0x3f487cd7	0.7831549
34	0xbdd08362	-0.10181309
35	0x3dfa5ca0	0.12224698
36	0xbe0b9636	-0.1363152
37	0x3f09ba69	0.53800064
38	0xbe4fb606	-0.2028428
39	0x3e8bb1d8	0.27284122
40	0x3f067803	0.52526873
41	0xbd040bff	-0.032238003
42	0xbf068e78	-0.5256114
43	0xbf328341	-0.6973153
44	0x3d9e2cba	0.07723375
45	0xbdcf175b	-0.101118766
46	0x3f25e360	0.6480007
47	0x3d8aabd7	0.06771057
48	0x3ee6fb1e	0.45113462
49	0x3f17ab00	0.592453
50	0x3ebc6960	0.36799145
51	0xbea59641	-0.32341197
52	0x3f170b30	0.59001446
53	0x3e5d18d3	0.21591501
54	0x3f3f21d8	0.74661016
55	0x3d9373a6	0.071997926
56	0x3baf4120	0.0053483397
57	0xbd8a8825	-0.06764249
58	0x3e851ad4	0.2599703
59	0xbdcfcc80	-0.10146427
60	0x3e5cd29e	0.21564719
61	0x3e6d902c	0.23199528
62	0x3e8dc0c0	0.2768612
63	0x3e54ea20	0.20792437

relu_22_bias f4 [64]
0	0xbea9dc38	-0.33175826
1	0x3ea4cc13	0.32186946
2	0xbed5d3b2	-0.41763073
3	0xbde0e3e8	-0.1098097
4	0x3e590556	0.21193442
5	0xbf22e608	-0.6363225
6	0xbd4fd7d8	-0.050742954
7	0xbf481f50	-0.7817278
8	0xbf03077f	-0.51183313
9	0x3dcaf7c0	0.09910536
10	0x3d3412e8	0.043963343
11	0xbea8f692	-0.33000618
12	0xbee9f563	-0.45695028
13	0xbd1c6cd0	-0.03818971
14	0xbe86cce8	-0.26328206
15	0xbe3f377e	-0.18673512
16	0xbf1584da	-0.5840584
17	0x3e432f0c	0.19060916
18	0xbaeafd00	-0.0017928183
19	0xbef90118	-0.48633647
20	0x3ddfeffc	0.10934445
21	0x3c89d1c4	0.016823657
22	0xbefd0cbf	-0.49423787
23	0x3ea56ca4	0.3230945
24	0x3d1cfcc8	0.03832701
25	0x3e297224	0.16547447
26	0x3d003e90	0.031309664
27	0x3d502bd8	0.050823063
28	0x3d605a90	0.054773867
29	0xbdf0465c	-0.1173217
30	0xbee07e72	-0.4384647
31	0xbd689708	-0.05678466
32	0xbe3cbba5	-0.18430956
33	0x3e66dfee	0.2254636
34	0x3e16aaa2	0.14713529
35	0x3d1ce368	0.03830281
36	0xb9d89c00	-0.0004131496
37	0xbe22a4ea	-0.15883222
38	0x3df89ca8	0.12139255
39	0xbe2e7976	-0.17038521
40	0x3d6efb90	0.058345377
41	0xbe1e673c	-0.15469068
42	0x3e0153c0	0.12629604
43	0xbca009b0	-0.01953587
44	0x3d753cb0	0.05987233
45	0x3e2baa50	0.16764188
46	0xbe60e926	-0.21963939
47	0xbc5f0ae0	-0.013613433
48	0xbe9b75bf	-0.3036327
49	0x3dc01be8	0.09380323
50	0xbf003c35	-0.5009187
51	0xbd1b32f8	-0.037890404
52	0xbe52954a	-0.20564762
53	0x3e243a34	0.16037828
54	0xbea95eb2	-0.3308006
55	0x3e2a4acc	0.16630095
56	0x3e1eb2c1	0.15497877
57	0xbe8d8290	-0.27638674
58	0xbda1604c	-0.07879695
59	0xbdaf493c	-0.0855889
60	0xbe85c9c5	-0.261305
61	0x3cb0ced0	0.02158299
62	0xbe00b1ee	-0.12567875
63	0xbe01c252	-0.12671784

relu_23_bias f4 [64]
0	0x3c956820	0.018238127
1	0x3ed60a4b	0.41804728
2	0x3e896ef3	0.2684246
3	0xbf570d6b	-0.8400485
4	0x3d8eb594	0.06968227
5	0xbf3c6203	-0.73587054
6	0x3da7c200	0.081912994
7	0xbf0e750a	-0.5564734
8	0xbdccfe5e	-0.10009454
9	0xbf15a182	-0.58449566
10	0x3d90acd4	0.07064214
11	0xbe59eb82	-0.21281245
12	0x3eaf8c2c	0.3428663
13	0x3f09d364	0.5383818
14	0x3e94d444	0.29068196
15	0x3f0d5c80	0.5521927
16	0xbdf3d504	-0.11905864
17	0x3d021f50	0.031768143
18	0xbed18c25	-0.40927234
19	0x3e3bb71c	0.1833157
20	0x3de10740	0.10987711
21	0xbe94f62b	-0.2909406
22	0xbe595310	-0.21223092
23	0xbc270f60	-0.010196537
24	0x3dbadf64	0.0912464
25	0xbf13ecac	-0.5778301
26	0xbdb1cab2	-0.08681239
27	0x3d3c68f8	0.045998544
28	0x3da7fe78	0.08202833
29	0x3e6a9c96	0.22911295
30	0x3d173cf0	0.03692335
31	0x3e6b2a2f	0.2296531
32	0x3e747fd4	0.23876888
33	0xbc40b340	-0.0117614865
34	0xbdeb909c	-0.115021914
35	0x3e23450c	0.15944308
36	0xbe7d82f2	-0.24756983
37	0xbd4ed23c	-0.050493464
38	0x3e8efa1a	0.27925187
39	0xbe06d6d2	-0.13167885
40	0xbf08f679	-0.5350109
41	0x3df74604	0.12073901
42	0x3e231303	0.15925221
43	0x3e6bc13d	0.23022933
44	0x3e5280ae	0.205569
45	0x3ed9aadc	0.42513168
46	0x3e8d14d2	0.27554947
47	0xbe42e24c	-0.19031638
48	0x3eac7c00	0.33688354
49	0x3e312b0c	0.17301577
50	0xbdfb469a	-0.122693256
51	0x3f18fd03	0.59761065
52	0xbe201a23	-0.1563497
53	0x3ed44f96	0.4146697
54	0xbe2d58fe	-0.16928479
55	0xbdfa1c66	-0.12212448
56	0x3e44d19e	0.19220588
57	0x3e751e92	0.23937443
58	0xbdd70a60	-0.10500026
59	0xbd4025a8	-0.04691091
60	0x3ddd8eac	0.10818228
61	0x3ec2daf1	0.38057664
62	0x3ebad3ef	0.36489818
63	0x3e2b6178	0.167364

relu_24_bias f4 [64]
0	0xbd711c18	-0.058864683
1	0x3d6a7200	0.057237625
2	0x3d30bb40	0.043147326
3	0xbd86c6a4	-0.065808564
4	0xbdd3e330	-0.10346067
5	0x3df04d1c	0.117334574
6	0xbe7d08d0	-0.24710393
7	0x3eb6f445	0.35733238
8	0x00008bef	5.0199e-41
9	0x3cd3a040	0.02583325
10	0xbe0d6e98	-0.1381172
11	0x3d816af0	0.06319225
12	0x3d019fa0	0.03164637
13	0x3cf884f0	0.030336827
14	0xbf0a5062	-0.54028904
15	0xbf2216c5	-0.63315994
16	0xbe73ba62	-0.23801568
17	0xbe59f5b8	-0.2128514
18	0xbd5cd5b0	-0.053914726
19	0x3dc592bc	0.09647128
20	0x3e120cf2	0.1426275
21	0xbe5acec2	-0.21367934
22	0xbe8c55e5	-0.27409282
23	0x3d590198	0.052980036
24	0xbf28ba3b	-0.65909165
25	0xbefc99cb	-0.49336085
26	0xbd080a10	-0.03321272
27	0x3d9ee3f8	0.07758325
28	0x800304d3	-2.77237e-40
29	0xbe9b12ba	-0.30287725
30	0xbc13cf80	-0.00902164
31	0xbe8cc0db	-0.27490887
32	0x80008b79	-5.0033e-41
33	0xbe8f39e0	-0.27973843
34	0xbdfac2d0	-0.12244189
35	0xbcffbf10	-0.031219035
36	0xbe8cd1dc	-0.2750386
37	0xbf7b1e98	-0.9809356
38	0x3e873fa0	0.2641573
39	0x3d10d690	0.035360873
40	0xbe0fbb50	-0.14036298
41	0x3f5a470a	0.85264647
42	0x3d5028d0	0.05082017
43	0xbc8e70e0	-0.017387807
44	0xbe953567	-0.29142305
45	0xbd7f07a0	-0.06226313
46	0x3ea579f7	0.32319614
47	0xbdc73780	-0.09727383
48	0x3de28904	0.1106129
49	0xbec70311	-0.38869527
50	0xbe21e48c	-0.1580984
51	0x3c9378b0	0.018001884
52	0xbdbe2218	-0.092838466
53	0xbe92897c	-0.28620517
54	0xbd8d1878	-0.06889433
55	0xbe8e0f95	-0.27746263
56	0xbd89d318	-0.06729716
57	0x3f1b3a09	0.6063543
58	0x00008ac3	4.9778e-41
59	0xbe2961b8	-0.16541183
60	0xbefe8dd4	-0.4971758
61	0xbe135388	-0.14387333
62	0xbe18362c	-0.14864415
63	0x3bfe9740	0.0077694952

relu_25_bias f4 [64]
0	0x3e131d60	0.14366674
1	0x3f736639	0.95077854
2	0x3c55b4f0	0.013043627
3	0xbd6a3e75	-0.05718847
4	0x3ea73eac	0.32665002
5	0xbd4af425	-0.04954924
6	0x3f814b00	1.0101013
7	0x3eed3177	0.463268
8	0xbc05e80e	-0.008173002
9	0xbd49f958	-0.04931006
10	0x3f36f160	0.7146206
11	0xbe40e542	-0.18837455
12	0x3e9ee72e	0.3103575
13	0xbccf3618	-0.025294349
14	0x3e933403	0.2875062
15	0xbe904fd8	-0.28185916
16	0xbec028fe	-0.37531275
17	0xbdabcfa8	-0.08389217
18	0x3e56cd57	0.20976768
19	0xbf0a14bd	-0.53937894
20	0x3ec541bd	0.38526717
21	0x3f48954c	0.7835281
22	0x3d371ab8	0.044703215
23	0x3ec1a5d2	0.37821823
24	0x3f7a29d2	0.9772006
25	0x3e5e931b	0.21735804
26	0xbdcf4a7e	-0.1012163
27	0x3e53eb8e	0.20695326
28	0x3eb521a3	0.35377225
29	0x3f1f862e	0.62314117
30	0x3e65d188	0.22443211
31	0x3ed36a1c	0.41291893
32	0xbb68e650	-0.0035537668
33	0x3eb9aa88	0.36262918
34	0xbe400dcb	-0.18755262
35	0x3f2005ab	0.6250865
36	0xbe862c42	-0.2620564
37	0x3bf7e96c	0.007565668
38	0xbba64780	-0.0050744414
39	0x3f116edf	0.568098
40	0xbd055a23	-0.032556664
41	0xbedf4d6e	-0.43613762
42	0x3eb01520	0.34391117
43	0x3f05290a	0.52015746
44	0x3c0c52c8	0.008564658
45	0x3eeb4706	0.45952624
46	0x3f418250	0.75589466
47	0xbd91e318	-0.07123393
48	0xbe37ffe5	-0.1796871
49	0xbe46e73b	-0.19424145
50	0x3e30bc97	0.17259441
51	0xbe8c6134	-0.2741791
52	0xbe38187c	-0.1797809
53	0x3e840c3b	0.2579058
54	0xbd40ac2d	-0.0470392
55	0xbea8aa11	-0.3294225
56	0x3fa6074f	1.297098
57	0x3f90c586	1.1310279
58	0x3f32506a	0.6965395
59	0x3e732124	0.23743111
60	0xbc8fdd31	-0.017561527
61	0xbdabc75c	-0.08387634
62	0x3e1e346e	0.15449688
63	0xbd6b18b1	-0.057396594

relu_26_bias f4 [64]
0	0x80000c88	-4.495e-42
1	0x80003782	-1.9912e-41
2	0x00008ef6	5.1285e-41
3	0x80008a3c	-4.9589e-41
4	0xbebd8334	-0.37014163
5	0x3c9e3da0	0.019316494
6	0xbf04c77e	-0.518669
7	0x0004a51d	4.26573e-40
8	0x80008b82	-5.0046e-41
9	0x0000476a	2.5619e-41
10	0x0000a02c	5.7459e-41
11	0x80048a03	-4.16851e-40
12	0x000012be	6.723e-42
13	0x80006f82	-4.0001e-41
14	0x800089fa	-4.9497e-41
15	0xbeafbc77	-0.34323475
16	0xbeaceabe	-0.33772844
17	0x0000a02a	5.7456e-41
18	0x0000a545	5.9288e-41
19	0xb4e3b5f3	-4.241443e-07
20	0xbc692c88	-0.0142318085
21	0xbeceedea	-0.4041589
22	0x80061b76	-5.60864e-40
23	0x80030c7c	-2.79985e-40
24	0x0003054c	2.77407e-40
25	0xbe2e289c	-0.17007679
26	0x00048746	4.15869e-40
27	0xbec31068	-0.38098454
28	0x00008e2f	5.1006e-41
29	0x0000a179	5.7925e-41
30	0xbe35d31d	-0.17756315
31	0x00001c67	1.0189e-41
32	0x800089b4	-4.9399e-41
33	0x800617e9	-5.5959e-40
34	0x00008918	4.918e-41
35	0xbacad480	-0.0015474707
36	0x00009d7e	5.6498e-41
37	0x80048524	-4.15104e-40
38	0xbf0dc029	-0.5537134
39	0xbdab1eb8	-0.083554685
40	0xbe65519c	-0.22394413
41	0x80061a3c	-5.60424e-40
42	0x80009613	-5.3836e-41
43	0x80000c91	-4.508e-42
44	0xbde5b532	-0.11216201
45	0x80000a26	-3.64e-42
46	0x00009ebb	5.6942e-41
47	0xbc4f24a0	-0.012643009
48	0xbe71dc0a	-0.23619094
49	0xbed8c9e8	-0.42341542
50	0xbe97eaea	-0.29671413
51	0x8004a5a6	-4.26765e-40
52	0x000088e4	4.9107e-41
53	0xbe93ae9c	-0.28844154
54	0x00061236	5.57546e-40
55	0x3ed55d0b	0.4167255
56	0xbe0a81fb	-0.13526146
57	0x8000ab54	-6.1461e-41
58	0x00001c4f	1.0155e-41
59	0x000088d3	4.9083e-41
60	0xbe8cf467	-0.27530214
61	0x00008999	4.9361e-41
62	0xbe58af42	-0.21160606
63	0xbe9b94d8	-0.30386996

relu_27_bias f4 [64]
0	0xbe7ebb94	-0.24876243
1	0xbeb9a4dd	-0.36258593
2	0xbe45082e	-0.19241402
3	0xbe3e1a27	-0.18564664
4	0xbe3c72f1	-0.18403222
5	0xbe76f2ee	-0.24116108
6	0xbe71e5dc	-0.2362284
7	0xbe2a87c1	-0.16653349
8	0xbe6d4cf6	-0.2317389
9	0xbe1dddf4	-0.154167
10	0xbe0a4d5e	-0.13506076
11	0xbe1b9e6b	-0.1519715
12	0xbe56d62b	-0.20980136
13	0xbf0ca18e	-0.5493401
14	0xbcca8690	-0.024722368
15	0xbeae866d	-0.34086934
16	0xbe892613	-0.2678686
17	0xbdc8d136	-0.09805529
18	0xbe82094a	-0.25397712
19	0xbe34cfef	-0.17657445
20	0xbe5e5513	-0.2171214
21	0xbed4da6e	-0.415729
22	0xbdd69fcc	-0.104796976
23	0xbe947834	-0.28997958
24	0xbecbb2db	-0.39784893
25	0xbe01ecb7	-0.12687956
26	0xbe29dd39	-0.16588296
27	0xbe33c980	-0.17557335
28	0xbec40f98	-0.38293147
29	0xbec0c060	-0.3764677
30	0xbe56c40e	-0.20973226
31	0xbd19c300	-0.037539482
32	0xbe610e26	-0.21978053
33	0xbe588aca	-0.21146694
34	0xbd436049	-0.047699247
35	0xbebc3e83	-0.36766443
36	0xbe405afe	-0.18784711
37	0xbd257415	-0.040393908
38	0xbea0a3f6	-0.31375092
39	0xbe990e7a	-0.29893857
40	0xbd914be0	-0.0709455
41	0xbc318710	-0.010835424
42	0xbe85eeb1	-0.2615867
43	0xbdd5b58c	-0.10435018
44	0xbe52eba9	-0.2059771
45	0xbed28027	-0.41113397
46	0xbe81d2b4	-0.25356066
47	0xbe79377e	-0.24337575
48	0xbdd16845	-0.10224966
49	0xbdf743fe	-0.12073515
50	0xbe51a7f4	-0.20474225
51	0xbe92357f	-0.2855644
52	0xbe808101	-0.25098422
53	0xbe839cd9	-0.25705603
54	0xbe66fd1c	-0.22557491
55	0xbe737aff	-0.23777388
56	0xbeb8b664	-0.36076653
57	0xbe5a1bd4	-0.21299678
58	0xbea4bc12	-0.32174736
59	0xbdc4b5f3	-0.096050166
60	0xbcb633c0	-0.022241473
61	0xbd0ba498	-0.034092516
62	0xbd748ad2	-0.059702702
63	0xbe836a20	-0.25666904

relu_28_bias f4 [64]
0	0x80009777	-5.4335e-41
1	0x0000021a	7.54e-43
2	0x00048653	4.15528e-40
3	0x8000351e	-1.9055e-41
4	0x800089a7	-4.938e-41
5	0x00008a05	4.9512e-41
6	0x80017121	-1.32419e-40
7	0x00000935	3.303e-42
8	0x800040e0	-2.3273e-41
9	0x80061334	-5.57902e-40
10	0x8000a2d2	-5.8409e-41
11	0x80009e40	-5.677e-41
12	0x80002c2c	-1.5846e-41
13	0x80008c7c	-5.0396e-41
14	0x00001ed2	1.1056e-41
15	0x0000a64e	5.9659e-41
16	0x0004a12e	4.25162e-40
17	0x00048998	4.16701e-40
18	0x00048a8c	4.17043e-40
19	0x000308fe	2.78732e-40
20	0x800498b8	-4.22127e-40
21	0xbddc8a0e	-0.10768519
22	0x00061b65	5.6084e-40
23	0x00005554	3.061e-41
24	0x8003299d	-2.90435e-40
25	0x8000890c	-4.9163e-41
26	0x000026d6	1.3932e-41
27	0x0000a07b	5.757e-41
28	0x8000a6b4	-5.9802e-41
29	0x80003b7d	-2.134e-41
30	0x000322f3	2.88044e-40
31	0x8000a90c	-6.0643e-41
32	0x00004a0d	2.6564e-41
33	0x80008ab0	-4.9752e-41
34	0x80008fa4	-5.1529e-41
35	0x000498b6	4.22124e-40
36	0x80009d6d	-5.6474e-41
37	0x80000aa4	-3.817e-42
38	0x00009a9e	5.5466e-41
39	0x8000989a	-5.4743e-41
40	0x800612e0	-5.57784e-40
41	0x80008a40	-4.9595e-41
42	0x0002eeba	2.6931e-40
43	0x00017172	1.32532e-40
44	0x80008999	-4.9361e-41
45	0xbd52d5b8	-0.05147335
46	0x000300e4	2.75826e-40
47	0x00008b55	4.9983e-41
48	0x00000ca3	4.533e-42
49	0x8000920a	-5.2389e-41
50	0x0000ae4d	6.2527e-41
51	0x8001530b	-1.21626e-40
52	0x80008940	-4.9236e-41
53	0x80008aae	-4.9749e-41
54	0x00008983	4.933e-41
55	0x8000897b	-4.9319e-41
56	0x80008941	-4.9237e-41
57	0x00002b95	1.5634e-41
58	0x80006c5e	-3.8875e-41
59	0x8000a49d	-5.9052e-41
60	0x80008aaf	-4.975e-41
61	0xbcb01e54	-0.021498837
62	0x000007be	2.777e-42
63	0x0000ac45	6.1799e-41

relu_29_bias f4 [64]
0	0xbc5db772	-0.013532506
1	0xbdd46124	-0.103700906
2	0xbde30940	-0.11085749
3	0xbe5b792c	-0.21432942
4	0xbbe30cb2	-0.0069290036
5	0xbcd6249d	-0.026140505
6	0xbd856ac8	-0.065145075
7	0xbdd1198a	-0.10209949
8	0xbd252a05	-0.040323276
9	0xbdf4c189	-0.119509764
10	0xbe06b6c4	-0.13155657
11	0xbe09f714	-0.13473159
12	0xbdb83b08	-0.08995634
13	0xbe7d4c14	-0.24736053
14	0xbd9cd6b6	-0.0765814
15	0xbe2fbbff	-0.17161559
16	0xbc78893a	-0.015169436
17	0xbda54ba2	-0.080710664
18	0xbe5d34a8	-0.21602118
19	0xbd8df9bc	-0.06932399
20	0xbe226125	-0.1585737
21	0xbdffdeb6	-0.124936506
22	0xbb249b88	-0.0025117118
23	0xbe379a7d	-0.17930026
24	0xbdf952e6	-0.12174015
25	0xbcb209b5	-0.021733144
26	0xbd1afd2c	-0.0378391
27	0xbcce91cc	-0.025216006
28	0xbe64e153	-0.2235158
29	0xbe61a7fe	-0.2203674
30	0xbe5b8ac8	-0.2143966
31	0xbd898690	-0.06715119
32	0xbe36744e	-0.17817804
33	0xbc21185f	-0.009832471
34	0xbd2a485b	-0.04157291
35	0xbe2eb3d5	-0.17060788
36	0xbe3ebb91	-0.18626238
37	0xbd87deab	-0.066342674
38	0xbd83e17e	-0.064394936
39	0xbdab5a8d	-0.083668806
40	0xbd95ea9a	-0.07320137
41	0xbc7f01b0	-0.015564367
42	0xbd9e430b	-0.07727631
43	0xbb17bfe2	-0.0023155143
44	0xbe0046d1	-0.12527014
45	0xbddf6348	-0.10907608
46	0xbda59f72	-0.080870524
47	0xbd869f87	-0.06573396
48	0xbdd26b8a	-0.10274418
49	0xbdec387e	-0.115342125
50	0xbe2535fe	-0.16133878
51	0xbe82d428	-0.25552487
52	0xbe5541f8	-0.20825946
53	0xbdddd4a1	-0.10831571
54	0xbe41a4c0	-0.18910503
55	0xbd9415eb	-0.07230743
56	0xbdaca16c	-0.08429226
57	0xbddeb500	-0.10874367
58	0xbdaf5443	-0.085609935
59	0xbe2be3a5	-0.16786058
60	0xbd1013f7	-0.03517529
61	0xbd7ea95d	-0.062173236
62	0xbdc05fa4	-0.09393242
63	0xbdc0a610	-0.09406674
